5_policy_network.pt (torch, 7071 bytes, 5 tensors)

fc1.weight f4 [32, 3]
000000 75 dc b1 3e 84 36 95 3d da 17 0a be b2 00 19 be
       0.34738508 0.07285789 -0.13485661 -0.14941671
000010 cb 7e 22 3f e9 e1 94 be 71 52 51 3f d1 20 5d bf
       0.6347472 -0.29078606 0.8176642 -0.863782
000020 65 cc cc be b4 da c9 bd f4 6a 39 3f ae 2e d7 be
       -0.3999969 -0.098561674 0.7242882 -0.420278
000030 c5 4a e8 3c 73 87 2a 3e 31 d1 97 3e 2e 5e e1 3e
       0.028355965 0.16653232 0.29651788 0.44017166
000040 ae 97 0d bf 5d d0 06 3f a1 8c 54 3f 03 18 29 3f
       -0.5530957 0.5266169 0.8302708 0.66052264
000050 9c 4f 6a 3e 98 3a a3 be e5 06 64 3e 58 7c df be
       0.22881931 -0.3188064 0.22268255 -0.43649554
000060 50 63 e2 be d5 dd 74 be c3 30 b4 bd dd 2b 0a 3f
       -0.44216394 -0.23912747 -0.08798363 0.5397318
000070 77 ce c9 be f4 ea 95 be 35 bd a1 3e bc c2 ea 3e
       -0.39415333 -0.29280818 0.31589666 0.45851696
000080 80 17 7e be b3 c6 9d 3e f6 0b b9 bb 14 11 01 3f
       -0.24813652 0.30815658 -0.005647178 0.50416684
000090 7a 31 43 bf 59 bb a0 3d ac 31 3e 3f e6 b9 3c be
       -0.7624737 0.07848234 0.74294543 -0.1843029
0000a0 af 12 f7 3e 3f 75 28 bf ff 6e b5 be 72 09 7d be
       0.48256442 -0.65803903 -0.35436246 -0.24710634
0000b0 2b cd c3 be 02 33 16 bf 5c 0e 4b bf 5b af 35 be
       -0.38242468 -0.5867158 -0.79318786 -0.17742674
0000c0 ee d7 e9 be 7e 64 b3 3e 20 5d 19 3e 67 e6 86 3e
       -0.45672554 0.35037607 0.1497693 0.26347658
0000d0 45 d7 80 be d5 05 0e 3f 9f b0 05 3e 18 9e a8 be
       -0.25164238 0.5547765 0.13055657 -0.32933116
0000e0 a8 5c f8 bb 21 cd 81 3f 96 4c 85 be 5a 0d 3a bf
       -0.007579405 1.0140725 -0.26034993 -0.7267662
0000f0 5a 43 05 3f 2d 34 67 be 1b ad 0d 3f b9 1d 8b be
       0.52055895 -0.22578497 0.55342263 -0.27171114
000100 03 2b b0 be 51 8a 07 bd 38 b3 3c be d5 08 1d bf
       -0.34407815 -0.033090893 -0.18427742 -0.613416
000110 33 32 ad bc f6 dc 1c 3f 79 6d 0c be 98 33 af 3d
       -0.0211421 0.6127466 -0.13713636 0.085547626
000120 86 b0 be 3e 30 0a 2c bf 79 c9 eb be 22 51 ff 39
       0.37244052 -0.67203045 -0.4605215 0.0004869784
000130 47 80 11 3e 88 5b 0b bf 1a ac 99 3e 11 93 54 3d
       0.1420909 -0.5443654 0.30014116 0.051898066
000140 39 22 06 bf 6e d8 b1 3e 3b cc 49 be 75 a8 db bd
       -0.5239597 0.34735435 -0.19706814 -0.1072549
000150 e7 92 ee be e4 27 47 be 8b d8 ba 3e 40 4a 83 be
       -0.46596453 -0.19448811 0.36493334 -0.25642586
000160 39 57 39 3f 41 ad fa be d1 ea b9 3a cb 1e 1b bf
       0.72398716 -0.48960307 0.0014184361 -0.6059386
000170 f6 fc 21 3f 4f 14 12 3f a5 f5 18 3e 24 08 ed be
       0.6327661 0.5706224 0.14937456 -0.46295273

fc1.bias f4 [32]
000000 e7 cf 26 be 19 23 90 3e 59 55 db be 7f 50 b8 3d
       -0.16290246 0.28151777 -0.42838553 0.089997284
000010 30 94 97 3e bf 9c f2 be 09 30 ff 3e 10 5d b0 3e
       0.29605246 -0.47385213 0.49841335 0.34446
000020 d1 b7 fa 3e 38 fa af be 4b c0 e7 3e 69 2d 06 3f
       0.48968366 -0.3437059 0.45263895 0.5241304
000030 d9 e6 dd 3e c5 c7 5b be 7c 2c 92 3e ee 23 3d be
       0.43340185 -0.21462925 0.28549564 -0.18470737
000040 9d 25 42 3e 0b 6d 2a bd 76 38 a0 be 00 3a 0c bf
       0.18959661 -0.041607898 -0.31293076 -0.54776
000050 26 ce a2 bd a2 77 ed be c8 fd cd 3d cd d6 00 3f
       -0.07949476 -0.46380335 0.100581706 0.5032776
000060 9e 59 8d bd 1b 7a 84 3d dd e3 35 be 84 be 97 bc
       -0.06901859 0.06468602 -0.17762704 -0.018523462
000070 2c 08 dd 3e 47 48 c4 3e 57 cb 82 3d 02 b4 bb be
       0.43170297 0.38336393 0.0638644 -0.36660773

fc2.weight f4 [32, 32]
000000 d3 d9 34 3d fc e4 fd bc aa 93 09 3d 8c 84 48 3d
       0.044153046 -0.030992977 0.03358809 0.04895453
000010 d7 77 75 bd 87 a6 12 bc aa 20 c7 bd f5 cf 34 3d
       -0.05992874 -0.008950836 -0.09723027 0.044143636
000020 de 79 07 be 97 e4 77 bb 68 37 0f 3c d6 48 05 3e
       -0.13230082 -0.003782546 0.008741237 0.13016066
000030 4b 5c 30 be 6e b0 7b bd a1 76 27 be 57 84 21 be
       -0.17222707 -0.061447553 -0.16353847 -0.1577314
000040 80 c9 d1 bd 2f 97 f0 bd 4b 84 7d bc 69 d5 81 3d
       -0.10243511 -0.11747586 -0.015473436 0.06339533
000050 7c a8 04 3e f0 f2 da 3b c7 3c f5 bb 66 f9 2c 3c
       0.12954897 0.0066817924 -0.007484052 0.010557508
000060 82 81 a8 bd 08 8b 92 bd 01 06 ee bd 51 d8 b2 3d
       -0.08227827 -0.07155424 -0.11622239 0.08732665
000070 82 02 d7 bd 15 6d 8b bd 3e d7 b9 bd 2c 07 74 3d
       -0.10498525 -0.06807915 -0.09074257 0.059577152
000080 ce 18 d0 bd 31 7f 5f 3d f8 fc 42 be a9 45 04 be
       -0.10160981 0.05456466 -0.19041812 -0.12917198
000090 a1 9c fe bd ad 8a 95 3c b5 01 3a 3e 41 e7 ad 3d
       -0.12432218 0.018254602 0.18164714 0.08491374
0000a0 06 72 96 3d 70 a1 fe bd 35 41 a7 bd 34 36 b8 3d
       0.07345967 -0.124331355 -0.08166734 0.089947134
0000b0 ff b1 68 bd db bc 86 3c dc 78 1f 3e 66 41 4c 3d
       -0.056810375 0.016447475 0.15573448 0.049867056
0000c0 89 5b ec bd 2f 08 68 3d 13 69 ff 3c cb 42 4c bb
       -0.115408964 0.05664843 0.031178033 -0.0031167741
0000d0 7e 0b 15 be 5b 6d 15 3e e1 9e 0f 3e ef 54 11 3e
       -0.14555165 0.14592497 0.14025451 0.14192556
0000e0 d0 36 34 3e 52 f7 36 bd 83 8f 9d 3d a6 e1 aa bd
       0.17599034 -0.044669457 0.07693388 -0.0834382
0000f0 b7 84 7b 3d 31 d8 7d 3d 1d 4a f6 bc 14 19 1b be
       0.061405864 0.061973754 -0.030064637 -0.15146285
000100 13 16 13 be 93 79 02 bd 34 8f 09 3e b4 0a 99 bc
       -0.1436389 -0.031854223 0.13433534 -0.018681861
000110 f6 ae b8 bd 16 48 01 be 7e fe 16 3e 49 68 fd 3d
       -0.09017746 -0.12625155 0.14745519 0.123734064
000120 e2 ff ba 3c dc e0 23 3e 94 86 87 bd 29 e9 11 3e
       0.022827093 0.16003746 -0.066174656 0.142491
000130 ab 99 a9 bd 78 7a dd 3d 62 7a bf 3d 0a df 0a be
       -0.08281263 0.10814375 0.093495145 -0.13561645
000140 6c 8f b7 bd 45 bd 3b 3e bc f1 88 bd 86 9c 3b bd
       -0.089629024 0.1833392 -0.06686732 -0.04580357
000150 2e e8 c5 3d 53 34 2f 3e f9 6a 08 be 71 9d 10 3e
       0.096634254 0.17109804 -0.13322057 0.14122559
000160 0d 71 b4 3d ce 9b 14 be 64 b6 8c bd 3c 2d 37 3e
       0.08810625 -0.1451256 -0.06870726 0.1788835
000170 7b 52 ca bd a2 1c 22 3b de 41 57 3e b7 d0 23 3e
       -0.09879013 0.0024736305 0.2102122 0.15997587
000180 ca 50 64 3c 8d 28 89 bd 36 92 19 3d 3b 19 f0 3d
       0.013935277 -0.066971876 0.037492953 0.11723562
000190 1a 51 d8 3d 4d 7f 87 bd 49 69 9f 3d 42 59 f2 3c
       0.10562344 -0.066160776 0.077837534 0.029583577
0001a0 2d 53 a5 bd 99 5f 14 bd 69 dc bc bd 42 19 c9 bd
       -0.08072505 -0.03622398 -0.092217274 -0.09819271
0001b0 f3 13 34 be 03 7a fd 3b 09 04 2e be 24 d0 33 3e
       -0.17585735 0.007735492 -0.16993727 0.17559868
0001c0 94 79 27 be dc a7 bc 3c 90 5f 0c be ea 57 eb 3c
       -0.16354972 0.02302926 -0.13708329 0.028728444
0001d0 7d be 0a 3e d2 17 0a be 8a 70 03 3e 2d 34 1a 3d
       0.13549228 -0.13485649 0.12835899 0.037647415
0001e0 cf d7 63 bd 66 15 c9 bd 56 49 ac 3d 50 bf 78 bd
       -0.055625733 -0.098185346 0.08412425 -0.060729325
0001f0 f5 2e 0f 3c b2 30 b0 bd fe 48 20 be 62 49 29 bb
       0.008739223 -0.08603038 -0.15652844 -0.0025831093
000200 b3 a3 7d bd 7d 92 87 be 18 ca da 3e 74 3a 0a be
       -0.061923694 -0.2647895 0.4273231 -0.1349886
000210 0d 5c ff bd 53 4b 8f bd 42 8b da bd db 2e 85 be
       -0.12468729 -0.06996789 -0.106710926 -0.2601231
000220 7f 07 8f bd ff df 4e 3e c4 10 93 bd a6 00 0d bc
       -0.06983852 0.20202635 -0.07180932 -0.008606112
000230 77 83 16 bd f4 d5 dc 3d 44 78 c9 3b ee 9b 55 be
       -0.03674647 0.10782996 0.00614837 -0.20860264
000240 16 d8 87 3d 5a d2 11 3d b5 65 a9 bd 6f d4 e6 3e
       0.06633012 0.035600998 -0.08271352 0.4508395
000250 6d 4b 49 3e b2 ef 4f be 99 10 7a be e5 15 98 3e
       0.19657679 -0.2030628 -0.24420394 0.29704204
000260 a6 92 a6 3e d9 43 28 3e 7b c2 d3 3d 1c 15 37 3e
       0.3253376 0.16432132 0.103398286 0.17879146
000270 8f 6a 8f 3d db 6c 86 be f1 a6 29 be 1b 7c 16 3e
       0.07002746 -0.26254925 -0.1656759 0.1469578
000280 6d a8 04 3d 05 54 61 3e 94 7e 54 bd f3 76 72 3e
       0.032387186 0.22004707 -0.051878527 0.23678188
000290 18 c9 1c 3d 60 a4 04 be 90 9c ef 3a 33 e2 92 bd
       0.038277715 -0.12953329 0.0018280912 -0.0717205
0002a0 a1 9a 33 3e 7d 58 95 be ff c1 35 3e c1 d2 58 3d
       0.17539455 -0.29169074 0.17749785 0.052935366
0002b0 d9 5e 8d be d3 75 2c bd 91 3e c8 3d 36 92 21 3e
       -0.27611426 -0.042104553 0.097775586 0.15778431
0002c0 57 11 33 be d9 e4 c2 bd 49 ae 33 be d0 a9 22 be
       -0.17487083 -0.095163055 -0.17546953 -0.15885091
0002d0 ee 02 0c 3d 29 76 0a bd 22 0b c3 3d 11 40 cc 3d
       0.03418248 -0.033804093 0.09523608 0.09973157
0002e0 53 fe 9c bd dc 6c e3 3d be cb 90 3d 4f 45 06 3d
       -0.07665696 0.11104748 0.07070111 0.03278094
0002f0 c8 91 0b bd a4 d0 80 3d 22 eb 38 3e 6a 60 64 3c
       -0.034074575 0.06289795 0.18058446 0.0139390025
000300 3f fd 17 be 20 16 15 bd d6 22 b5 3d fa 10 74 3e
       -0.148427 -0.036398053 0.08844535 0.23834601
000310 ea 8f 62 bd 9f 89 b6 3d 5a da cf 3d 0c 35 fd 3d
       -0.05531303 0.08912968 0.10149069 0.123636335
000320 b4 b0 ce 3d 8b 3d 08 3d 6f f8 db 3b a1 2b 6f 3d
       0.10092297 0.033261817 0.006712965 0.058391217
000330 16 30 dd bc 8a ca 14 3e 38 77 fe 3c 5e 47 db bc
       -0.027000468 0.14530388 0.031062707 -0.026767429
000340 8b 3b b3 bd 89 d3 5d 3d 7a 7b b5 3d be 41 f9 bd
       -0.08751591 0.054156814 0.08861442 -0.121707425
000350 1a 18 34 3e 75 d9 11 3d 0b 95 10 3e 14 6d 55 3c
       0.17587319 0.035607774 0.14119355 0.0130264945
000360 10 2b 3a be 37 b0 fa 3d 1c 63 7c bd 6a e1 17 be
       -0.1818049 0.122406416 -0.061617956 -0.14832082
000370 5c ef d8 bc 61 cc 6b 3d 18 17 0d 3e 72 5d d3 3d
       -0.026481323 0.057567958 0.13778341 0.10320558
000380 c9 60 0c bd 64 33 74 3d 8c 18 0c be f6 8e 9d bd
       -0.03427199 0.059619322 -0.13681239 -0.07693283
000390 f8 01 f4 3d 93 5f 00 3e 06 10 d2 3b 65 58 f3 bd
       0.11914438 0.12536459 0.0064106015 -0.11882094
0003a0 5c 0c 99 bd 28 1a 1c 3d cb 32 20 bd 07 e7 2a 3e
       -0.074730605 0.038110882 -0.03911094 0.16689692
0003b0 a0 d2 09 be 20 5a 31 be 8e 71 8a bc bb 84 39 3d
       -0.13459253 -0.17319536 -0.01689985 0.045292597
0003c0 9c f3 54 be 31 a0 1d bd 2f 06 15 3e 98 12 8e 3d
       -0.20796055 -0.03848285 0.1455314 0.0693714
0003d0 ee 94 38 bd 7d 96 81 bc 4d 01 2e 3e 52 e4 e4 3c
       -0.045063905 -0.015818829 0.16992684 0.027940903
0003e0 c2 bb 33 be d4 e7 89 3d 2d a3 58 be e9 96 83 3d
       -0.17552093 0.06733671 -0.21155997 0.06425268
0003f0 e8 a3 bf 3d 19 0e 38 be 46 38 40 3e ba a5 d0 bd
       0.093574345 -0.17974128 0.18771467 -0.1018786

fc2.bias f4 [32]
000000 60 3d f6 3a 1b 08 a9 bd 64 2a fc 3d 4c 16 3d bc
       0.0018786602 -0.08253499 0.12312773 -0.0115409605
000010 4f 8c 25 be 80 57 82 3e f9 21 c5 bd e1 d6 12 3d
       -0.16166805 0.25457382 -0.096256204 0.035849456
000020 a9 ea 9c bd b3 7d db bd e0 3c 8c 3d 44 50 e2 3c
       -0.076619454 -0.107173346 0.068475485 0.027626164
000030 82 2b 47 bd a2 2e c3 bd 7f 37 3e 3e a5 1c cd 3e
       -0.048625477 -0.09530379 0.18575858 0.40060917
000040 29 41 1a be 8b 1f ee 3d bf 64 16 be 89 9d c5 3d
       -0.15063919 0.1162711 -0.14686869 0.09649188
000050 07 42 13 be 21 24 fe 3b 61 f3 15 be 18 a9 f7 bd
       -0.14380656 0.0077557717 -0.14643623 -0.12092799
000060 c9 30 32 be d1 fd f8 bc 0f 03 01 3e b0 1c c1 bc
       -0.17401423 -0.030394467 0.12598823 -0.02357325
000070 91 d9 20 3e f1 2b 9a 3d 6a e1 94 bb c5 0c c5 3d
       0.15707995 0.075279124 -0.004543473 0.09621576

fc3.weight f4 [1, 32]
000000 55 9b c5 3b 10 c0 48 be 25 64 b4 bd 03 50 40 bd
       0.00603048 -0.19604516 -0.088081636 -0.046951305
000010 74 92 70 3f 0c 43 04 bf 5c 98 a1 be 46 07 97 be
       0.9397347 -0.51664805 -0.31561553 -0.29497737
000020 72 6f a7 3e f8 43 36 3f 17 28 a4 be fd 8c 7d 3f
       0.32702214 0.7119746 -0.32061836 0.99043256
000030 5d 4d b8 bc 19 3c 29 3f 77 db 8a 3f 04 78 ba bf
       -0.022497827 0.66107327 1.0848225 -1.4567876
000040 a0 7c 03 3d 56 99 a8 bd ee 10 42 be 15 c8 49 3f
       0.032101274 -0.082323715 -0.1895177 0.78820926
000050 de 83 83 be be 6b bb 3e 23 6e 7f 3e b5 62 04 3e
       -0.25686544 0.36605638 0.24944358 0.12928279
000060 1b 9e 2c 3e 05 c0 d5 bd 3b aa 35 be 4a 76 a9 3b
       0.16857187 -0.104370154 -0.17740719 0.005171572
000070 5e 42 50 be 0b 69 42 be 3b 01 10 3f 44 87 8a bf
       -0.20337817 -0.18985383 0.5625188 -1.082253
