5_q_network.pt (torch, 7159 bytes, 5 tensors)

fc1.weight f4 [32, 4]
0	0x4093530e	4.6038885
1	0xc0c2a047	-6.082065
2	0xbf4b985e	-0.7952937
3	0xbec80ab9	-0.3907068
4	0x3fe0a4fa	1.7550347
5	0xbf3eb0e9	-0.74488693
6	0x3e0c2796	0.13686976
7	0xbf20d7bc	-0.62829185
8	0xc09928d6	-4.786235
9	0x3ed34a05	0.4126741
10	0x3fd0a96c	1.6301703
11	0x3f01a75d	0.50646
12	0x3f9fdd09	1.248933
13	0x3f86acd1	1.0521489
14	0xbe99ffaa	-0.3007787
15	0x3d914e06	0.0709496
16	0x4023a882	2.55716
17	0x3f844b62	1.0335505
18	0x3d629d6a	0.055325903
19	0x3da959ec	0.08269104
20	0x3f1a4f90	0.6027765
21	0x3fb7d313	1.436129
22	0x3fa9b909	1.3259593
23	0xbeb29f3a	-0.34887105
24	0x40146a4b	2.3189876
25	0x3f17bafe	0.592697
26	0xc049a214	-3.1505175
27	0xbf30a40d	-0.6900032
28	0xbeed784e	-0.46380848
29	0x40a145d7	5.0397754
30	0x3f821287	1.0161904
31	0x3e97df40	0.29662514
32	0x3f292e86	0.66086614
33	0x3ff1b43e	1.888313
34	0x3f5e4f3e	0.86839664
35	0x3efb4cd3	0.4908205
36	0x3fd54eeb	1.6664709
37	0x4026127e	2.5948787
38	0x3f4f4619	0.80966336
39	0x3ed06595	0.407025
40	0xbf519e28	-0.8188195
41	0x3ea2ade6	0.317733
42	0x3dc6ad9c	0.09701082
43	0xbe89aa2d	-0.26887646
44	0x3e5324c5	0.20619495
45	0xbd96c495	-0.07361714
46	0x3ed307f0	0.41216993
47	0x3dfe8c4b	0.124291025
48	0x40933fa2	4.6015177
49	0x3f9d9c5d	1.2313343
50	0x3f247cab	0.6425273
51	0x3ec09474	0.3761326
52	0xbf16b219	-0.58865505
53	0x408629c7	4.1926
54	0x3f299030	0.6623564
55	0x3e8ee246	0.27907008
56	0x3feb279c	1.8371463
57	0xbfa8021d	-1.3125645
58	0x40569fd3	3.353505
59	0x3f90a8c1	1.13015
60	0x3f350301	0.7070771
61	0x3e7eb07a	0.24872008
62	0x3f8062d6	1.0030162
63	0x3e6fb77a	0.23409835
64	0xc0a681cc	-5.2033443
65	0x3f07262d	0.52792627
66	0xbfa38450	-1.2774754
67	0xbe82f32f	-0.2557616
68	0x408c7548	4.3893166
69	0x4015ecd7	2.3425806
70	0x3ec4be35	0.38426366
71	0x3e12a0e3	0.14319186
72	0x3cea62b8	0.028611526
73	0x3f04823d	0.5176123
74	0x3f44e81f	0.7691669
75	0x3edaddbe	0.427473
76	0x3fa3a1f3	1.2783798
77	0xbe162b61	-0.14664985
78	0xbf93d5e6	-1.1549652
79	0xbe248db2	-0.16069677
80	0x3f292114	0.660661
81	0x3fa6a9fe	1.3020627
82	0xbe3b053b	-0.18263714
83	0x3d854a70	0.065083385
84	0x3f2da415	0.67828494
85	0x3f8e75d0	1.1129704
86	0xc06177c6	-3.5229354
87	0xbf4f82de	-0.8105906
88	0x40461b40	3.0954132
89	0xc0890c78	-4.282772
90	0xbf5b6e4a	-0.8571516
91	0xbe28fdba	-0.16503039
92	0x409bcaaf	4.8684916
93	0xc000f752	-2.0150952
94	0x3f0a453b	0.5401189
95	0x3e9185db	0.28422436
96	0x403964bf	2.896774
97	0x4010da02	2.2633061
98	0xbf183029	-0.59448487
99	0xbed530a2	-0.41638666
100	0xbf81837d	-1.0118252
101	0xbfa4bf7a	-1.2870934
102	0x3fc260de	1.5185812
103	0x3ed6cf07	0.41954824
104	0xbf327cae	-0.69721496
105	0x3e8db418	0.27676463
106	0x3f83f3d9	1.0308791
107	0x3d4dcd96	0.05024489
108	0x3f98815c	1.1914477
109	0x3f01c2f7	0.5068812
110	0xbebf6545	-0.3738195
111	0xbdea31f6	-0.114353105
112	0x3f6aff70	0.91796017
113	0xc0a300bb	-5.093839
114	0xbf923ed5	-1.1425425
115	0xbefe61c4	-0.49683964
116	0xbfa1f5f3	-1.2653183
117	0x403a56cb	2.9115474
118	0x3f45c470	0.77252865
119	0x3e63628e	0.22205564
120	0x3f633d61	0.8876553
121	0x40b00f84	5.501894
122	0xbe1f5e7a	-0.15563384
123	0xbe257d93	-0.16161184
124	0xc0b95a1e	-5.7922506
125	0x408dbf89	4.4296308
126	0x40079216	2.1182914
127	0x3f1d3171	0.61403567

fc1.bias f4 [32]
0	0xc001736c	-2.0226698
1	0x3f7bdace	0.98380744
2	0x40e142bf	7.0393977
3	0x40422461	3.0334704
4	0x4023d15c	2.5596533
5	0x402b8698	2.68009
6	0xc016fe4f	-2.3592718
7	0xbfcd5295	-1.6040827
8	0x4080a78e	4.0204535
9	0xbdb71f5c	-0.08941528
10	0x3f8cf6d9	1.1012832
11	0x3cee1fbe	0.02906787
12	0x3eb5a2dc	0.35475814
13	0x4006b9cb	2.10509
14	0xbfc300a3	-1.5234569
15	0x3dc10f29	0.0942672
16	0x40864ee5	4.1971307
17	0xbfb890ec	-1.4419227
18	0x402078bd	2.5073693
19	0xc082c324	-4.086321
20	0x3f6ef012	0.9333507
21	0x3f792a3c	0.9733007
22	0xbf33564d	-0.7005356
23	0x405b1603	3.4232185
24	0x3f222cf9	0.6334987
25	0x409be819	4.872082
26	0x3eded506	0.435219
27	0x4038e942	2.889237
28	0x3f81200d	1.0087906
29	0x3cdbc3f3	0.026826834
30	0x4057d455	3.3723347
31	0x40708089	3.7578452

fc2.weight f4 [32, 32]
0	0xc0490330	-3.1408195
1	0xbf21a050	-0.6313524
2	0x3fd82c69	1.6888553
3	0xbe8e012e	-0.27735275
4	0xbf9269aa	-1.1438496
5	0x3ea526a2	0.32256037
6	0xbe9160bb	-0.28394112
7	0xc02cb56a	-2.6985726
8	0x3cdf25dc	0.027239732
9	0x3f1bd23e	0.6086768
10	0xbdbc38cd	-0.091905214
11	0x3c8438de	0.016140398
12	0x3f2b3edb	0.66892785
13	0x3f3a85d0	0.7286043
14	0xbdba38d7	-0.090928726
15	0x3e608c0c	0.21928424
16	0x3f9747f6	1.1818836
17	0x3fd516f1	1.6647626
18	0xbe3df31f	-0.18549775
19	0xbfef9969	-1.8718692
20	0x3d56fc6f	0.052486833
21	0xbf0db6dd	-0.5535715
22	0xbf441239	-0.76590306
23	0xbfb001ac	-1.375051
24	0xbd8dcab9	-0.06923432
25	0x3ebbecb5	0.3670403
26	0xbf0e0208	-0.5547185
27	0xbeeee85f	-0.4666166
28	0xbfe8672d	-1.8156487
29	0xbfdd7fb0	-1.7304592
30	0x3f5cfe10	0.8632517
31	0xc08d945a	-4.4243593
32	0x3e0501ac	0.12988919
33	0x3daefac7	0.08543926
34	0x3ecafde6	0.39646834
35	0xbed27e0a	-0.41111785
36	0x3ddff747	0.10935836
37	0x3ec0c3ff	0.37649533
38	0x3eae12b1	0.33998635
39	0xbf3ff5a4	-0.7498419
40	0x3dc70f74	0.09719744
41	0x3dafb9ee	0.08580385
42	0x3d335946	0.04378631
43	0xbdc2ee8e	-0.09518157
44	0x3ec6fabd	0.38863173
45	0x3ef4ad58	0.477885
46	0x3e1d27c7	0.15347205
47	0xbe1f667e	-0.15566441
48	0x3cca641b	0.024705937
49	0x3f090d06	0.535355
50	0x3e70a96b	0.23502128
51	0xbfb86f75	-1.4409014
52	0x3e45dbce	0.1932213
53	0xbf4fd44d	-0.8118332
54	0xbf29de2f	-0.6635465
55	0xbf231005	-0.6369632
56	0xbd972fc5	-0.07382158
57	0xbdb8aff9	-0.09017939
58	0xbdb36bfa	-0.08760829
59	0xbf537cb3	-0.8261215
60	0xbf354f63	-0.7082426
61	0xbe80405d	-0.25049105
62	0xbedd5515	-0.43228975
63	0xbf688967	-0.9083466
64	0xbfb4ceda	-1.4125626
65	0x3e948927	0.2901089
66	0x3f0c1ec9	0.54734474
67	0x3d48e2f5	0.049044568
68	0x3d2be0d6	0.041962467
69	0xbdd038d8	-0.10167092
70	0x3edaace2	0.42710024
71	0xbec8e4ea	-0.39237148
72	0xbd520c6c	-0.051281378
73	0x3ef530f6	0.47888917
74	0x3e949160	0.29017162
75	0xbda7f44b	-0.08200892
76	0xbee66b33	-0.45003662
77	0x3ea92d9b	0.33042607
78	0xbecd597c	-0.40107334
79	0x3cc8043c	0.024416082
80	0xbfa25576	-1.2682331
81	0x3f55f187	0.83571666
82	0xbd95ffe5	-0.07324199
83	0xbcdb67d7	-0.026782913
84	0x3df71951	0.120653756
85	0xbf813ab8	-1.0096045
86	0xbf901831	-1.1257383
87	0xbe4c23af	-0.19935487
88	0x3f13c42c	0.5772121
89	0xbd672f31	-0.05644149
90	0xbdf6cdf7	-0.120510034
91	0xbf10a0d7	-0.5649542
92	0xc00efead	-2.2342942
93	0xbe629d4a	-0.22130314
94	0x3e74dd6d	0.23912592
95	0xbeb0fef8	-0.34569526
96	0xbff87530	-1.9410763
97	0xbf2372e4	-0.63847184
98	0x3dd9de6a	0.10638125
99	0xbe6ccffc	-0.23126215
100	0xbd89e4ea	-0.06733115
101	0x3f4674a8	0.77521753
102	0xbec86cec	-0.391456
103	0xbee9a441	-0.45633128
104	0x3e1d05ae	0.15334198
105	0x3f6fb800	0.93640137
106	0xbd478efc	-0.048720345
107	0x3e8b240f	0.27175948
108	0x3f1705fd	0.5899351
109	0x3f26e88c	0.6519859
110	0x3f1db77f	0.6160812
111	0x3ec5db09	0.38643673
112	0x3f88fe9e	1.0702703
113	0x3f0d626f	0.5522832
114	0x3dac74e5	0.08420733
115	0xbe91b020	-0.28454685
116	0x3d3eea94	0.04661043
117	0xbe30ba02	-0.17258456
118	0xbf5a1f3a	-0.852039
119	0xbf811e3c	-1.0087352
120	0xbf0592b9	-0.52177006
121	0xbda5c050	-0.08093321
122	0x3d5a3718	0.053275198
123	0xbe7219c7	-0.23642646
124	0xbf8f76a2	-1.1208079
125	0xbeeb8e81	-0.4600716
126	0x3ed37ab2	0.41304547
127	0xbfdc01e4	-1.7188077
128	0x3e2d4cd1	0.16923834
129	0xbdb33a0c	-0.08751306
130	0xbdea9035	-0.114532866
131	0xbe649570	-0.22322631
132	0xbe1d3421	-0.15351917
133	0x3dbffabb	0.09373995
134	0x3dcbd131	0.099520095
135	0xbd8a5651	-0.06754745
136	0xbe10ffe7	-0.14160119
137	0x3e080ed2	0.13286904
138	0xbdb10f20	-0.08645463
139	0x3dcf85e7	0.10132962
140	0xbe2f5e13	-0.1712573
141	0xbda41db1	-0.08013476
142	0x3e0cbc7f	0.1374378
143	0xbd97a4ad	-0.07404456
144	0xbe5544a2	-0.20826963
145	0xbd9674ad	-0.07346473
146	0x3d323976	0.04351183
147	0xbdd51a63	-0.104054235
148	0xbd853fe6	-0.06506328
149	0xbe0060e1	-0.12536956
150	0x3e783916	0.24240527
151	0x3e2b4ead	0.16729231
152	0xbdd6a751	-0.10481132
153	0xbdaf8bff	-0.08571624
154	0xbd590b97	-0.05298957
155	0x3d5323a4	0.05154766
156	0x3dd855b2	0.1056322
157	0x3ca8c572	0.020601962
158	0xbea61266	-0.32435912
159	0x3d820a30	0.06349599
160	0xbf517025	-0.81811744
161	0xbe04617a	-0.1292781
162	0x3f9d0e00	1.2269897
163	0x3e8cc537	0.27494213
164	0xbf043a51	-0.51651484
165	0x3e2eb52c	0.17061299
166	0xbee4d78f	-0.44695708
167	0x3d716a2d	0.058939148
168	0x3ed66d73	0.41880378
169	0x3debbb01	0.115102775
170	0x3d5df033	0.05418415
171	0x3d180293	0.03711183
172	0xbef51ef0	-0.47875166
173	0x3f5ee66f	0.87070364
174	0xbf3ad5b1	-0.7298232
175	0xbea7128d	-0.3263134
176	0xbf1e43c6	-0.61822164
177	0x3e1c9eff	0.15295027
178	0xbdd40daa	-0.10354169
179	0xbd5183dd	-0.051151145
180	0x3cbdc2b6	0.023164134
181	0xbf1ebaf2	-0.62004006
182	0xbe5ddaae	-0.21665451
183	0xbf7169a9	-0.9430185
184	0x3e79881d	0.2436833
185	0x3ea18146	0.3154394
186	0x3e136efd	0.14397807
187	0xbe84dc88	-0.25949502
188	0xbf2e35cd	-0.68050843
189	0x3c23574a	0.009969542
190	0x3f5e0008	0.867188
191	0x3f256a04	0.6461489
192	0x3f9aad29	1.2084094
193	0x3f3b5334	0.7317383
194	0xbf46ed68	-0.77706003
195	0xbf2c585d	-0.6732233
196	0x3f4f66ca	0.8101622
197	0xbfa0bf4b	-1.2558378
198	0x3fecff40	1.8515396
199	0xbf8a5deb	-1.0809911
200	0xbf1bf3f4	-0.6091912
201	0xbfaa1595	-1.3287836
202	0xbe4876bf	-0.19576548
203	0xbe084dd8	-0.13310945
204	0x3f11481d	0.5675066
205	0xc009fea6	-2.1561675
206	0x3fa361d3	1.2764229
207	0xbf18c5b6	-0.5967668
208	0xbfa859b1	-1.3152372
209	0xbf6de439	-0.92926365
210	0xbee3fe21	-0.44529822
211	0xbdb40c29	-0.08791382
212	0x3e662d00	0.22478104
213	0x3ef5d2f3	0.48012504
214	0x3f7eed35	0.995807
215	0x400f8571	2.2425196
216	0x3f743b61	0.95403105
217	0x3f528b08	0.82243395
218	0x3f4dfc67	0.8046326
219	0xbf530c62	-0.8244077
220	0xbe8b9a90	-0.2726636
221	0xbe50686f	-0.20352338
222	0xbf883bc3	-1.0643238
223	0x3df295a4	0.11844948
224	0xbecc08ba	-0.39850408
225	0xbc963d43	-0.018339759
226	0xbe109529	-0.141194
227	0xbd8e2ff8	-0.06942743
228	0x3e04a232	0.12952498
229	0x3e4bb7d5	0.19894345
230	0x3d392c58	0.045208305
231	0xbd807e12	-0.06274046
232	0x3adc65a8	0.0016814964
233	0x3d83476d	0.06410108
234	0xbd6618c9	-0.05617598
235	0xbdf2bc6c	-0.11852345
236	0x3d5cd5e7	0.05391493
237	0xbdbd2025	-0.09234647
238	0x3e231479	0.15925778
239	0x3d1627ac	0.036658928
240	0x3d97e6a1	0.07417036
241	0x3d189794	0.03725393
242	0xbd736e82	-0.05943156
243	0xbe8e2984	-0.2776605
244	0x3d342e2e	0.043989353
245	0xbe8f4df4	-0.2798916
246	0x3d8ca3a9	0.06867153
247	0x3e24bdcd	0.16088028
248	0xbdac3dcc	-0.08410224
249	0x3d93051b	0.07178708
250	0x3deb788e	0.11497603
251	0xbd9fd45f	-0.078041784
252	0xbebd3fc6	-0.36962718
253	0x3d880d07	0.0664311
254	0xbe00103c	-0.12506193
255	0xbe9ccfdd	-0.30627337

fc2.bias f4 [32]
0	0x3fa5c385	1.2950293
1	0x3ef1c437	0.47220013
2	0x3e89904b	0.268679
3	0x3e9f50a4	0.3111621
4	0x3ceaa8a6	0.028644871
5	0x3d33cb9b	0.043895345
6	0x3eec71ba	0.46180516
7	0x3ca24c9d	0.019811923
8	0xbe9556ea	-0.29167873
9	0x3e313a14	0.17307311
10	0xbec62178	-0.3869741
11	0x3fdb3ffe	1.7128904
12	0x3f30f749	0.6912733
13	0x3ef46206	0.47731036
14	0xbdfd94f7	-0.123819284
15	0x3e985714	0.29753935
16	0x3f94729c	1.1597476
17	0xbe3de406	-0.18544015
18	0xbdae0aa7	-0.084981255
19	0xbedbf615	-0.42961183
20	0x3e97b821	0.29632667
21	0x3e485512	0.19563702
22	0x3fd8cb91	1.6937124
23	0x3f3cea68	0.73795176
24	0x3eac8075	0.33691755
25	0x3f819893	1.0124687
26	0x3eeaa251	0.45826963
27	0x3de640a5	0.11242799
28	0xb9c26eed	-0.0003708521
29	0xbe05e7f0	-0.13076758
30	0x3e74d85f	0.23910664
31	0x3daa45b4	0.08314076

fc3.weight f4 [1, 32]
0	0xc0d3060a	-6.594487
1	0xc0086a1f	-2.131477
2	0xc04d7b35	-3.210645
3	0xc068a223	-3.634896
4	0x3f027191	0.5095454
5	0xbff30e71	-1.8988782
6	0xc04ebd65	-3.2303097
7	0xbee7facc	-0.4530853
8	0x3fa64644	1.2990193
9	0xbfdaf2af	-1.7105311
10	0x3ff6343b	1.923469
11	0xc1009beb	-8.038066
12	0xc0993e28	-4.7888374
13	0xc01c0dc3	-2.43834
14	0x4025bece	2.5897708
15	0xbf70ff28	-0.9413934
16	0xbf83d643	-1.0299762
17	0x3fc427a1	1.5324594
18	0x40391fa0	2.8925552
19	0x3fcb60a4	1.5888867
20	0xc03933ab	-2.8937786
21	0xc015a402	-2.3381352
22	0xbf28c9a3	-0.65932673
23	0x3e4a74c5	0.19771107
24	0xbfe6a916	-1.8020351
25	0xc0cebe44	-6.460726
26	0xc05337f0	-3.3002892
27	0xbd7f05b1	-0.062261287
28	0xbfbc1c4e	-1.4696138
29	0x3fbb7b20	1.464695
30	0xbf914e88	-1.1352091
31	0xc06aa006	-3.666017
