Networks/4-Heuristic-Q-network.pt (torch, 7239 bytes, 5 tensors)

fc1.weight f4 [32, 4]
2.4261973 1.0133402 0.05909971 -1.0032159 -1.9236809 0.2139008 0.06551057 0.45871794
3.052887 0.45779926 -0.3095081 -0.9779234 2.377798 -0.5946893 -0.08613618 0.65350133
0.8463178 -2.632823 -0.9008303 0.25182816 -0.4045402 -0.43674797 -0.05254645 0.31693348
-2.053311 -3.3512716 -0.5392054 -0.089108065 -0.9481336 3.778758 0.5755563 0.021678088
0.40628108 -3.065055 -2.1456916 -0.39584023 2.15172 2.1496878 0.63248014 -0.77750164
1.2672439 1.992063 -0.33874133 0.8234584 3.0041513 1.2816284 0.23452754 0.52741945
-1.5042343 0.46083513 0.87429804 0.397995 -2.0178962 0.21698667 -0.123886704 -0.14205651
-1.9006171 1.6547844 0.3721937 -0.54135454 -2.568594 3.154148 0.14792515 -1.8922715
-0.9493394 4.6675944 0.57806295 -0.01755899 -1.9574815 4.4347258 -0.23632097 -0.0820995
2.0742943 -3.5998967 -0.14056191 -0.028107956 -2.046488 0.85086256 -1.2460847 -0.33634964
-1.6644495 0.8175343 0.24440181 0.14847368 2.1464722 2.2739413 1.053629 -0.31515256
1.1457789 0.437384 0.2339603 -1.2752382 0.14200471 -4.2486086 -0.68126667 -2.0822437
0.9965621 4.623121 0.6536702 -0.10340852 -1.4885148 -1.0018886 -0.06641818 -0.2741151
-0.5347083 1.5478578 1.2389472 0.5854626 -2.0058556 1.0851203 -0.03299235 -1.401235
0.80979604 -0.2155123 0.0020937282 1.0327471 -0.7768068 -0.7959435 0.87782323 1.8558536
-0.020946024 0.53348327 0.397929 0.12084231 -0.36083877 -5.577978 -0.6395537 -0.017025575
00000000: d146 1b40 22b5 813f 8a12 723d 6169 80bf
00000010: 2d3b f6bf d008 5b3e 682a 863d 14dd ea3e
00000020: 8062 4340 aa64 ea3e d877 9ebe 3059 7abf
00000030: d82d 1840 8f3d 18bf 2a68 b0bd dd4b 273f
00000040: 49a8 583f 2c80 28c0 d19c 66bf 9fef 803e
00000050: e51f cfbe 6e9d dfbe f23a 57bd 1b45 a23e
00000060: 7369 03c0 3c7b 56c0 5d09 0abf 4a7e b6bd
00000070: e2b8 72bf 2cd7 7140 a857 133f 3f96 b13c
00000080: 1304 d03e dc29 44c0 0353 09c0 92ab cabe
00000090: c8b5 0940 7c94 0940 38ea 213f 590a 47bf
000000a0: 0c35 a23f ecfb fe3f 816f adbe 2bce 523f
000000b0: 0444 4040 660c a43f fd27 703e f604 073f
000000c0: c08a c0bf 95f2 eb3e ffd1 5f3f 00c6 cb3e
000000d0: 3625 01c0 c131 5e3e 50b8 fdbd 4377 11be
000000e0: 6c47 f3bf facf d33f 2c90 be3e 3696 0abf
000000f0: d863 24c0 90dd 4940 b179 173e f435 f2bf
00000100: e807 73bf ef5c 9540 effb 133f dfd7 8fbc
00000110: c18e fabf 46e9 8d40 20fe 71be c823 a8bd
00000120: 3dc1 0440 b564 66c0 76ef 0fbe a842 e6bc
00000130: a9f9 02c0 21d2 593f b47f 9fbf 0536 acbe
00000140: ae0c d5bf ee49 513f 7844 7a3e 7c09 183e
00000150: cd5f 0940 4188 1140 51dd 863f ad5b a1be
00000160: e2a8 923f ccf0 df3e 4a93 6f3e 013b a3bf
00000170: af69 113e 9af4 87c0 7e67 2ebf 7b43 05c0
00000180: b21e 7f3f 9bf0 9340 ee56 273f d9c7 d3bd
00000190: a787 bebf e33d 80bf 4106 88bd d058 8cbe
000001a0: a5e2 08bf 3420 c63f d295 9e3f e1e0 153f
000001b0: f05f 00c0 39e5 8a3f fd22 07bd ab5b b3bf
000001c0: cb4e 4f3f 42af 5cbe ee36 093b 0f31 843f
000001d0: cfdc 46bf f4c2 4bbf 06b9 603f 9c8c ed3f
000001e0: ff96 abbc 5c92 083f 5abd cb3e 2c7c f73d
000001f0: dcbf b8be cc7e b2c0 cbb9 23bf 3879 8bbc

fc1.bias f4 [32]
-0.13098654 0.7864024 -0.71840626 -1.2388566 -2.6833405 0.7626096 1.8121351 -0.12428347
-0.69964933 -3.779974 -0.49134567 -2.912858 1.3872523 0.15749337 2.715546 -0.077395044
0.6654979 2.072435 -2.0123389 2.0779586 1.7898674 -3.5805507 0.16953187 -0.23968741
0.4474083 -0.91429543 0.22548516 0.01060885 0.22862087 2.1230192 0.1671391 0.35943213
00000000: 5621 06be ab51 493f 79e9 37bf da92 9ebf
00000010: dabb 2bc0 623a 433f 0bf4 e73f 5588 febd
00000020: 381c 33bf 18eb 71c0 a991 fbbe 446c 3ac0
00000030: 7c91 b13f f145 213e 81cb 2d40 4b81 9ebd
00000040: 125e 2a3f c6a2 0440 29ca 00c0 46fd 0440
00000050: 601a e53f be27 65c0 c399 2d3e 9e70 75be
00000060: b312 e53e 440f 6abf 95e5 663e bed0 2d3c
00000070: 971b 6a3e 8cdf 0740 8326 2b3e 7d07 b83e

fc2.weight f4 [32, 32]
0.3201151 -0.027487716 0.26137418 0.23014915 0.07253075 -0.08142708 -0.73898494 0.18582834
0.041964777 -0.39522493 -0.047885243 -0.18162471 0.03317345 0.092421606 -0.038089648 -0.09589995
-0.24630544 -0.2629925 -0.21893395 -0.233526 0.104650386 0.319826 -0.11933761 -0.17280097
-0.02875868 0.08228968 0.41278604 0.1704477 0.18925513 0.2529877 0.11816165 -0.7233705
0.18441853 0.2278068 0.20998482 0.13854367 -0.13094285 0.038682368 0.17795087 -0.11792167
-0.31638342 0.017526226 0.19398007 0.19153158 0.086302266 -0.06330935 -0.07939378 -0.16553971
-0.039712768 0.108412966 0.3160252 0.08973976 -0.10648939 -0.55972254 -0.05505009 -0.1120846
-0.31419954 0.029448884 -0.0036043117 0.017061772 -0.025070881 0.10844612 -0.111278996 0.13014765
-0.16174309 0.11645212 0.17785929 0.0918365 -0.12547882 -0.1740395 -0.13136627 0.124550804
0.15007116 0.14875837 0.12499822 0.03211381 -0.001525827 -0.13504112 -0.20958498 -0.17639017
0.023638243 -0.08294171 -0.062359728 -0.07739314 -0.07532765 -0.124421604 -0.11366884 0.060583282
-0.09632104 0.10913382 -0.05659885 -0.12694761 -0.029756183 -0.09975526 -0.054051742 -0.21737826
0.23310561 -0.2248623 -0.05555593 0.070932955 -0.066883184 -0.39202914 -0.49337333 -0.93818927
-0.53658736 0.86953574 0.19024384 0.47301063 -0.069332965 -0.06810423 -0.16277109 -1.5745897
0.37361342 0.46995628 0.032972142 0.26411167 -0.29878646 0.27359876 0.064981736 -0.7874354
0.026467416 -0.08167431 0.38254735 -0.040618844 -0.33228502 0.07916715 -0.10567338 -0.21456704
0.4181235 0.24526496 0.36697724 0.3879193 -1.0086973 -0.08429976 0.7240652 -0.7872725
-0.19770762 1.3589208 0.46543515 0.97557396 0.2693922 0.18340667 0.3517496 -0.41369167
0.701019 1.1384876 0.5565034 0.7478056 0.24033573 -0.808603 0.21089488 -0.9810158
-0.40674314 0.48721573 0.47442657 0.05077728 0.22194074 -0.318737 0.039056055 0.60537696
-0.2254359 0.03919131 0.0054225815 0.012039844 -0.11195695 -0.12699333 -0.13211106 -0.29926842
-0.1455601 -0.12861103 0.009097121 -0.047592495 0.074848525 -0.07588145 0.12450808 -0.23001328
-0.06819914 0.005353951 -0.07806081 0.020126346 0.02764162 0.004149733 -0.1317722 -0.16909617
-0.3441082 -0.09301032 0.44290936 -0.050239798 -0.15513745 0.12876706 0.13204044 0.15112859
0.10359304 0.18103439 -0.10900019 0.18015005 -0.01708433 0.0015045685 -0.0035393375 0.22678237
-0.093244895 0.21345234 -0.044928476 0.27930227 0.18732743 0.096569456 0.104734585 0.08515599
-0.06934045 0.09754996 0.35047835 0.09572411 -0.013722544 -0.05431927 -0.20351312 -0.70037675
0.068322636 0.1950612 0.2995219 -0.067029715 0.22777207 -0.21806274 0.1250629 0.23118566
0.10764161 0.21131884 0.18286733 0.12715948 -0.006716719 0.06372347 0.29610312 -0.293871
0.1088917 0.039951127 0.18179773 -0.06752926 0.106361374 0.0956227 0.22924966 -0.093066745
-0.11432707 -0.026405007 0.17410424 0.16262117 0.14267418 -1.0054572 -0.10521681 0.38853312
-0.51219916 0.16667683 -0.31601807 -0.089908175 0.19102198 0.057540793 0.05497283 0.2754767
00000000: 20e6 a33e eb2d e1bc d6d2 853e 38ac 6b3e
00000010: 008b 943d 3ec3 a6bd 1e2e 3dbf c949 3e3e
00000020: 42e3 2b3d ec5a cabe 5123 44bd d4fb 39be
00000030: e2e0 073d 8a47 bd3d e403 1cbd 3167 c4bd
00000040: 7e37 7cbe f4a6 86be 3930 60be 7121 6fbe
00000050: f152 d63d 3cc0 a33e 4767 f4bd bdf2 30be
00000060: 5397 ebbc 7e87 a83d b158 d33e d889 2e3e
00000070: 19cc 413e 9b87 813e bcfe f13d cf2e 39bf
00000080: 36d8 3c3e 3046 693e 4306 573e 64de 0d3e
00000090: e215 06be 6771 1e3d c138 363e eb80 f1bd
000000a0: 02fd a1be 2993 8f3c b6a2 463e db20 443e
000000b0: 3ebf b03d 55a8 81bd 3599 a2bd 3e83 29be
000000c0: dba9 22bd 9e07 de3d 0ece a13e 7bc9 b73d
000000d0: 1c17 dabd fa49 0fbf 347c 61bd 9c8c e5bd
000000e0: c3de a0be c93e f13c 5136 6cbb 21c5 8b3c
000000f0: 7361 cdbc 0019 de3d 3ee6 e3bd 6d45 053e
00000100: fb9f 25be 737e ee3d bf20 363e c614 bc3d
00000110: 857d 00be 6937 32be e184 06be 7e14 ff3d
00000120: 41ac 193e 1d54 183e 11ff ff3d c589 033d
00000130: 42fe c7ba 3848 0abe 729d 56be a09f 34be
00000140: fda4 c13c 58dd a9bd ea6c 7fbd 4b80 9ebd
00000150: 6245 9abd c1d0 febd 35cb e8bd 2d26 783d
00000160: f743 c5bd 8d81 df3d 32d4 67bd 8efe 01be
00000170: 3dc3 f3bc 7c4c ccbd 5c65 5dbd 6898 5ebe
00000180: 3db3 6e3e 4e42 66be 9d8e 63bd 4c45 913d
00000190: 0dfa 88bd 0bb8 c8be 6e9b fcbe 2c2d 70bf
000001a0: ca5d 09bf e599 5e3f 48cf 423e 732e f23e
000001b0: 71fe 8dbd 3b7a 8bbd 77ad 26be 288c c9bf
000001c0: 424a bf3e 1c9e f03e cc0d 073d a539 873e
000001d0: 8afa 98be 2315 8c3e 2515 853d 5e95 49bf
000001e0: 32d2 d83c dc44 a7bd 3fdd c33e f25f 26bd
000001f0: 4321 aabe 6322 a23d 496b d8bd 76b7 5bbe
00000200: 4914 d63e bd26 7b3e 71e4 bb3e 5c9d c63e
00000210: fe1c 81bf 5aa5 acbd 565c 393f b18a 49bf
00000220: de73 4abe 1ef1 ad3f 844d ee3e 37bf 793f
00000230: c6ed 893e f5ce 3b3e 8618 b43e 65cf d3be
00000240: fb75 333f f6b9 913f 0277 0e3f 3070 3f3f
00000250: 921a 763e 9b00 4fbf d4f4 573e da23 7bbf
00000260: a340 d0be 5774 f93e 0ae8 f23e d6fb 4f3d
00000270: 6f44 633e 7f31 a3be 3ef9 1f3d fcf9 1a3f
00000280: abd8 66be 1187 203d e9af b13b c442 453c
00000290: af49 e5bd 8a0a 02be 1f48 07be b639 99be
000002a0: b50d 15be 9cb2 03be 170c 153c 59f0 42bd
000002b0: 2f4a 993d bc67 9bbd 18fe fe3d 9a88 6bbe
000002c0: feab 8bbd 3270 af3b 59de 9fbd 02e0 a43c
000002d0: ae70 e23c 7cfa 873b 4bef 06be 8c27 2dbe
000002e0: f32e b0be 327c bebd 04c5 e23e 3fc8 4dbd
000002f0: 5adc 1ebe 83db 033e 9c35 073e 74c1 1a3e
00000300: 9628 d43d 1461 393e 7e3b dfbd 4179 383e
00000310: 70f4 8bbc f134 c53a 3bf4 67bb a339 683e
00000320: 2ef7 bebd 4093 5a3e ec06 38bd b500 8f3e
00000330: c3d2 3f3e 35c6 c53d 167f d63d 4466 ae3d
00000340: 5e02 8ebd 46c8 c73d e671 b33e 010b c43d
00000350: 85d4 60bc e27d 5ebd be65 50be e44b 33bf
00000360: bdec 8b3d 20be 473e ef5a 993e e046 89bd
00000370: 153d 693e d74b 5fbe 7d10 003e efbb 6c3e
00000380: 3473 dc3d f763 583e 9341 3b3e 1836 023e
00000390: ec17 dcbb 7381 823d d49a 973e 4276 96be
000003a0: 9d02 df3d cba3 233d 2f29 3a3e c84c 8abd
000003b0: fed3 d93d d6d5 c33d 6cc0 6a3e c799 bebd
000003c0: 5024 eabd 504f d8bc 6248 323e 2a86 263e
000003d0: 2e19 123e d2b2 80bf e97b d7bd d0ed c63e
000003e0: 7c1f 03bf 55ad 2a3e 1fcd a1be c721 b8bd
000003f0: 449b 433e e5af 6b3d 312b 613d 480b 8d3e

fc2.bias f4 [32]
0.015641619 -0.052328303 -0.009781532 -0.109618105 0.11014718 0.0600507 -0.060147755 0.33850753
0.009554561 -0.37692314 -0.20292251 0.16587271 -0.08405951 -0.06880831 0.06063937 0.00015766041
-0.049173158 -0.028081639 -0.3748899 0.18217796 -0.09414018 -0.1589339 0.15125118 -0.03838914
0.11743917 0.33887792 0.22665793 0.091161415 -0.08435087 0.22838563 -0.022124045 0.30396777
00000000: da22 803c 3456 56bd b842 20bc 757f e0bd
00000010: d894 e13d b9f7 753d 7e5d 76bd dc50 ad3e
00000020: bc8a 1c3c 12fc c0be ebca 4fbe 89da 293e
00000030: 6427 acbd 5feb 8cbd fd60 783d a551 2539
00000040: cb69 49bd 770b e6bc 92f1 bfbe dc8c 3a3e
00000050: 91cc c0bd 91bf 22be 97e1 1a3e ee3d 1dbd
00000060: f383 f03d 6881 ad3e 0419 683e d6b2 ba3d
00000070: 26c0 acbd ecdd 693e 7c3d b5bc aaa1 9b3e

fc3.weight f4 [1, 32]
1.3393166 -0.81531143 0.29219216 -2.4714649 -2.657446 0.61394924 -0.8650662 -1.3341165
1.1218551 -3.725472 2.6873727 2.366903 0.4846136 -0.18718275 0.6715546 -0.63365704
2.4056115 -1.0379789 3.4867785 -1.1737154 -3.469778 0.50004625 -4.7751403 1.4891586
-0.54666954 -5.9070334 0.69455755 -3.0603492 2.7608354 -2.1536832 -3.4269028 -1.4202796
00000000: ba6e ab3f 40b8 50bf 369a 953e 7b2c 1ec0
00000010: 9813 2ac0 c72b 1d3f fa74 5dbf 54c4 aabf
00000020: f398 8f3f 226e 6ec0 eafd 2b40 577b 1740
00000030: 461f f83e d6ac 3fbe 01eb 2b3f 5937 22bf
00000040: 8af5 1940 7edc 84bf 6127 5f40 4e3c 96bf
00000050: d810 5ec0 0803 003f f3cd 98c0 c09c be3f
00000060: 89f2 0bbf 6b06 bdc0 86ce 313f c3dc 43c0
00000070: 87b1 3040 f2d5 09c0 6052 5bc0 b9cb b5bf
