Networks/5-DDPG-policy-network.pt (torch, 7111 bytes, 5 tensors)

fc1.weight f4 [32, 3]
000000 9c d2 4e be 7a 13 e3 3e bc c7 19 3f 75 02 d9 3e
       -0.20197529 0.44350797 0.60070395 0.42384687
000010 5b 12 22 bf 26 e3 8e 3e b3 48 a8 3e 89 7d 11 3f
       -0.6330926 0.27907676 0.32867965 0.56832176
000020 17 bb 17 bf 09 6c e5 3e 9d 7f f6 3e 61 3f 38 bf
       -0.5926985 0.44808987 0.48144236 -0.7197171
000030 6d a9 bd bd 72 01 9c 3e 71 c1 fb be ce f9 c5 3e
       -0.09260831 0.30469853 -0.49171022 0.38667148
000040 97 bd b2 3e 10 52 5f 3e 68 c6 37 3f 4b f2 35 3f
       0.3491027 0.21808648 0.7178712 0.71072835
000050 fc 73 ae 3e 99 28 f8 bd c6 b5 eb 3e 78 7a 12 bf
       0.34072864 -0.121171184 0.4603712 -0.5721812
000060 ad 93 21 bf 08 ab bd be 45 6b 67 bc df 93 65 3f
       -0.6311596 -0.3704455 -0.014124696 0.8967876
000070 15 1e 22 3f 62 08 fe 3e e8 27 aa 3e f8 a8 65 bf
       0.6332715 0.4961577 0.3323357 -0.8971095
000080 c4 ac 6d be f8 e6 66 3e 15 d3 ae 3e 20 eb e7 3e
       -0.23210436 0.22549045 0.34145418 0.45296574
000090 ec 3f 73 be c3 9d cd bd e1 64 15 3f e5 f6 51 bd
       -0.23754853 -0.10039856 0.58357054 -0.051260848
0000a0 61 bc c7 be 1a 47 f6 3e da da 15 3f eb 3d 3a be
       -0.3901091 0.4810112 0.58537066 -0.18187682
0000b0 55 88 80 be 29 82 f6 be de 05 00 bf 32 d9 82 3e
       -0.25104013 -0.4814618 -0.5000895 0.25556332
0000c0 cf 46 df be da 2e 8c 3e 15 99 04 bf 5c 1d 32 be
       -0.4360871 0.27379495 -0.51796085 -0.17394012
0000d0 0e 9e 6e 3d 7a 4f 8b 3e 44 93 1c 3f b0 b7 05 3f
       0.0582562 0.27209073 0.6116221 0.5223341
0000e0 51 e8 43 3e 9b 5c 2b bf 13 7b 34 bf 91 44 18 bf
       0.1913159 -0.6693818 -0.70500296 -0.59479624
0000f0 3c b1 c4 be f7 53 27 3f ff f5 39 bc 93 64 2a 3e
       -0.3841647 0.65362495 -0.011350154 0.16639929
000100 96 eb d6 be 28 e9 70 3e 27 25 00 3f a2 13 49 bf
       -0.41976613 0.23526442 0.5005669 -0.7854558
000110 f6 42 27 be d8 de 05 3f fe bc 1f 3e 58 56 21 be
       -0.16334137 0.5229316 0.15599439 -0.15755594
000120 93 9d 96 bd be 04 a4 be 87 94 00 bf 0b 47 20 bf
       -0.07354274 -0.32034868 -0.50226635 -0.626084
000130 0c 86 73 3f dd d1 e2 3c 11 00 1e bf 54 98 b2 be
       0.95126414 0.027687961 -0.6171885 -0.34881842
000140 d7 66 a3 be c9 6b ac be 95 b4 17 bf 36 84 91 3e
       -0.31914398 -0.33675984 -0.5925992 0.2842118
000150 1f 97 a4 3e 0e b4 d3 be 70 36 64 be 92 0c 16 3f
       0.32146546 -0.41348308 -0.22286391 0.5861293
000160 23 50 82 bd 71 c9 72 3e 55 1e a8 3e 61 d0 cb be
       -0.06362941 0.23709656 0.32835642 -0.39807418
000170 0e 18 0e 3e 43 82 3f bc 5c eb 1e 3f ad 15 91 be
       0.13876364 -0.011688772 0.6207788 -0.2833685

fc1.bias f4 [32]
000000 27 e9 e9 3b f8 c1 f5 3e 7b f8 03 bf 9e 48 5b be
       0.0071383896 0.4799955 -0.51551026 -0.2141442
000010 d0 79 34 3f eb fa 4c be fa d4 59 3f 9b d1 e6 3e
       0.7049837 -0.20017593 0.850906 0.4508179
000020 ce 92 4b 3f 2a 81 2e be 59 2e ad 3e 5f 88 37 be
       0.7952088 -0.1704146 0.33824423 -0.17923115
000030 25 ab bc bd 5f b7 9a 3e c1 b0 eb 3c 5d 35 5a 3f
       -0.09212331 0.30218026 0.028770806 0.85237676
000040 f2 37 1a 3f 8a 9b c1 be 91 5b 8d 3e 79 c9 4b 3e
       0.60241616 -0.3781398 0.27608922 0.19901074
000050 7f 01 d4 3d ee 20 68 3e f2 9d e6 bd 26 b0 c8 be
       0.10351848 0.22668812 -0.112605944 -0.3919689
000060 1d e6 df 3e 70 4a d1 bc 12 d1 a5 3e f2 9d 64 bf
       0.4373025 -0.02554819 0.3238607 -0.89303505
000070 d8 c0 16 be 48 e2 f0 bd 0d bb ab 3d b9 a4 33 be
       -0.14722002 -0.1176191 0.083852865 -0.17543305

fc2.weight f4 [32, 32]
000000 e6 07 03 3e 68 cb c0 3d ab c9 32 3e b8 16 99 3e
       0.12795982 0.09413797 0.17459743 0.29900146
000010 91 78 68 be 6f 6e 0a be 92 ff eb 3c 5d e8 93 3d
       -0.22702242 -0.1351869 0.028808389 0.07222054
000020 de 94 33 3e 59 0b 56 be bd 4e 16 3e fd dc 55 be
       0.17537257 -0.20902766 0.14678474 -0.20885082
000030 9e 5b 43 3e ae 6a f1 3d 1c 07 81 3e ef f0 97 3e
       0.19077918 0.11787926 0.25200737 0.29676005
000040 f9 d1 91 3c dd 78 a1 3d af 0c 12 be ff 11 85 be
       0.017800318 0.07884381 -0.14262651 -0.25990292
000050 d9 e6 c5 3c c9 3a 38 3e 36 83 ec 3d 6d 24 a1 3d
       0.024157928 0.17991175 0.11548464 0.07868276
000060 e4 a6 43 be 7d c7 d8 bb 2a ad 18 be da 94 0f be
       -0.19106632 -0.0066155777 -0.14909807 -0.14021626
000070 a3 e4 f2 3d 49 10 98 3d f3 a7 36 bd f2 33 04 3e
       0.11860015 0.07424981 -0.044593763 0.1291044
000080 c6 0a c4 bd 99 ae 62 3c 35 ce 54 3d cc c4 48 3e
       -0.09572367 0.013835573 0.051954467 0.19606322
000090 64 a6 06 3e 6a e2 0f 3e 82 6d 1c bd 22 18 d3 3d
       0.1314941 0.14051214 -0.038190372 0.10307337
0000a0 07 37 78 be 7e d1 0f be d6 f3 8b 3c 4c 89 d0 bb
       -0.24239741 -0.14044759 0.017084043 -0.0063640233
0000b0 06 1d 0e be c0 97 a6 bd 7f a7 8b bd 1a 8d 3c be
       -0.13878259 -0.08134413 -0.06819057 -0.18413201
0000c0 52 17 27 bc b2 cc f6 3d 68 6b 32 3d 01 3d df bd
       -0.010198431 0.12050761 0.04355946 -0.109003074
0000d0 19 5c 24 be d4 a5 19 be 99 59 63 3d 90 78 17 3e
       -0.16050757 -0.15004665 0.05550537 0.14792085
0000e0 fc 64 aa bd bf 0b 09 be 53 4d 04 be d2 ba 7a bc
       -0.083200425 -0.13383387 -0.12920122 -0.0153033305
0000f0 d8 c4 0a be 06 25 2e be e1 41 29 3e cb 59 47 bd
       -0.13551652 -0.17006311 0.16529037 -0.048669618
000100 b1 c7 3b bb 8a 97 fc bc 26 a0 23 be 95 4c 87 bc
       -0.002865296 -0.030833978 -0.1597906 -0.01651601
000110 6d 55 86 3d 2c 2b fc bd 98 7d 87 3b d6 13 59 3c
       0.065592624 -0.12312922 0.004134845 0.013249358
000120 48 f1 94 bd ae b9 e5 3c 2c 51 60 3e 2f bf 9c 3d
       -0.07272583 0.02804264 0.21905965 0.07653653
000130 6d fe 1c bd d2 28 07 3e 36 bf 1d be d8 91 6f 3d
       -0.038328577 0.13199165 -0.15404972 0.058488697
000140 a3 a7 78 bc 61 76 b8 bd 32 4b 4f 3d 01 c7 e1 bd
       -0.015176686 -0.09006954 0.05060882 -0.11024285
000150 ef a8 0d 3d 2b 86 e2 bc f8 d1 07 be 69 a7 e6 bc
       0.034584936 -0.027651867 -0.1326369 -0.028156
000160 ca 07 06 be cd 7f 39 3e f3 fa b3 3d 0b 9d b8 3d
       -0.13088909 0.18115158 0.08788099 0.090143286
000170 65 70 12 bd 65 84 12 bd ef 75 c9 3c 24 4e 42 3e
       -0.03575172 -0.035770793 0.024592368 0.18975121
000180 a2 45 aa 3e 8d 7f 52 be 2d 4f 09 be ca 18 06 be
       0.3325625 -0.2055647 -0.1340911 -0.13095394
000190 6b 97 d7 bd f7 6c ac 3d 69 51 33 3e 52 c4 43 3e
       -0.105269276 0.08419221 0.17511524 0.19117859
0001a0 3d 07 b7 3e 77 55 30 be 96 a9 99 bd 3c 7b 15 3e
       0.3574771 -0.17220102 -0.07503049 0.14597791
0001b0 10 ee 57 3e 44 02 1a 3e 12 11 48 be 02 e2 b7 3e
       0.21086907 0.15039927 -0.19537762 0.35914618
0001c0 f6 2d 4e 3d cf 13 06 3d 48 8b 7f 3d 04 86 80 bc
       0.0503368 0.032733735 0.06238869 -0.015688904
0001d0 54 2a f4 3d 73 cf 0a be a6 6b 8b 3d f9 54 22 bd
       0.11922136 -0.13555698 0.06807642 -0.039631817
0001e0 56 8f 80 be c2 fe f2 3e ed 92 55 bd e3 9c f8 bd
       -0.25109357 0.4745999 -0.052142072 -0.12139299
0001f0 ef b1 27 be 88 2b d4 bd 9f 7d 3d be a0 da c9 3a
       -0.1637647 -0.103598654 -0.18504952 0.0015400238
000200 67 80 a6 bd bc 2f f3 bc 5d 00 64 bd 1d 29 17 be
       -0.081299596 -0.029685847 -0.05566441 -0.14761777
000210 41 c2 5a 3e dd c5 0f 3d 1d 97 60 be a1 08 40 bd
       0.21363164 0.035100807 -0.21932645 -0.04688323
000220 50 58 8e 3d 28 cd cf bd 57 83 b7 bc e3 04 2c bd
       0.06950438 -0.10146552 -0.022401495 -0.041996848
000230 d0 d3 8a bc a1 d1 41 bc 35 a3 fe bd 31 73 53 3e
       -0.016946703 -0.011829765 -0.12433473 0.20649411
000240 62 e1 74 3e a6 42 3f bd 04 ed 2c be 3d 0e dc 3e
       0.23914102 -0.04669442 -0.1688729 0.42979613
000250 82 89 f1 3d 3b 0e 04 be 85 b7 89 bc 71 d4 9e bd
       0.11793806 -0.12896053 -0.016811142 -0.07755364
000260 6b f1 e4 3d fd fc 43 3e 2f 5c 5c 3e 73 24 14 3e
       0.11178859 0.19139476 0.2151954 0.1446703
000270 2a 84 53 bb dd 74 14 bd 10 6c a8 bd 14 e9 12 be
       -0.003227482 -0.036244262 -0.08223736 -0.14346725
000280 0b aa 37 3d 49 a0 bb 3d d2 67 12 3b 45 99 36 3e
       0.0448399 0.09161431 0.0022339714 0.17831905
000290 12 61 d3 bd 33 5a c4 3d 0d ad 5e 3e 2d c1 8e bc
       -0.10321249 0.09587517 0.21745701 -0.017426098
0002a0 5d 48 b6 3d f8 86 9c 3d d7 6e 24 be 68 f9 93 bd
       0.08900521 0.07642931 -0.16057907 -0.07225305
0002b0 c8 35 6c 3d ed bc b6 bd b1 47 7e 3d 47 75 ee 3d
       0.057668477 -0.089227535 0.06208009 0.11643463
0002c0 69 bd 6e 3d ee b4 58 3b 43 40 bd 3d 75 a9 d4 bd
       0.058286104 0.0033066827 0.092407726 -0.10383884
0002d0 77 34 2a be 4e 75 0b be fb 48 29 be 3e 96 18 3d
       -0.16621576 -0.13618967 -0.16531746 0.037252657
0002e0 4b b2 10 3d 15 8e eb bd d9 a7 35 be aa 8c 15 3e
       0.035326283 -0.11501709 -0.1773981 0.1460444
0002f0 54 0d de bd 7c ea a4 3b 5b eb 0a be 3a 5a c1 bd
       -0.10842386 0.0050328355 -0.13566343 -0.094410375
000300 2c 07 97 3d 6a b3 29 be 42 93 c2 bd 83 0e 08 3e
       0.07374415 -0.16572347 -0.095007434 0.13286786
000310 3a 9c b3 bd 1f aa 96 bd e8 ee 4a bd 37 62 a5 3d
       -0.08770032 -0.07356667 -0.049544245 0.080753736
000320 63 89 e8 bd 00 86 91 3c ba 9f 82 3d 9d 40 52 bc
       -0.113543294 0.017764091 0.06378122 -0.012832788
000330 3d ed 02 3d 86 26 0a be ee 02 97 3d 2b 71 86 3d
       0.03196453 -0.13491258 0.07373606 0.06564554
000340 c0 26 77 bc f5 ad 15 be 30 0d 8f 3d e1 b4 f9 3d
       -0.015084922 -0.1461714 0.06984937 0.12192703
000350 56 20 f5 bc e0 f4 a9 3d 51 3a 80 3d 88 bb 8f bd
       -0.029922646 0.08298659 0.06261123 -0.070181906
000360 07 32 48 bc 72 22 37 3e da 70 af 3b a8 1c 10 be
       -0.012218959 0.17884234 0.005354029 -0.14073431
000370 ac 77 7d bc 07 53 b4 3d f7 bf 6d bd 4b cd b9 bd
       -0.0154704265 0.08804899 -0.0580444 -0.0907236
000380 34 9e 36 3e 53 a9 20 3e 7a 15 61 3d 7c 03 c5 3d
       0.17833787 0.15689592 0.054952122 0.09619805
000390 4c 62 fd bc 7e 16 81 bc 84 fb 85 3d 2d 97 cc bd
       -0.03093066 -0.015757795 0.065421134 -0.09989772
0003a0 af 06 62 3d eb ca 9d bd 8e e3 f6 3d f1 82 e2 bd
       0.055182155 -0.07704719 0.12055121 -0.11060131
0003b0 9e c0 97 3d 1a 3a a5 bd ee 32 ba 3d 99 d0 3a 3e
       0.07409786 -0.080677226 0.09091745 0.18243636
0003c0 5f 45 20 bd b1 3c 2c be a4 91 a5 bb b9 29 ec bd
       -0.039128657 -0.16820027 -0.005052762 -0.115313955
0003d0 7d b6 b8 bd e6 ab 9e bd 96 21 6c 3e 69 e2 27 3e
       -0.09019182 -0.07747631 0.23059687 0.16394962
0003e0 c2 74 bf 3d 06 09 58 3e ba 28 2c bc e1 91 79 3c
       0.09348442 0.21097192 -0.010507757 0.015232534
0003f0 72 96 2b 3e c4 94 55 bd e6 5d 1e ba b1 83 31 3e
       0.16756609 -0.052143827 -0.00060412136 0.17335393

fc2.bias f4 [32]
000000 d4 00 e7 3d f6 47 44 be 78 25 6b 3e 44 29 53 3e
       0.11279455 -0.19168076 0.22963512 0.2062121
000010 1c 3a 1d 3e 64 a8 ea bd 7f ae 1d be 8b 8d 50 bd
       0.15354198 -0.11457899 -0.15398596 -0.050916236
000020 2a 91 ff bc eb 13 a3 bd d4 c0 ba 3d 53 5c bb bb
       -0.03119715 -0.079627834 0.0911881 -0.005717793
000030 73 60 cc bd ce b6 9c 3d a3 c3 52 be 55 02 94 be
       -0.09979334 0.07652055 -0.20582442 -0.2890803
000040 c9 8b 37 bc f1 0f c5 bd 3e e0 2b 3d 82 99 d5 3c
       -0.011202761 -0.09622181 0.0419619 0.026074175
000050 bf 06 74 be 79 b9 7d be f1 3b 1c 3d fd 53 98 3e
       -0.23830698 -0.24777783 0.038143102 0.29751578
000060 97 81 0e be 3c 11 20 be 8f e2 e0 bd ed b3 73 3c
       -0.13916622 -0.15631574 -0.109807126 0.014874441
000070 7a 5c ca 3c 2e 92 59 3e 35 bb a7 3d 45 69 8f bc
       0.0247023 0.2124717 0.08190004 -0.017506251

fc3.weight f4 [1, 32]
000000 b3 bf 3a 3f 23 39 b4 3e c0 57 66 3e 75 42 5d 3f
       0.7294876 0.35199842 0.22494411 0.8642953
000010 e3 e0 24 bf 68 07 70 be bb 3b 0b 3b 08 b8 cb 3e
       -0.6440565 -0.23440325 0.002124532 0.39788842
000020 fd 88 8c 3d bd 79 a7 bd ee 44 39 bf 7e 80 89 3e
       0.06862066 -0.081775166 -0.72370803 0.26855844
000030 e8 2b 64 3f fa ab 0d bf 1e 10 32 bf 07 5a a5 bf
       0.89129496 -0.5534054 -0.6955584 -1.2918099
000040 8a f0 bb be 16 aa 8b 3d c2 b1 8d 3e 3c d2 8c bf
       -0.36706954 0.06819551 0.2767468 -1.1001658
000050 af 0e 59 bf e0 86 6f 3e 31 75 b2 bd 91 d1 56 3f
       -0.8478803 0.23391294 -0.08713759 0.8391352
000060 7a 04 28 bf 76 3f 2c 3e b2 07 ec 3c 1b e2 f9 bc
       -0.6563183 0.16821083 0.028812263 -0.030503323
000070 44 3c 04 be cb e8 0a 3f 15 7e c3 3e d0 b9 54 3f
       -0.12913615 0.54261464 0.3818213 0.8309603
