Networks/5-q-network.pt (torch, 7159 bytes, 5 tensors)

fc1.weight f4 [32, 4]
-0.67704564 -3.7036498 0.13190334 0.5141453 -1.9116552 -1.8661572 0.40013298 0.5179959
-0.57486945 1.8096601 -0.08121059 -0.22011296 -0.31165087 -0.98771346 -0.5475747 -0.6564191
-1.0109022 -1.7162186 -0.018188018 -0.29633835 1.0824046 0.6533226 -0.2721268 -0.43775165
2.7745793 -0.3726043 0.39798802 0.244931 0.7377067 -0.6895245 -0.65488535 -0.11169355
-4.931887 -1.0815903 -1.027784 -0.32047677 5.3140755 5.313071 1.6218309 0.487486
4.4182153 3.528595 0.53020024 0.23106596 -1.3274242 3.1848197 0.5770082 0.049381837
0.6925483 -0.07024109 0.38747337 0.49958766 3.6825755 -5.2678957 -1.1963859 -0.37470526
-0.67360705 -0.3899191 1.4479039 1.0747489 0.44848 1.5785228 1.693099 -0.03560571
0.27287623 -0.06300087 0.009443582 0.11424902 -2.3689723 -6.022588 -0.48520717 0.14614576
0.21978861 1.1792953 -0.9816426 -0.4972757 0.91675913 -0.46908516 1.1364775 0.6250394
3.1783984 -1.3001211 -0.44982594 -0.3830914 0.8778425 1.5596236 0.31473264 0.091377296
1.8912852 2.1260302 1.3678734 0.6054727 -0.27263004 3.751096 0.8858056 -0.04933898
-0.49386188 -3.0408044 -0.19254835 0.2429896 1.0214483 5.5246387 1.1468393 0.51420426
-4.1291776 2.569993 0.94667864 0.17746198 -1.9773681 -0.004995383 2.0701683 0.4762693
1.973789 0.8527024 1.0222144 0.8118487 -0.0044052275 0.52828836 0.0036956614 0.15329866
-0.5104588 1.3609933 -2.1905353 -0.86523664 -1.1753478 0.09044218 0.61361146 0.0926134
00000000: dd52 2dbf 9908 6dc0 ab11 073e 079f 033f
00000010: 1eb1 f4bf 3dde eebf 3bde cc3e 619b 043f
00000020: a52a 13bf f1a2 e73f bd51 a6bd 4b65 61be
00000030: b490 9fbe cada 7cbf db2d 0cbf 150b 28bf
00000040: 3e65 81bf 0dad dbbf 0aff 94bc a9b9 97be
00000050: 3c8c 8a3f 2640 273f 3454 8bbe fc20 e0be
00000060: b592 3140 fec5 bebe 16c5 cb3e 31cf 7a3e
00000070: 59da 3c3f ad84 30bf 91a6 27bf 97bf e4bd
00000080: 05d2 9dc0 8d71 8abf 6d8e 83bf 8815 a4be
00000090: e80c aa40 ad04 aa40 2898 cf3f c497 f93e
000000a0: 0562 8d40 80d4 6140 34bb 073f 8e9c 6c3e
000000b0: 09e9 a9bf 16d4 4b40 cfb6 133f 9c44 4a3d
000000c0: d84a 313f 90da 8fbd e962 c63e f4c9 ff3e
000000d0: 51af 6b40 9a92 a8c0 2c23 99bf 5ed9 bfbe
000000e0: 8371 2cbf 7aa3 c7be ea54 b93f 5f91 893f
000000f0: 2c9f e53e 090d ca3f 78b7 d83f 4bd7 11bd
00000100: 6fb6 8b3e 9a06 81bd 41b9 1a3c 64fb e93d
00000110: 3e9d 17c0 0ab9 c0c0 136d f8be 3ca7 153e
00000120: 4410 613e 26f3 963f ee4c 7bbf ec9a febe
00000130: bab0 6a3f ee2b f0be 1878 913f 9502 203f
00000140: e16a 4b40 5e6a a6bf 964f e6be 8e24 c4be
00000150: 49ba 603f bfa1 c73f a324 a13e 0524 bb3d
00000160: a215 f23f e110 0840 7a16 af3f 4200 1b3f
00000170: 2a96 8bbe f511 7040 28c4 623f ac17 4abd
00000180: 77db fcbe 8a9c 42c0 652b 45be 44d2 783e
00000190: d1be 823f d7c9 b040 a1cb 923f e4a2 033f
000001a0: 3922 84c0 c47a 2440 8859 723f 98b8 353e
000001b0: 661a fdbf 4fb0 a3bb a37d 0440 92d9 f33e
000001c0: 1ea5 fc3f b44a 5a3f ecd7 823f 51d5 4f3f
000001d0: ba59 90bb e83d 073f e932 723b 53fa 1c3e
000001e0: 6ead 02bf 0735 ae3f bb31 0cc0 2680 5dbf
000001f0: cc71 96bf c039 b93d a415 1d3f 18ac bd3d

fc1.bias f4 [32]
2.1261048 -1.4421076 -0.3426961 2.7804735 -2.4413092 2.4559758 4.507635 3.2063472
4.8476353 -2.292713 -5.065338 1.8382716 5.4658155 -1.3949925 4.345099 -1.1402677
-0.45081887 2.319994 3.2039278 -4.1450095 1.5339776 -0.5342074 -5.006061 -1.460761
1.4654521 1.0968887 3.389447 -0.42631075 1.8279543 -0.71147776 -1.0282131 2.7451463
00000000: 1a12 0840 fb96 b8bf dd75 afbe 47f3 3140
00000010: 693e 1cc0 b52e 1d40 8c3e 9040 cb34 4d40
00000020: d41f 9b40 cfbb 12c0 4017 a2c0 7c4c eb3f
00000030: f6e7 ae40 1d8f b2bf 0d0b 8b40 4bf4 91bf
00000040: bbd1 e6be c87a 1440 270d 4d40 eba3 84c0
00000050: 6159 c43f d1c1 08bf a731 a0c0 37fa babf
00000060: ef93 bb3f d966 8c3f b3ec 5840 6745 dabe
00000070: 68fa e93f 6823 36bf 7d9c 83bf 7ab0 2f40

fc2.weight f4 [32, 32]
0.27749705 0.13152768 -0.3974044 -0.010902902 -0.0143905245 0.1931645 0.18767947 0.22593972
-0.32316285 0.19989553 0.67751914 -0.19894901 0.25521484 -0.17544942 -0.20980603 0.043626264
-0.020402743 0.30111453 0.020864192 -0.090751305 0.291945 0.109905474 0.25613284 -0.36384183
0.46704105 -0.031647343 -0.21585663 -0.11368198 -0.14902917 0.09308639 0.07934512 0.1542483
-0.11680927 0.013437432 -0.1266469 -0.09628097 -0.09486523 0.05049838 -0.13564028 -0.0020675776
0.058041256 0.109667294 -0.13398336 -0.1155687 -0.115421265 0.11417722 -0.06239169 0.14779979
0.06392378 0.027907565 0.010165981 -0.03494549 -0.005767464 -0.040359575 -0.0012421098 0.026045468
-0.13938373 -0.09551671 0.15747415 -0.14542668 -0.018294437 0.17487435 0.0939157 0.015134181
-0.37558386 -0.032498598 -1.330829 -1.1947253 -0.39238843 -0.4192672 0.5707632 -0.24250057
0.31707922 1.376519 2.4488533 -0.018087527 0.05198291 -3.9913692 -1.2979281 0.9730911
0.058447156 -0.21597527 -0.25825462 0.18884447 0.7328736 -0.092668876 1.4748654 -2.729171
-0.18450966 0.28688383 -1.5629838 0.7187609 0.28061488 -0.17430677 1.0222934 -0.8817289
-0.3036386 -0.2876126 -0.18628253 -0.31663987 -0.26891956 -0.20467137 0.18733877 -0.12525314
0.20302477 0.06348423 0.969229 0.2615852 0.10244593 -0.2486445 -0.11648131 -0.13884401
-0.1670841 -0.2795729 -0.24764147 -0.113566615 0.6935696 0.16324134 0.8587915 -0.11193447
0.28358075 -0.18421127 0.34433076 0.43461642 -0.06677099 0.06351842 -0.22048518 0.26932427
0.1506196 -0.0043971697 -0.14394969 0.042193804 0.081314735 -0.048571303 -0.13998476 -0.19180219
0.5949278 -0.16329981 0.13871393 -0.11225293 -0.09792807 0.092554666 -0.19663702 0.018432876
0.03470828 0.11874386 0.2820978 0.15696311 -0.10623016 -0.024795359 -0.12655954 -0.09119191
0.3115067 -0.049766924 -0.056369785 0.091280706 -0.15540114 0.026310727 0.28347567 -0.12267717
0.44863582 -0.07265345 -0.20936419 0.019453935 0.07241651 -0.057283647 0.008700513 0.01269707
0.04998008 -0.5801773 -0.013157272 -0.577664 -0.06890922 0.5080473 -0.11053462 -0.14968626
0.13351277 0.2731358 -0.05612457 0.08961296 0.06464113 -0.047230918 0.27825943 0.002114239
0.15831643 -0.45831555 -0.1500757 -0.02097573 -0.39735729 0.023561887 -0.01469487 0.10826078
0.0017877546 -1.421291 -0.21913362 0.6188755 -0.38495168 -0.68113154 0.2810788 0.65605307
0.036811333 -5.185436 1.2280129 -0.6326662 -0.4473759 1.6540035 2.1441092 -1.7887801
-0.120637916 -4.303074 -1.8194678 -1.2336498 1.5433859 0.13712075 1.8404797 -0.8970964
0.7524309 -4.2729354 1.6415404 0.01975227 -0.8291039 -0.2256146 0.49563107 0.563131
0.15718329 -0.49677512 -0.20710345 -0.107385844 -0.22614206 -0.12378915 0.5405208 0.03881574
0.51600915 0.23344512 1.3812038 0.45417812 0.280627 -0.812877 -0.6412252 -0.069859244
0.11313347 -0.35950205 0.18431361 0.08456818 1.0019143 0.3253247 1.264887 -0.11609274
0.63240546 -0.023760969 -0.04071629 -0.43798158 0.10463481 -0.13749772 -0.15571186 -0.21979697
00000000: 1814 8e3e 31af 063e 9778 cbbe 16a2 32bc
00000010: 3cc6 6bbc eacc 453e 0c2f 403e be5c 673e
00000020: 9a75 a5be 6ab1 4c3e e571 2d3f 4ab9 4bbe
00000030: 85ab 823e 03a9 33be 64d7 56be 74b1 323d
00000040: a723 a7bc af2b 9a3e 62eb aa3c d2db b9bd
00000050: d179 953e 1f16 e13d d823 833e 7a49 babe
00000060: 0120 ef3e a5a0 01bd 8509 5dbe 19d2 e8bd
00000070: 1a9b 18be 14a4 be3d b27f a23d 44f3 1d3e
00000080: b339 efbd ad28 5c3c baaf 01be f52e c5bd
00000090: b448 c2bd 64d7 4e3d 49e5 0abe 3280 07bb
000000a0: abbc 6d3d 3f99 e03d ef32 09be 48af ecbd
000000b0: fc61 ecbd bfd5 e93d 6e8e 7fbd d458 173e
000000c0: 79ea 823d 689e e43c 378f 263c 0123 0fbd
000000d0: fffc bcbb 1550 25bd 4ace a2ba 4e5d d53c
000000e0: 9cba 0ebe 449e c3bd e740 213e bbea 14be
000000f0: 37de 95bc 4312 333e e056 c03d 5bf5 773c
00000100: 874c c0be 401d 05bd 9b58 aabf c2ec 98bf
00000110: 23e7 c8be 31aa d6be 891d 123f 1252 78be
00000120: 3558 a23e c631 b03f 03ba 1c40 4b2c 94bc
00000130: 08ec 543d 9872 7fc0 8222 a6bf 801c 793f
00000140: 4966 6f3d 9f28 5dbe f339 84be 7260 413e
00000150: 9b9d 3b3f 2ec9 bdbd 64c8 bc3f bdaa 2ec0
00000160: 1af0 3cbe 70e2 923e da0f c8bf b700 383f
00000170: c1ac 8f3e 797d 32be 83da 823f fcb8 61bf
00000180: 8576 9bbe f541 93be d9c0 3ebe 9f1e a2be
00000190: d3af 89be 5f95 51be bcd5 3f3e 5c42 00be
000001a0: bae5 4f3e 0504 823d 641f 783f 7fee 853e
000001b0: 2ccf d13d aa9c 7ebe c18d eebd 202d 0ebe
000001c0: 1818 2bbe 2e24 8fbe ba95 7dbe 9d95 e8bd
000001d0: c78d 313f bd28 273e c2d9 5b3f e63d e5bd
000001e0: 7f31 913e e1a1 3cbe 1f4c b03e 0b86 de3e
000001f0: 3bbf 88bd f215 823d dec6 61be dfe4 893e
00000200: 063c 1a3e 2216 90bb 8c67 13be 69d3 2c3d
00000210: 5788 a63d b4f2 46bd 2a58 0fbe cb67 44be
00000220: 304d 183f 1138 27be 060b 0e3e dde4 e5bd
00000230: 838e c8bd 4d8d bd3d 375b 49be 8b00 973c
00000240: 452a 0e3d fb2f f33d 1f6f 903e f0ba 203e
00000250: 338f d9bd a31f cbbc d398 01be d3c2 babd
00000260: ce7d 9f3e 67d8 4bbd 01e4 66bd 61f1 ba3d
00000270: 7a21 1fbe 9889 d73c b923 913e 2b3e fbbd
00000280: 98b3 e53e 55cb 94bd 9163 56be dc5d 9f3c
00000290: 1b4f 943d 42a2 6abd 998c 0e3c 5f07 503c
000002a0: eab7 4c3d 8086 14bf 9991 57bc cae1 13bf
000002b0: 4720 8dbd 630f 023f fa5f e2bd 5b47 19be
000002c0: 92b7 083e 75d8 8b3e e1e2 65bd 0087 b73d
000002d0: 9262 843d 3575 41bd 0578 8e3e 0b8f 0a3b
000002e0: b41d 223e 56a8 eabe 72ad 19be 4bd5 abbc
000002f0: 6a72 cbbe dc04 c13c c1c2 70bc d4b7 dd3d
00000300: 1753 ea3a ddec b5bf 9064 60be a06e 1e3f
00000310: 6318 c5be a35e 2ebf 8fe9 8f3e 18f3 273f
00000320: 7bc7 163d 17ef a5c0 872f 9d3f 69f6 21bf
00000330: 740e e5be 63b6 d33f 1639 0940 bff6 e4bf
00000340: 0311 f7bd c8b2 89c0 52e4 e8bf 3de8 9dbf
00000350: ab8d c53f 6269 0c3e d794 eb3f 1ca8 65bf
00000360: 509f 403f e3bb 88c0 ff1d d23f 83cf a13c
00000370: 2740 54bf 8407 67be 5bc3 fd3e 5a29 103f
00000380: a8f4 203e 4f59 febe ed12 54be 1ced dbbd
00000390: c991 67be 2a85 fdbd 925f 0a3f 41fd 1e3d
000003a0: 2d19 043f 3d0c 6f3e 49cb b03f 098a e83e
000003b0: 58ae 8f3e b518 50bf 5627 24bf 5d12 8fbd
000003c0: 85b2 e73d a710 b8be b5bc 3c3e 1532 ad3d
000003d0: ba3e 803f f690 a63e d1e7 a13f 08c2 edbd
000003e0: 53e5 213f 5da6 c2bc 20c6 26bd 1f3f e0be
000003f0: c64a d63d 34cc 0cbe ee72 1fbe 7512 61be

fc2.bias f4 [32]
-0.12210002 -0.14556256 0.4116806 0.5967609 0.087664954 -0.096522935 0.9792782 0.8840458
0.089897364 0.22592796 1.8210862 -0.26092196 0.35784882 0.3765606 -0.004374531 -0.07791609
0.944372 0.6425909 0.13376196 -0.058727186 -0.18864165 0.38998199 -0.14733201 1.8112605
0.26141003 -0.16196844 -0.106561296 0.5214286 0.83447546 -0.13678223 0.17539647 -0.17055444
00000000: 930f fabd 5a0e 15be cdc7 d23e 53c5 183f
00000010: af89 b33d d1ad c5bd fab1 7a3f d350 623f
00000020: 1c1c b83d a959 673e 5a19 e93f 9097 85be
00000030: f637 b73e 8dcc c03e 3a58 8fbb 7992 9fbd
00000040: 5dc2 713f d680 243f e5f8 083e eb8b 70bd
00000050: 472b 41be b8ab c73e 34de 16be 62d7 e73f
00000060: 89d7 853e 0edb 25be cf3c dabd 587c 053f
00000070: 2fa0 553f a410 0cbe 229b 333e d3a5 2ebe

fc3.weight f4 [1, 32]
-1.1715467 0.1503755 -6.450155 -1.1123376 0.8364327 -1.1801174 -8.690643 -1.6871408
-0.16482075 -3.3382719 -3.6760695 1.4973967 -1.987831 -1.5556049 0.19897059 0.4584327
-3.7334259 -3.8567524 0.08156731 -1.2405041 -3.0144262 -2.9814095 4.2042475 -1.9184442
-2.1482124 2.2748322 0.3552685 -2.1526935 -7.938885 -2.2532551 -4.8017178 -0.12931724
00000000: 3ef5 95bf 09fc 193e ab67 cec0 1461 8ebf
00000010: 7420 563f 160e 97bf e00c 0bc1 3bf4 d7bf
00000020: c5c6 28be 3fa6 55c0 b944 6bc0 b2aa bf3f
00000030: 3f71 febf 101e c7bf f2be 4b3e b1b7 ea3e
00000040: 73f0 6ec0 08d5 76c0 c30c a73d d7c8 9ebf
00000050: 5cec 40c0 6acf 3ec0 3289 8640 948f f5bf
00000060: 507c 09c0 da96 1140 c1e5 b53e bbc5 09c0
00000070: 590b fec0 5535 10c0 aca7 99c0 bd6b 04be
