Networks/6-DDPG-with-target-network-target-Q-network-tau=0.2.pt (torch, 7607 bytes, 5 tensors)

fc1.weight f4 [32, 4]
-2.015352 -0.34522083 0.70834947 0.3660981 -1.148736 -0.5757903 0.49542242 -0.14626856
-0.34025 0.45945758 0.22272776 0.7557357 1.7986827 -2.0427575 0.16545284 0.047602177
0.3154653 2.6168067 0.22284272 0.061800536 -0.5442159 -2.9256191 0.7596537 0.45410007
1.926775 -1.4971123 0.35176578 0.06029822 -0.26364154 0.13616763 0.06845641 0.13966836
1.9936785 0.66849816 0.22741088 -0.1385242 -0.14400227 -1.8562934 -1.6375033 -0.28954422
0.8488961 -0.15781087 -0.22611682 0.02155271 1.3394011 -1.7402287 -1.1431243 -0.30155125
-0.5719832 -4.604718 3.1113367 0.4735103 -0.22660042 -1.4711869 0.19507174 0.78375137
-0.48021775 -5.3508425 3.1708467 0.8105976 2.094412 0.19208162 -0.3969016 -0.13701135
0.65401816 0.38911813 0.33364826 0.5224471 1.3837037 0.6846164 1.4270337 0.46606305
-0.5002209 0.41473433 -0.22555593 0.7859414 0.5931047 -0.024450798 0.8640285 0.6316655
0.40043762 2.7744613 -0.08463136 -0.048382234 0.27669638 2.2884192 0.8698665 0.37155885
2.5199955 0.82736456 -1.22514 -0.5558869 -0.43416908 1.4097512 -0.13746142 0.7083545
-0.12116791 -1.2755501 -1.5501893 -0.13096999 0.8593627 3.6106637 -0.7070655 -0.13306646
-0.14930992 0.08330211 -0.4310323 0.21894546 3.0358071 1.8586812 -0.68945473 -0.5105137
-0.08822256 0.26764974 0.043762326 0.30868784 -0.33686358 -2.1706436 0.2331388 0.12000611
1.4697385 -0.20079687 0.7566453 0.73074365 -0.536376 0.06235766 0.068537325 0.25428298
00000000: 87fb 00c0 c9c0 b0be 6456 353f 3671 bb3e
00000010: c809 93bf fe66 13bf 02a8 fd3e 6dc7 15be
00000020: 3f35 aebe 063e eb3e bf12 643e e577 413f
00000030: 3c3b e63f 8abc 02c0 786c 293e 80fa 423d
00000040: ab84 a13e c379 2740 e230 643e 8f22 7d3d
00000050: bc51 0bbf 583d 3bc0 aa78 423f ce7f e83e
00000060: 90a0 f63f 60a1 bfbf a51a b43e 44fb 763d
00000070: 06fc 86be 876f 0b3e e032 8c3d 3905 0f3e
00000080: db30 ff3f b222 2b3f 66de 683e 4ad9 0dbe
00000090: 5575 13be 069b edbf b599 d1bf 243f 94be
000000a0: 4151 593f 2c99 21be 2b8b 67be 4f8f b03c
000000b0: 7f71 ab3f d0bf debf e651 92bf ed64 9abe
000000c0: 7e6d 12bf da59 93c0 2420 4740 f16f f23e
000000d0: f109 68be da4f bcbf e3c0 473e eea3 483f
000000e0: 1adf f5be 1a3a abc0 27ef 4a40 5383 4f3f
000000f0: d90a 0640 0bb1 443e b036 cbbe b44c 0cbe
00000100: bc6d 273f 7e3a c73e f2d3 aa3e 18bf 053f
00000110: 341d b13f 0543 2f3f 0aa9 b63f d19f ee3e
00000120: 7a0e 00bf 0f58 d43e 22f8 66be 7533 493f
00000130: b6d5 173f 0a4d c8bc f930 5d3f d5b4 213f
00000140: 2906 cd3e c690 3140 3553 adbd 732c 46bd
00000150: 26ab 8d3e 7675 1240 92af 5e3f f63c be3e
00000160: 9b47 2140 2ace 533f 63d1 9cbf 9b4e 0ebf
00000170: 694b debe ba72 b43f b0c2 0cbe b856 353f
00000180: e226 f8bd 3a45 a3bf 9a6c c6bf ff1c 06be
00000190: 32ff 5b3f 1d15 6740 3f02 35bf 9342 08be
000001a0: b3e4 18be 4c9a aa3d 44b0 dcbe 3d33 603e
000001b0: aa4a 4240 44e9 ed3f 1b80 30bf 07b1 02bf
000001c0: 08ae b4bd 6309 893e 2040 333d 550c 9e3e
000001d0: 6279 acbe d3eb 0ac0 f0bb 6e3e c3c5 f53d
000001e0: 6420 bc3f b29d 4dbe 82b3 413f 0412 3b3f
000001f0: f04f 09bf bf6a 7f3d 4c5d 8c3d 6131 823e

fc1.bias f4 [32]
-1.6618878 -1.2102408 -0.27352044 -1.5733552 -0.5550616 1.0198705 -1.748659 -0.116965115
-0.4111423 0.20727797 -1.4220386 1.0675609 1.5560721 1.0437213 0.6126883 -2.7452228
-1.4423232 0.46929288 -0.20297721 -1.1722342 -0.6992745 -0.3351658 -0.49539918 0.19659583
0.16256115 -1.2969276 -0.40952727 -0.20777161 -0.38775948 0.6001155 -2.5179443 -0.49790877
00000000: bdb8 d4bf 2ce9 9abf df0a 8cbe b463 c9bf
00000010: 8418 0ebf 1e8b 823f 0fd4 dfbf 688b efbd
00000020: 3e81 d2be ad40 543e 5c05 b6bf d6a5 883f
00000030: 5f2d c73f a998 853f 24d9 1c3f bbb1 2fc0
00000040: 0c9e b8bf 2847 f03e 42d9 4fbe c50b 96bf
00000050: a703 33bf da9a abbe f6a4 fdbe 6b50 493e
00000060: 6e76 263e b901 a6bf 8fad d1be 15c2 54be
00000070: 6988 c6be 2ba1 193f 0026 21c0 e6ed febe

fc2.weight f4 [32, 32]
0.019040637 0.21675247 0.05636131 0.0053568296 0.22550768 -0.034205012 0.1304706 -0.02628715
0.03356393 -0.014073505 -0.24576558 -0.022779858 0.041930977 -0.11113861 -0.039248794 -0.3269207
-0.046179287 -0.30914456 -0.07124717 -0.1362648 0.11509862 0.0511804 0.04229431 -0.19250408
0.2312674 0.019977655 0.050693594 -0.19556707 -0.12863299 0.019474082 -0.29158357 0.1571252
0.013359854 0.04004102 0.03635581 -0.105681315 -0.12327389 -0.04191213 0.1746118 0.055265177
0.14232412 -0.008614599 -0.0031669235 -0.06441046 0.07684655 -0.10471429 0.07128678 -0.1917265
-0.15204024 0.10595795 0.09314211 -0.0660041 0.08899873 -0.09912153 0.09420387 0.13077906
0.062292002 0.017836569 -0.15130529 0.07805875 -0.058362003 0.12134727 0.04571538 -0.05464577
-0.040529378 0.15700606 0.103163585 0.02590772 -0.1891701 -0.05023856 -0.16868812 -0.2127429
0.08458746 -0.01924225 0.12417085 -0.011537742 0.07093801 0.20700482 -0.019074047 0.080100805
-0.049944792 -0.08144584 0.026669098 0.021907635 0.108355634 -0.20384407 0.30710763 0.080243334
-0.12940502 -0.01662618 -0.03260282 0.10123498 -0.053616818 -0.081070535 -0.061576642 -0.06881815
-0.10328296 -0.07943983 -0.054675825 0.16373026 0.0474497 -0.04311931 0.012512517 -0.16145504
0.005741292 -0.1294207 0.07744901 -0.0037654156 0.064160876 -0.025318455 0.023116395 0.06140701
-0.11863443 -0.08628174 0.0056084134 0.15010113 0.18215933 0.1896685 0.007233312 0.06803589
0.051533338 0.074226245 0.12786399 -0.22261226 -0.03945782 -0.13146478 0.09858406 0.08789412
0.06675157 0.021235287 -0.09058641 0.09307557 -0.06453722 0.16111933 0.15617372 0.04846147
0.1573529 -0.043686166 -0.14307423 -0.24292225 0.12976523 0.14158452 -0.11400621 -0.12051659
0.028529612 -0.11448064 0.08173566 -0.2532935 0.15140462 0.24349774 0.06709327 -0.057726555
0.08260122 0.24237007 -0.03313587 -0.0070132487 0.1440523 0.1914941 -0.26889348 -0.14695072
0.101612315 0.14715591 -0.14470051 -0.1643503 -0.16603741 -0.12029668 0.059955165 0.14856426
0.0483019 0.08484668 -0.04073921 -0.07175271 0.11177257 -0.002790412 0.18907435 -0.15554604
0.009621778 -0.18756197 -0.0017592327 -0.10050836 -0.00037501525 -0.008896161 -0.097252235 0.072592154
-0.0040434254 -0.16278982 0.08419158 -0.119088836 0.079980806 -0.17828716 0.11827021 -0.06564334
0.14313653 -0.07888759 0.1761805 0.0999619 -0.18456057 -0.078131504 0.1836211 -0.092658125
0.09160498 0.08075053 0.07258814 -0.0960334 0.014320857 -0.12951712 -0.097382285 -0.01846941
0.1317901 0.04264389 -0.13970827 0.028772574 0.11794264 0.07462104 -0.14232458 0.10980067
0.020565033 0.060343575 0.059689008 -0.15365817 0.084410146 -0.02808009 -0.1068776 -0.070893414
0.13903666 0.111981496 0.06078978 0.60949033 0.09673624 0.13313809 0.42732525 0.048205566
0.27312362 0.007091224 -0.18045788 -0.32989454 -0.0046786168 -0.058825105 -0.22856349 -0.54748005
-0.15510386 -0.23272297 -0.04132162 -0.23067534 0.28154147 0.13900544 0.30547222 0.041065082
0.22246408 -0.07194182 -0.15233594 -0.3276225 -0.15137357 -0.074170895 -0.31934434 0.13711038
00000000: 1cfb 9b3c 5cf4 5d3e 1edb 663d 5888 af3b
00000010: 7ceb 663e 8e1a 0cbd 169a 053e 2658 d7bc
00000020: 557a 093d 8f94 66bc f9a9 7bbe d39c babc
00000030: d1bf 2b3d a49c e3bd 58c3 20bd 2662 a7be
00000040: 7e26 3dbd 3248 9ebe 09ea 91bd 0089 0bbe
00000050: d3b8 eb3d 8aa2 513d cc3c 2d3d ca1f 45be
00000060: 5cd1 6c3e 2ea8 a33c 16a4 4f3d bc42 48be
00000070: 5eb8 03be 1c88 9f3c 714a 95be 6ee5 203e
00000080: 4ae3 5a3c 0d02 243d d4e9 143d 726f d8bd
00000090: 0577 fcbd 0eac 2bbd 70cd 323e bd5d 623d
000000a0: 6abd 113e 3f24 0dbc 298c 4fbb a2e9 83bd
000000b0: b961 9d3d 7274 d6bd cefe 913d f453 44be
000000c0: 70b0 1bbe 7b00 d93d 4ac1 be3d 282d 87bd
000000d0: f744 b63d 3b00 cbbd f5ed c03d f2ea 053e
000000e0: e625 7f3d ff1d 923c c6ef 1abe 44dd 9f3d
000000f0: ff0c 6fbd eb84 f83d 0d40 3b3d 3ed4 5fbd
00000100: 2202 26bd 32c6 203e 6e47 d33d 6d3c d43c
00000110: cfb5 41be f3c6 4dbd 94bc 2cbe 46d9 59be
00000120: 313c ad3d eca1 9dbc 494d fe3d cc08 3dbc
00000130: f347 913d 12f9 533e 2d41 9cbc e40b a43d
00000140: e992 4cbd 14cd a6bd 2779 da3c a477 b33c
00000150: 8fe9 dd3d 80bc 50be 363d 9d3e 9e56 a43d
00000160: c082 04be a033 88bc 898a 05bd 4954 cf3d
00000170: 4f9d 5bbd 4f08 a6bd ca37 7cbd 88f0 8cbd
00000180: 0486 d3bd 59b1 a2bd c2f3 5fbd e8a8 273e
00000190: 9e5a 423d e09d 30bd 4d01 4d3c 7854 25be
000001a0: 7321 bc3b dc86 04be 969d 9e3d 31c5 76bb
000001b0: c766 833d a668 cfbc 985e bd3c eb85 7b3d
000001c0: 9cf6 f2bd 7bb4 b0bd c8c6 b73b 1cb4 193e
000001d0: fa87 3a3e 7638 423e 6b05 ed3b 6756 8b3d
000001e0: 9f14 533d ee03 983d c7ee 023e 78f4 63be
000001f0: 869e 21bd b49e 06be 71e6 c93d d501 b43d
00000200: 0cb5 883d a0f5 ad3c 5e85 b9bd 689e be3d
00000210: 172c 84bd 77fc 243e 01ec 1f3e 897f 463d
00000220: 1e21 213e 44f0 32bd 0d82 12be 9cc0 78be
00000230: 2de1 043e 88fb 103e 167c e9bd 67d1 f6bd
00000240: efb6 e93c d374 eabd 0765 a73d b0af 81be
00000250: d009 1b3e 7957 793e 3268 893d ae72 6cbd
00000260: d42a a93d dc2f 783e 7ab9 07bd 65cf e5bb
00000270: 7282 133e 0817 443e 68ac 89be 407a 16be
00000280: 1e1a d03d 0ab0 163e 5f2c 14be 724b 28be
00000290: b605 2abe 1b5e f6bd 8c93 753d 3b21 183e
000002a0: 37d8 453d 19c4 ad3d 28de 26bd 16f3 92bd
000002b0: 04e9 e43d 58df 36bb b59c 413e 7647 1fbe
000002c0: a9a4 1d3c 3f10 40be 0e96 e6ba 54d7 cdbd
000002d0: b29d c4b9 34c1 11bc 2e2c c7bd 32ab 943d
000002e0: b67e 84bb 60b2 26be a36c ac3d d9e4 f3bd
000002f0: facc a33d e990 36be a737 f23d 0470 86bd
00000300: 6292 123e d18f a1bd a968 343e d3b8 cc3d
00000310: 72fd 3cbe 6903 a0bd 2b07 3c3e 8bc3 bdbd
00000320: 649b bb3d 8960 a53d 17a9 943d 29ad c4bd
00000330: 07a2 6a3c 23a0 04be 5d70 c7bd 294d 97bc
00000340: fcf3 063e 5cab 2e3d af0f 0fbe 76b4 eb3c
00000350: e98b f13d ead2 983d 89bd 11be 2cdf e03d
00000360: 0078 a83c d32a 773d 767c 743d 9158 1dbe
00000370: 3adf ac3d 3808 e6bc a5e2 dabd 9130 91bd
00000380: a05f 0e3e 8e56 e53d b4fe 783d 8f07 1c3f
00000390: a61d c63d 5a55 083e 60ca da3e 3373 453d
000003a0: dcd6 8b3e 805d e83b f3c9 38be f0e7 a8be
000003b0: 154f 99bb 98f2 70bd 8c0c 6abe a727 0cbf
000003c0: 8cd3 1ebe ee4e 6ebe dc40 29bd 2836 6cbe
000003d0: 3426 903e 7157 0e3e db66 9c3e dc33 283d
000003e0: a0cd 633e 3c56 93bd f4fd 1bbe 23be a7be
000003f0: ac01 1bbe e9e6 97bd 1a81 a3be aa66 0c3e

fc2.bias f4 [32]
1.5444887 0.73116696 -0.02099498 -0.18923303 1.5706731 -0.065120496 -0.15621474 4.523292
4.8195786 0.074368834 0.009081859 2.13369 -0.23107108 6.816057 -0.24319269 -0.060596563
-0.039347567 0.15629573 0.19868311 6.985445 5.6887302 11.853424 4.840517 0.53773075
12.804493 2.2041051 8.24289 0.07161996 0.11830317 0.008544071 10.158437 0.8724415
00000000: ceb1 c53f c22d 3b3f aafd abbc 4ec6 41be
00000010: d10b c93f e55d 85bd c2f6 1fbe cfbe 9040
00000020: fd39 9a40 b04e 983d 14cc 143c 618e 0840
00000030: e69d 6cbe 241d da40 8107 79be 1a34 78bd
00000040: ea2a 21bd fd0b 203e 9673 4b3e c488 df40
00000050: 140a b640 a0a7 3d41 84e5 9a40 b9a8 093f
00000060: 34df 4c41 0f10 0d40 e1e2 0341 7cad 923d
00000070: ef48 f23d 6efc 0b3c f588 2241 5358 5f3f

fc3.weight f4 [1, 32]
-0.99594474 -0.4040666 0.40268016 0.26112092 -0.989437 -0.124506414 -0.07638347 -2.806223
-2.9503512 0.31146547 -0.09156871 -1.3062558 0.43667743 -4.287385 0.4241751 -0.00754504
0.09161517 0.35918123 -0.55252796 -4.3343105 -3.5571036 -7.315308 -3.0249245 -0.53600776
-7.9310465 -1.3445679 -5.0856266 -0.2670674 -0.103257895 -0.16141105 -6.2825704 -0.7699768
00000000: 3cf6 7ebf d1e1 cebe 182c ce3e a4b1 853e
00000010: be4b 7dbf 38fd febd f06e 9cbd 2899 33c0
00000020: 8ed2 3cc0 6778 9f3e 6088 bbbd 6433 a7bf
00000030: 2f94 df3e 4232 89c0 7b2d d93e 623c f7bb
00000040: bca0 bb3d 9ae6 b73e 7972 0dbf acb2 8ac0
00000050: 96a7 63c0 0117 eac0 5d98 41c0 ce37 09bf
00000060: 22cb fdc0 cd1a acbf 74bd a2c0 0fbd 88be
00000070: e078 d3bd f048 25be d10a c9c0 331d 45bf
