Networks/6-DDPG-with-target-network-Q-network-tau=0.01.pt (torch, 7559 bytes, 5 tensors)

fc1.weight f4 [32, 4]
00000000: 4b99 8d3f bc08 f63f d57d a23f cf42 22bf
00000010: 3968 593f d009 64c0 fa45 50bf 2f71 dfbe
00000020: 8e78 2c40 27e2 1a40 b1e0 6c3f f966 65bd
00000030: 5474 e340 9695 b4bf 1b74 93be 29d2 bc3e
00000040: 8e20 fcbe 9ad1 53bf 0935 9ebd bd59 a13d
00000050: e9ca edbf 8099 3540 59e3 8abe 7db2 c2be
00000060: 0731 0a3e 26b6 79c0 b26c 02bf 1f5b a0be
00000070: 781a a1bf 515f 3340 6117 3ebe 4d6f b4be
00000080: 44a1 71bd e0e7 a6bd 24a0 6cbd 28ff bc3e
00000090: 5bb5 5f3f d90d 4c40 10c2 22c0 b3fc 07bf
000000a0: 7732 8a3f 821f 5140 2a89 503f b112 3d3b
000000b0: 9b93 1d3f 257f 27be e5c1 883f fca1 30bd
000000c0: e828 5fbf 7a81 92bf 528c b23e fa43 903e
000000d0: 30c0 44be ba7a 6e40 ae35 d13e 63fe 2abf
000000e0: 4e81 ca3f 3f93 9540 720d 04bf 6ef0 6ebf
000000f0: c3fa 5dc0 6bb0 4440 40b1 2dc0 e5a7 cdbe
00000100: 582f 3040 712d 6d40 06a3 163f 3dfc 1d3e
00000110: 8acb 36c0 4802 9740 5878 21c0 3335 a8bf
00000120: 813e bf40 f463 95c0 bd39 01c0 00e1 64bf
00000130: 985d 2840 706e 3140 49b4 85bf 70fa abbe
00000140: 672b 383f b4ea ff3f 8ab3 e6bf 62c5 18bf
00000150: 144b 6f40 c38b 1140 fb8a ab3f d5a5 293f
00000160: 1e3d 85c0 84ff 35c0 9789 dabf dac0 523e
00000170: b894 28c0 fcbd e3bf 0638 0d40 41f0 3d3f
00000180: a80b 1c3f 6257 2abe da04 623f 08a2 2abf
00000190: c918 c4bc d16e 8cbe c791 36bf cf86 13bf
000001a0: a338 9ac0 6ecd d93f ea65 ce3f 92c4 72bc
000001b0: 5ac4 ebbe 5457 4e3e 1dc4 1d3c 8853 bd3d
000001c0: c4ae 853f 5a68 0940 af67 d83f 8b65 2e3f
000001d0: ad9a 2c40 11ab abc0 d47b 19bf ecc8 dc3e
000001e0: ab14 e33f 2cc8 07c0 aec9 cb3f 2299 52bd
000001f0: b83a 8c3f 3763 80c0 4ac5 74bf 0e6a 96be
1.1062406 1.9221416 1.2694651 -0.6338319 0.84924656 -3.563099 -0.81356776 -0.4364104
2.694858 2.4200532 0.9253035 -0.056006406 7.10795 -1.410815 -0.2879952 0.3687909
-0.49243587 -0.827417 -0.077249594 0.07878444 -1.8577548 2.837494 -0.27126577 -0.380268
0.13495265 -3.9017425 -0.50947106 -0.3131952 -1.2586203 2.8026927 -0.18563606 -0.35241166
-0.058991686 -0.081496954 -0.05776991 0.3691342 0.873861 3.1883452 -2.5430946 -0.53119963
1.0796651 3.267548 0.81459296 0.0028850252 0.61553353 -0.16357096 1.0684172 -0.04312323
-0.87171793 -1.1445763 0.3487268 0.28176862 -0.19213939 3.7262406 0.40861267 -0.66794413
1.5820711 4.6742244 -0.51583016 -0.93335617 -3.4684303 3.0732677 -2.7139435 -0.40167156
2.7528896 3.7058985 0.58842504 0.15428253 -2.856173 4.7190285 -2.5229702 -1.3141235
5.97638 -4.6684513 -2.019149 -0.8940582 2.6307125 2.7723656 -1.0445644 -0.33589506
0.71941227 1.9993501 -1.8023541 -0.5967618 3.7389574 2.2741554 1.3401788 0.66268665
-4.1637106 -2.8437204 -1.7073239 0.2058138 -2.634077 -1.7792354 2.2065444 0.74194723
0.60955286 -0.16634896 0.8828865 -0.6665349 -0.0239376 -0.27428296 -0.7131619 -0.57627577
-4.8194137 1.7015817 1.6124852 -0.014817374 -0.46048242 0.201505 0.009629277 0.09244448
1.0443959 2.146994 1.6906642 0.6812369 2.6969407 -5.364632 -0.5995457 0.4312204
1.7740682 -2.1215925 1.5920923 -0.05141557 1.095542 -4.012111 -0.9561354 -0.29377788

fc1.bias f4 [32]
00000000: a700 5e3f 0055 243f 8e44 a1bf 1ac3 4d3f
00000010: ff8d d3bf 9076 0140 4f93 403f 9c74 e0be
00000020: d168 65bf 0ce4 e2bf f18a ec3e 6f03 36c0
00000030: d907 3240 0135 b0bf 78a1 acbf 0e77 303d
00000040: 11c5 95bf 1400 8d3f d05a 55c0 a6b2 6340
00000050: 1bb5 e83f a8f3 2bc0 e33a 9440 0b49 7dbf
00000060: 5a00 ad3c 58fc 19bf c109 5240 bb30 2cbf
00000070: 8c94 94bd 3d3c 26bf a17a 9b3f de84 2b3f
0.86719745 0.641922 -1.2599046 0.80375826 -1.6527709 2.0228615 0.75224775 -0.43838966
-0.8961306 -1.7725844 0.46199754 -2.8439596 2.781729 -1.3766176 -1.3486776 0.04308229
-1.1700765 1.1015649 -3.3336678 3.5577788 1.8180269 -2.6867466 4.6321883 -0.9893958
0.021118332 -0.6015067 3.2818453 -0.67261857 -0.072548956 -0.64935666 1.2146798 0.66999614

fc2.weight f4 [32, 32]
00000000: 3660 263e 0a44 663c 3dbd f93c e193 1fbe
00000010: 10ec 8f3d f549 01bd ab6b c8bd b5fe 343e
00000020: 4fd9 1b3d 0b98 d2bd f09a 80bd 482c abbc
00000030: d20b 763d 883b cabc 3c24 d1bd da6f 85bd
00000040: f0e7 ffbd 1ab8 7a3d 191f cb3d 2633 30be
00000050: af64 143d bf54 cb3d dc5f b33c 7ed5 c5bd
00000060: 75fa a03d 0f26 b93d bad5 3e3d d48e fcbc
00000070: 1ff0 69bd 4c08 8fbb 4db3 83bd dd60 88bd
00000080: 7716 fdbe 2db1 203e b5d4 d6bf cd21 093f
00000090: ce6b 453e c17d a23f 519a 883e dd2c 59bf
000000a0: 3637 c3bd 388c 37bf 0f3c 87bf 1253 a3bf
000000b0: f98f 533e caeb 493f 3215 cebf a383 39c0
000000c0: f775 18c0 2772 c03f bb33 09bd 9910 51be
000000d0: f71b 80bf defb 34c0 fb10 9fbd 674e b13f
000000e0: 8e09 0e3f 1949 ecbe 6dea 893e 3e8c f1bd
000000f0: e804 c2bf 6dc7 f93e 0a96 1ebf 7645 b8be
00000100: 2776 2ebe ccd6 e33d 4d32 093e f64a b33d
00000110: b370 fcbd a838 32be 6b44 18be e703 073e
00000120: 1ad1 ad3d 6ae2 263e e43e bf3d 4458 373d
00000130: 32ad 64ba 92aa 09be f136 1bbe 6d4f 29be
00000140: d75b 943d 57a5 b1bd 054c 9bbc ebf5 b0bd
00000150: 81ce b9bc 20ca febd 188e f8bd bf66 5a3d
00000160: ce9e 57bd cb48 de3d ad02 69bd d1c8 04be
00000170: 2681 ffbc 8505 c0bd 333d 5bbd 692b 33be
00000180: abf3 36be f407 00bf 3981 9dbe 7f24 193e
00000190: df91 7e3e 6829 5b3f 1385 bebd 0740 a6bf
000001a0: fcbd da3d 736c 16bf 283b 3ebe 8460 86bf
000001b0: 8bfd 2e3f e160 6f3f ba64 48bf 742b bebf
000001c0: 1344 c0be 7b50 fe3f 5e99 07c0 be04 dc3e
000001d0: a618 22bf 97c8 73bf b5f2 f43e 35d6 403e
000001e0: a09b db3d 4b6a 05bf fbea 81bf 44d1 2cbe
000001f0: 17ef 67bf 18fa 4cbe 03da 89bf 7220 88be
00000200: 57a5 d1be 9141 3d3e 9ff7 dabe 0213 9dbe
00000210: 1877 14bf 6c5c d23e 55a7 c63e f203 803d
00000220: 2f33 8abe fa66 c1be 612b 15bf ef13 c9be
00000230: abb2 88bd 56a5 273f 92e0 f0be 9693 dc3d
00000240: 8f54 01bf 7156 343e 9d94 3f3f 0ab4 37bf
00000250: 81c3 28bf 22f7 4abf 8042 e73e 4ad3 21bf
00000260: 7076 75bd 7e97 a5bd 45c4 833e 4947 783c
00000270: 5913 2f3e fbd2 8c3d ccae 73bf b7bc 42be
00000280: 533b 02be 8867 37bd 01b3 103e d430 1f3e
00000290: fee1 e7bd 0018 1abe 78bc 11be b007 33be
000002a0: 31af 0bbe 5dba 00bd 5d5a 0b3e 6eb6 f63c
000002b0: 698b 0ebe 3011 23be 5c51 cf3d 34f5 0cbe
000002c0: e8ee b43b 99e3 a33d 0975 93bd e89f 0e3d
000002d0: 5594 633c 404e e7bc 81fb bcbd b895 2abe
000002e0: 38a3 16be bd3f c9bd 341c 0f3e f455 bcbd
000002f0: f11b 04be 0fae 093d 2334 f43c 6097 a13d
00000300: e919 b3bf 6667 803d 7b7c 4bc0 627f 043f
00000310: bc91 a63e 5623 bf3f 50c4 92be f253 27be
00000320: 492f 013c 4a96 3b3f 8493 40c0 910a d2bf
00000330: 6346 833f 1002 e43f e0fe 46c0 529e d23d
00000340: 3c08 60c0 04f9 e33f 15d4 0040 f4f2 22bf
00000350: 6d2b 52bf 0b42 71c0 d10b 4bc0 d586 ff3e
00000360: 768c 853e 832f f2bc 6334 6a3f 9510 2bbe
00000370: ff12 77bf 7dbe cfbc 73e5 0fbe 13e6 9c3e
00000380: 3d22 293e f55d 2bbd d290 cf3c 9bae 46bd
00000390: 0c99 3bbd e56e 553e f5d5 88be b960 72bd
000003a0: 78c1 8a3d c4eb a93e 8d31 643e 0827 21be
000003b0: 8bc3 36be 2a19 d03e 7d60 aebc 9b39 303e
000003c0: 6b0c ed3d 87d2 263e e9b0 1f3d 61b4 ec3d
000003d0: 4aa8 35be 314a a4bd 84e9 b0be c455 693d
000003e0: 85d1 f9bb 0f48 21bc c143 ec3e 6ceb c4bd
000003f0: 6d9e 273f eb0c 22be d2ef 10be 43b4 d8be
0.16247639 0.014054308 0.030485744 -0.15583755 0.07027447 -0.03156467 -0.09786161 0.17675288
0.03804904 -0.10282906 -0.06279552 -0.020895138 0.060069866 -0.02468659 -0.10211989 -0.065154746
-0.124954104 0.06121073 0.09918041 -0.17207012 0.03622883 0.099282734 0.021896295 -0.09659861
0.07860271 0.09040462 0.046590544 -0.030829825 -0.057113763 -0.0043650027 -0.06430683 -0.066591
-0.49431202 0.15692587 -1.6783663 0.535672 0.19279405 1.2694627 0.26680234 -0.8483408
-0.09532015 -0.7169833 -1.0565203 -1.2759726 0.2066039 0.7887541 -1.6100218 -2.8986595
-2.3822 1.5034837 -0.0334966 -0.20416488 -1.0008534 -2.8278728 -0.07766911 1.3852051
0.5548333 -0.4614952 0.26936665 -0.11794327 -1.5157747 0.48784962 -0.6194769 -0.35990494
-0.17037259 0.11124954 0.13398094 0.08754532 -0.12326183 -0.17404425 -0.1486985 0.13185082
0.084871486 0.16297308 0.09338167 0.04476191 -0.0008723318 -0.13443974 -0.15157677 -0.16534205
0.072440796 -0.08674114 -0.018957147 -0.08640655 -0.022681477 -0.12440896 -0.12136477 0.053320643
-0.052641682 0.10853728 -0.056887317 -0.1296723 -0.031189512 -0.09376053 -0.05352516 -0.17497028
-0.1786639 -0.50012136 -0.30762652 0.14955328 0.24860333 0.85610056 -0.09302726 -1.298829
0.10680768 -0.5875923 -0.18577254 -1.0498204 0.68355626 0.935072 -0.78278697 -1.4857011
-0.37551937 1.9868311 -2.1187358 0.42972368 -0.6331886 -0.9522795 0.4784142 0.18831713
0.107230425 -0.52115315 -1.0149835 -0.16876704 -0.905992 -0.20017278 -1.0769657 -0.26587254
-0.40946457 0.18482043 -0.42767045 -0.30678564 -0.5799422 0.41086137 0.3879954 0.062507525
-0.26992175 -0.37773877 -0.58269316 -0.3927302 -0.06674703 0.6548666 -0.47046334 0.10770337
-0.5051965 0.176111 0.7483614 -0.7175909 -0.65923315 -0.79283345 0.45167923 -0.63213027
-0.059927404 -0.080855355 0.2573568 0.015153714 0.17097224 0.06876179 -0.95188594 -0.19017301
-0.12717943 -0.04477647 0.14130785 0.1554597 -0.113224015 -0.15048218 -0.14232051 -0.17483401
-0.13641049 -0.03142773 0.1360869 0.030116286 -0.13920368 -0.15924525 0.1012294 -0.13765413
0.005521644 0.08002395 -0.07200057 0.034820467 0.013890346 -0.028235555 -0.09227658 -0.16658676
-0.147107 -0.0982661 0.13975602 -0.09196082 -0.12901284 0.03361326 0.029810017 0.078902006
-1.3992282 0.06269722 -3.1794727 0.5175687 0.32533062 1.4932659 -0.286654 -0.16340616
0.007884809 0.732762 -3.0090036 -1.6409475 1.0255855 1.781313 -3.1093063 0.102841035
-3.5005026 1.7810369 2.0129445 -0.6365197 -0.8209751 -3.769656 -3.1725962 0.49907556
0.26083726 -0.029563671 0.91486186 -0.16705544 -0.9651336 -0.025359387 -0.14052372 0.30644283
0.16516967 -0.04183765 0.02533761 -0.04850636 -0.045800254 0.20843084 -0.26725736 -0.059174273
0.067751825 0.33187687 0.22284527 -0.15737545 -0.17848031 0.406442 -0.021286244 0.17209475
0.11574634 0.16291247 0.038987074 0.11557842 -0.17739978 -0.080219634 -0.34553158 0.056966558
-0.0076238536 -0.00984384 0.46145442 -0.09615216 0.65476114 -0.1582524 -0.14153984 -0.4232503

fc2.bias f4 [32]
00000000: 0d62 f839 e24a 6c40 e9ee e1ba 35a9 2e40
00000010: e35d fb40 e039 da3d 1d19 9640 ef35 5040
00000020: 2aeb 4d3e 1189 6440 64e0 2abe 4d29 9bbe
00000030: 3a2e 82bd bfaa 913f fe02 eebc 8f56 e33f
00000040: d08d 353d 4551 8b3f 5a7d 29be c59e 4540
00000050: 2f1b 8440 6ce5 3fbe 085a f040 f523 0ebc
00000060: 3b62 413f 9cfd fe40 ed88 d53d 0a85 bf3f
00000070: 7e94 993f 433f 2940 0e5d 2640 f90c 9040
0.000473753 3.6920705 -0.0017237338 2.7290776 7.855211 0.1065557 4.6905656 3.2532918
0.20109239 3.5708659 -0.1668716 -0.30304947 -0.06356473 1.1380233 -0.029054161 1.776079
0.044324696 1.0884176 -0.16551724 3.0878155 4.1283183 -0.18739861 7.51099 -0.008675565
0.7554051 7.968458 0.10426507 1.4962475 1.1998441 2.6444862 2.5994296 4.5015836

fc3.weight f4 [1, 32]
00000000: c2c0 fe3d cf31 96c0 3e74 eb3d 7086 72c0
00000010: 01ec 04c0 4e18 3a3e 057b dbc0 612c 84bf
00000020: 1a62 99c0 885f 00c0 55e9 993f d0ce 2a40
00000030: 15d6 05c0 f987 9dbf 82b1 873d bf93 8d3f
00000040: d72c 45c0 4469 b4c0 c459 a23e d575 2bbf
00000050: 680e d8c0 2170 a43e b204 c5bf 96b2 573f
00000060: e385 dbbf eef8 b4bf c420 7c3e 3808 27bf
00000070: 1cb4 c3bf 78d4 c1bf c4f4 13c0 ea40 c0bf
0.124391094 -4.69358 0.11496781 -3.7894554 -2.0769045 0.18173334 -6.858767 -1.0326043
-4.7932253 -2.0058308 1.2024332 2.6688728 -2.0911915 -1.230712 0.06625654 1.1060714
-3.0808618 -5.63785 0.3170911 -0.6697667 -6.7517586 0.32116798 -1.5392058 0.84256876
-1.7150234 -1.4138467 0.24621874 -0.65246916 -1.528934 -1.5142965 -2.3118143 -1.501981
