Networks/6-DDPG-with-target-network-policy-network-tau=0.01.pt (torch, 7471 bytes, 5 tensors)

fc1.weight f4 [32, 3]
000000 13 15 55 3c e6 f2 9a bb 56 66 10 bf d1 2b ce bd
       0.013005513 -0.004728663 -0.5640615 -0.10066951
000010 6b 74 ad bd 63 af ec bd 37 b3 15 3f d5 2b 03 be
       -0.084694706 -0.1155689 0.58476585 -0.1280969
000020 20 c5 e9 3e b8 fe 18 3d f2 e8 ef be e3 7a b9 3e
       0.45658207 0.037352294 -0.4685741 0.36226568
000030 5c cc 64 3f 6f 0f 43 bf 09 89 84 be c4 e5 10 3f
       0.8937433 -0.76195425 -0.258858 0.56600595
000040 a0 b0 04 3f 4f 7c 8f be 8a 89 40 3f 7a 44 1d be
       0.5183201 -0.28024527 0.7520987 -0.15358153
000050 6c 84 3d bf 82 60 14 3d df de 93 3d d2 2e 52 be
       -0.74030185 0.03622485 0.07220244 -0.20525673
000060 15 c3 44 3e 2c 46 0c bf a4 b8 df 3e 2e a4 26 3f
       0.19215043 -0.54794574 0.43695557 0.6509427
000070 0e 7b 1a 3f ff bc 60 3e 70 8d 19 3f 1a c2 56 bf
       0.60344017 0.21947096 0.5998144 -0.83889925
000080 fa e2 37 3c dd 64 e3 3b e7 a7 85 be c1 9b c4 be
       0.011223549 0.006939514 -0.26104662 -0.3840008
000090 73 b7 9e 3e dc de 74 3e a0 57 ee be 9b 7b c5 3e
       0.30999336 0.23913139 -0.46551228 0.38570866
0000a0 63 22 bf 3e e9 cf 24 3f bb f3 cb 3e 5a 5b 16 3f
       0.37330922 0.64379746 0.3983439 0.5873314
0000b0 3b b1 45 bd a4 8f 3d 3e c6 a5 0e 3f 4e 2c 13 bf
       -0.048264723 0.18511826 0.557217 -0.5748948
0000c0 91 ec 37 bf 02 35 1d 3f 75 89 bb 3e 0e dc 92 be
       -0.71845347 0.6140901 0.3662831 -0.28683513
0000d0 78 39 82 3d c6 b7 5b ba 25 a2 08 3e 03 c3 ca be
       0.063586175 -0.00083815714 0.13343103 -0.39601907
0000e0 b0 8c 9b 3e 13 78 dd 3e fd 4f e6 be 41 aa a7 3d
       0.30380774 0.43255672 -0.449829 0.0818677
0000f0 ed ad b9 3d cd 96 81 3d 68 4d 00 3f ef fe b0 3e
       0.09066377 0.06327591 0.5011811 0.345695
000100 71 9c 2d be 4a 46 0c 3f 52 51 67 be 12 b4 2b be
       -0.16954209 0.5479475 -0.22589615 -0.1676791
000110 91 88 ba 3d 37 0e 83 bf ca a9 36 bf dc 33 07 bf
       0.09108079 -1.0238713 -0.7135283 -0.52813506
000120 b5 1c 9b 3d 5b ae 5b 3d bf f9 44 3c 62 60 15 bf
       0.07573835 0.053633075 0.012022435 -0.58350194
000130 8d 82 c3 bd 6e 4e 22 3f d5 87 06 3f 39 e8 07 bf
       -0.09546385 0.63400924 0.52551013 -0.5308872
000140 ab 49 e5 3e 54 40 22 bf 0c f5 04 3f e4 b1 22 3f
       0.44782767 -0.63379407 0.5193641 0.6355269
000150 79 96 e6 3e d4 78 c6 be 3e af 0e 3f 14 65 a1 3e
       0.45036677 -0.3876406 0.5573615 0.3152243
000160 d1 0b c0 3b 05 b0 1e 3f 83 c9 2a be b9 62 9e be
       0.0058607836 0.61987334 -0.16678433 -0.30934694
000170 6b d8 4e be 22 02 a1 3d 5f b9 2e 3e 58 fe 97 3c
       -0.20199744 0.07861735 0.17062901 0.018553898

fc1.bias f4 [32]
000000 11 79 b8 be 53 7b 91 be e3 8d ed 3c cc 6a 0f bf
       -0.36029866 -0.284144 0.02899832 -0.56022334
000010 da 52 02 bf 52 d1 08 3d 5a 0d 1c bf 4d 90 cb 3e
       -0.5090767 0.03340275 -0.6095787 0.3975853
000020 bf c8 ce 3c 42 c6 d8 3d 07 b7 9f be 88 6d e2 be
       0.025242208 0.1058469 -0.31194326 -0.4422419
000030 9b 49 65 3f 41 9c a0 bd 0a 06 b3 bd 14 0a 46 bf
       0.8956544 -0.07842303 -0.08741386 -0.7735913
000040 d7 48 c8 3e 5a f7 0c bf 43 46 93 3e ac 46 79 3e
       0.39118072 -0.5506493 0.28764543 0.24343365
000050 56 88 36 bf c7 e9 2b bf 15 73 d0 be 6f c2 14 3f
       -0.7130178 -0.6715359 -0.407128 0.5810918
000060 25 f3 09 3f 99 f4 ef 3e 06 48 06 3f b0 ed 85 3e
       0.53886634 0.468663 0.5245365 0.26157904
000070 8a db 66 bf b5 65 45 3e e1 a9 84 3e d9 ef 13 3f
       -0.9017874 0.1927708 0.25910857 0.57787853

fc2.weight f4 [32, 32]
000000 5e 9b 56 b8 87 bb 0a 3e a6 ea dd 3d 22 04 03 3e
       -5.1166273e-05 0.13548099 0.10835771 0.12794545
000010 9d a1 33 be d3 0f 15 3e 7a 4f 1a be 2d 49 22 3e
       -0.1754212 0.14556818 -0.1506938 0.15848227
000020 b4 0c f0 bb 24 6c 20 be 54 5c 49 3d 33 62 13 bd
       -0.007325733 -0.15666252 0.049160317 -0.035982322
000030 22 97 22 be bb 40 83 bd f0 4f 95 3c 7e fc 0c 3e
       -0.15877965 -0.06408831 0.018226594 0.13768193
000040 55 9a 5e bd 13 0a d7 3d ab 59 b5 3c bb 41 c3 3b
       -0.0543464 0.104999684 0.022137484 0.0059587634
000050 6e 8c 0a 3d 3b 98 ed bd 84 76 16 be 75 83 63 bd
       0.03382533 -0.11601301 -0.14693648 -0.05554529
000060 00 af 28 be 41 d6 a8 bd 46 3f 05 3c 28 71 ee bd
       -0.16473007 -0.08243991 0.008132761 -0.116426766
000070 15 2c 96 bd 5c 1b 02 bd 12 d5 a6 bc c3 d9 c7 bd
       -0.07332627 -0.031764373 -0.020365272 -0.097583316
000080 2f b6 0f bd 45 09 3c bd e8 1b 05 3e 5a e6 b1 3d
       -0.035085853 -0.045907278 0.12998927 0.08686514
000090 94 5f a2 be 56 87 6a bd d3 48 4e be 19 15 04 bd
       -0.31713545 -0.057257973 -0.20144968 -0.032246683
0000a0 e8 73 83 3d e0 ec d7 3d 06 df 11 be a1 9b 95 3b
       0.06418592 0.10543227 -0.14245233 0.0045656716
0000b0 8c e7 88 3e 97 47 06 3e b5 c2 d6 bd 40 41 66 bd
       0.26739156 0.13113247 -0.10486356 -0.05621457
0000c0 ba d8 78 be 62 0d c7 bc 8b b2 33 bd 92 47 b7 bd
       -0.24301425 -0.024298374 -0.043871444 -0.08949198
0000d0 08 5d 11 3d b0 48 97 3e 10 5c e8 3d 21 49 c0 3e
       0.035489112 0.29547644 0.113456845 0.37555793
0000e0 f6 c9 5a 3e 97 2f 3b be d0 db f5 3b 88 3d 93 3c
       0.21366104 -0.18279873 0.0075030103 0.017973676
0000f0 c2 d4 91 3e ec bd 4b bd b5 dc 38 3e ee 8c 61 bd
       0.28482634 -0.04974167 0.18052943 -0.05506604
000100 31 71 bc 3c 51 a1 e3 bc 17 c0 55 be e3 99 8b be
       0.023003193 -0.027786883 -0.20874058 -0.27265844
000110 43 1f 01 be e9 31 9a 3d 2b 2d a7 3d 1c 6b 22 be
       -0.12609582 0.07529051 0.08162912 -0.15861171
000120 d3 59 2f be d1 b5 9d 3c f0 0b 1d be e2 35 00 3e
       -0.17124109 0.019251736 -0.15336585 0.12520555
000130 a3 e7 15 3e cb 72 b4 3d 5f c3 e0 bd 09 e2 a2 3d
       0.14639144 0.088109575 -0.10974764 0.07953269
000140 4e 6b 7b 3e c2 56 0f 3e 9a 3c 13 be e1 2f 72 be
       0.24552652 0.13997939 -0.14378586 -0.23651077
000150 77 69 4d 3b ae 37 d6 bd ee 49 87 bd f0 7e 9a bd
       0.003134338 -0.10459839 -0.06605898 -0.07543743
000160 33 bf c0 bc 09 ca 35 3e ff 22 e5 bd e2 6c 8a 3e
       -0.02352867 0.17752852 -0.111883156 0.27036196
000170 06 04 35 bd 67 ad 31 3d af f1 6e 3c 21 10 89 3d
       -0.04419329 0.04337826 0.014583989 0.066925295
000180 83 b8 32 3e 15 ca 16 be 87 e8 6e 3c 9a fa e1 bd
       0.17453198 -0.14725526 0.014581806 -0.110341266
000190 d7 73 89 3e ee 5a 73 3c ea e6 e1 3d 77 48 08 bd
       0.2684619 0.014853222 0.110303715 -0.033272233
0001a0 03 9f 99 3d d8 4b 4b be 69 f7 85 3d 09 a4 ca bc
       0.07501032 -0.19853151 0.0654133 -0.024736421
0001b0 88 23 aa bd fa 7d e1 bc 12 56 eb 3d 98 53 f4 3d
       -0.08307558 -0.02752589 0.11491026 0.11930007
0001c0 ea 38 b3 3e 59 44 97 bd c5 91 9e bd 26 63 58 bd
       0.3500436 -0.07386083 -0.07742647 -0.05282893
0001d0 7a bb 57 be cc 1c 7b be 5f 71 2e be 18 37 9d be
       -0.2106761 -0.24522704 -0.17035435 -0.30706096
0001e0 15 4f bd 3d 0a 3c 44 3e e6 56 62 3e cb e7 96 3e
       0.09243599 0.19163528 0.22103462 0.2947372
0001f0 05 c3 36 be 63 a5 fd bb cd ad 28 be 7f e4 fc 3d
       -0.17847832 -0.007740663 -0.1647255 0.1234827
000200 1c c9 e6 bd 7e e0 d7 3d ce e7 61 bc 7f 02 df bc
       -0.11268827 0.10540865 -0.013788177 -0.02722287
000210 6c c5 9b 3e 90 5b 9f bd f6 6d b8 3e 19 13 d3 3c
       0.30424058 -0.07781136 0.36021394 0.025765942
000220 b0 f9 d3 3d f8 9d 8c bd a6 2c a9 3e 52 4d 26 3e
       0.103503585 -0.06866068 0.33041877 0.16240433
000230 63 74 95 bc fa f0 32 3d c4 0d 5b bd 39 93 83 3e
       -0.018243974 0.043686844 -0.053479925 0.2569826
000240 e7 d0 63 3e 54 d6 d9 3d 6f ac 4b 3e 6c 64 a9 3d
       0.22247659 0.10636583 0.19889997 0.08271107
000250 04 ed 17 be 9e b4 05 be d5 c4 13 3d 38 b8 66 be
       -0.14836508 -0.13057181 0.036076386 -0.22531211
000260 1f a2 21 bd 60 75 5d 3e 5d f9 37 3e e5 9b 17 3d
       -0.03946125 0.21626806 0.17966218 0.037013907
000270 56 0e 33 be 44 1f 51 bd 60 31 4a be be 6d 1f 3d
       -0.17485937 -0.051055208 -0.19745398 0.038923018
000280 df 22 2e 3d db f6 4f bd 8c 6a d7 bd 5c 30 55 be
       0.042513724 -0.05077253 -0.10518369 -0.20819229
000290 0f e7 19 3f 87 32 a2 3d 8f 3a 0d 3f 10 47 8a bd
       0.6011819 0.079197936 0.5516748 -0.06751835
0002a0 d5 da 59 3d 12 c2 a1 bd d7 d9 da 3e c0 43 80 bd
       0.05318721 -0.07898344 0.42744324 -0.06262922
0002b0 20 28 99 be 1a cf 2d be fe 5d 01 bd 85 6b a5 3e
       -0.29913425 -0.16973534 -0.03158378 0.32308593
0002c0 7a 62 d9 3e e5 9a 0f 3e 73 d9 ee 3d a3 35 f8 3c
       0.42457944 0.14023931 0.11662569 0.030299013
0002d0 28 0e 85 be 47 4a 9c be de 53 05 be dd 14 e0 be
       -0.25987363 -0.3052542 -0.13020274 -0.43765917
0002e0 9a 0d f2 3d 82 24 ab 3e d5 d0 f3 3d a4 5b 94 3e
       0.118190005 0.3342629 0.11905066 0.28976166
0002f0 34 67 a7 be 37 06 74 bc 8e 85 e2 bd 32 9e f4 3c
       -0.32695925 -0.01489406 -0.1106063 0.02986059
000300 87 15 06 3c 6e 76 b7 3c 6f d4 86 3d a0 af 5b bd
       0.008183843 0.022395339 0.06583487 -0.053634286
000310 ff e1 d7 bd e1 d3 2a 3d 37 78 ab bc 7e 03 a4 bd
       -0.10541152 0.04170597 -0.020931346 -0.080084786
000320 f8 0a 98 3d 90 22 d2 3a c3 a7 d2 bc ce 41 af bd
       0.07423967 0.0016032029 -0.02571476 -0.08557473
000330 1f 87 be bc df ec 19 be 78 b8 24 3d 11 db 2d 3b
       -0.02325779 -0.15031765 0.040214986 0.0026528279
000340 c1 b2 db 3d 14 04 3b 3c 01 91 67 3c 83 3f 45 3d
       0.10727454 0.0114145465 0.014133693 0.048156273
000350 92 be 09 3e 8b 15 ab bd 92 23 d8 3d dc 14 31 3d
       0.13451603 -0.08353718 0.105536595 0.043232784
000360 a6 85 f1 bd 3d 1d 7c 3d 70 20 d9 bd f8 ec 63 bd
       -0.117930695 0.06155132 -0.1060189 -0.055645913
000370 93 92 ac bd cf 4c f6 bd cf 90 0e 3e 82 cc 21 be
       -0.08426394 -0.12026369 0.13922428 -0.1580067
000380 a8 92 cb 3d c2 25 1e be d3 2f ad bc 01 91 1e 3d
       0.09940082 -0.15444091 -0.021140968 0.038712505
000390 24 27 18 3e 7e 80 b2 bd f9 03 74 3d 32 bc f8 3c
       0.14858681 -0.08715914 0.0595741 0.030363176
0003a0 ec f0 e1 3d 45 25 1c bc f6 6e 5d 3d 99 47 b8 bd
       0.1103228 -0.00953037 0.0540609 -0.08998031
0003b0 70 28 fb bd 48 c1 18 3e 7d 7a 1f be 53 c6 5c bd
       -0.12263572 0.14917481 -0.1557407 -0.053900074
0003c0 d7 95 5a bd e5 03 31 3e 89 45 38 bd f5 ed 0a be
       -0.053365555 0.17286642 -0.04498819 -0.13567336
0003d0 f9 02 46 bc 6d 1c ff 3d 31 50 98 3d a5 da 3f 3e
       -0.01208567 0.12456594 0.0743717 0.1873575
0003e0 cb 5b 8b bd 7c e4 59 3d 87 1e 39 be 06 84 51 3d
       -0.068046175 0.053196415 -0.18078052 0.051151298
0003f0 5d 6d 0c 3e 48 4a cc 3d 39 5b a5 bd ea 88 b1 bd
       0.13713594 0.099751055 -0.0807404 -0.086686924

fc2.bias f4 [32]
000000 a6 ca d5 bd 73 a7 9e 3c 9c 59 4c 3e 50 f0 17 3e
       -0.10439043 0.019366955 0.19956058 0.14837766
000010 ce a8 59 bd 5a b0 1f 3e 13 e9 e0 bd 91 1d 47 be
       -0.0531395 0.15594617 -0.109819554 -0.19444872
000020 79 32 92 3c ef d4 0b be 03 79 47 3e 82 a0 1a 3e
       0.017846333 -0.13655446 0.19479756 0.15100291
000030 4d af 89 bd 5a 64 02 be 12 9f a3 3d 61 03 41 be
       -0.06722889 -0.12733594 0.07989325 -0.18848945
000040 95 c8 35 3e f0 83 76 bd b8 51 40 3e 26 8d 1b be
       0.17752297 -0.06018442 0.18781173 -0.15190563
000050 e0 66 f9 bd 90 54 b2 bb a7 1d 15 3e e2 a9 d0 3d
       -0.12177825 -0.0054422095 0.14562093 0.101886526
000060 e7 72 1d 3e ad cc bc bc ae 22 01 bd 83 2a 8b 3d
       0.15375863 -0.023046816 -0.031527214 0.06795218
000070 57 32 28 bd b1 2c 3e 3d 34 5f 60 bd a2 99 14 be
       -0.041063633 0.04642934 -0.054778293 -0.14511731

fc3.weight f4 [1, 32]
000000 6d 17 f8 3d 4e bc 41 bf 28 88 0e 3f db f8 3c 3f
       0.12113843 -0.75677955 0.5567651 0.73817223
000010 6f 64 3f 3f 9a f2 ae 3f c5 5c c9 bd 76 97 87 be
       0.74762625 1.3667786 -0.098321475 -0.26482743
000020 04 4c e3 3d 6e 51 eb bd cd db 00 c0 54 a2 33 3f
       0.11098483 -0.11490141 -2.0134156 0.7016957
000030 15 c7 68 be 85 6d 46 3d cd 6d 90 3e 95 e0 8c be
       -0.22732194 0.04844429 0.2820877 -0.27515092
000040 97 d1 51 be a7 e7 2b bd ec 78 8b 3f 83 c3 ea 3d
       -0.20490108 -0.041968968 1.0896277 0.11463072
000050 e0 9b e9 3c 80 b3 97 be 51 5c a5 be 2b eb 26 3f
       0.02851671 -0.29629135 -0.32296994 0.6520259
000060 ff a4 0f 3e e5 18 c8 3d da 96 0b be 5f 2f 89 3e
       0.14027785 0.09770373 -0.13631764 0.26793954
000070 8e 6e 8a bc 1a 3d a8 3e 0e 25 19 3e d6 bb 9e 3c
       -0.01689842 0.32859117 0.14955541 0.019376677
