Networks/6-DDPG-with-target-network-policy-network-tau=0.5.pt (torch, 7463 bytes, 5 tensors)

fc1.weight f4 [32, 3]
-0.19115676 -0.5147424 0.34441546 -0.5709405 -0.07711652 0.19116955 0.37711546 0.25054055
0.32083327 0.5208439 -0.3732517 -0.47146717 0.1906316 0.47775427 -0.5433719 0.01750688
-0.016624194 0.16780885 -0.40959916 -0.49979496 -0.40774494 -0.36205634 -0.6665516 -0.431523
0.33837447 -0.47290727 0.02383984 -0.85451186 -0.61209977 -0.42085734 0.18566659 -0.08327907
0.34978917 0.10052081 0.80183417 -0.22173071 0.52634 0.35326812 -0.7470811 -0.32706228
0.28311354 -0.27840263 -0.117269814 0.38561633 0.31468934 -0.44915712 0.14672701 -0.18863316
0.21303637 0.0978473 0.3849911 -0.770689 0.73940325 0.087261654 -0.43962434 0.108065024
0.37441352 -0.4590964 0.28004897 0.050003022 -0.49711552 0.17636439 -0.29049394 -0.6054252
-0.29881713 0.4069729 0.9173839 0.7651576 0.6470918 -0.368107 -0.16360514 -0.4245349
0.54532415 0.93899065 -0.25772926 0.37788638 -0.7451655 -0.42321685 -0.20292552 0.02456038
-0.50525963 -0.5022041 -0.0640502 -0.25092772 0.4150944 0.48391566 0.3181522 -0.34053728
0.111683734 -0.0013968358 0.3514202 0.8613463 0.18658097 0.21470302 -0.55600744 -0.5751668
00000000: 99be 43be 28c6 03bf 3957 b03e 2829 12bf
00000010: 44ef 9dbd f3c1 433e 4715 c13e da46 803e
00000020: 4244 a43e 0756 053f d91a bfbe 2564 f1be
00000030: ee34 433e 359c f43e 6c1a 0bbf 976a 8f3c
00000040: 762f 88bc 15d6 2b3e fbb6 d1be 20e5 ffbe
00000050: f2c3 d0be 735f b9be 20a3 2abf 95f0 dcbe
00000060: 6b3f ad3e e720 f2be c54b c33c 4ac1 5abf
00000070: 92b2 1cbf 9d7a d7be 621f 3e3e 388e aabd
00000080: 9117 b33e dbdd cd3d 0145 4d3f 600d 63be
00000090: 38be 063f 8fdf b43e b540 3fbf b574 a7be
000000a0: 42f4 903e ca8a 8ebe 282b f0bd 816f c53e
000000b0: f61e a13e ecf7 e5be 9b3f 163e 0d29 41be
000000c0: 3526 5a3e 2a64 c83d 8e1d c53e e04b 45bf
000000d0: 8849 3d3f 3db6 b23d 7116 e1be 3251 dd3d
000000e0: 21b3 bf3e af0e ebbe 9462 8f3e f8cf 4c3d
000000f0: ed85 febe de98 343e 9fbb 94be 25fd 1abf
00000100: 8ffe 98be c05e d03e acd9 6a3f 5ee1 433f
00000110: cfa7 253f 8578 bcbe 1b88 27be a35c d9be
00000120: 5d9a 0b3f b161 703f 17f5 83be 537a c13e
00000130: 2bc3 3ebf e1af d8be b5cb 4fbe da32 c93c
00000140: b258 01bf 7390 00bf c02c 83bd 9979 80be
00000150: 4187 d43e cbc3 f73e d8e4 a23e e75a aebe
00000160: 71ba e43d 0816 b7ba 59ed b33e 3181 5c3f
00000170: 150f 3f3e 1cdb 5b3e 8156 0ebf 223e 13bf

fc1.bias f4 [32]
0.32517603 0.12680264 -0.02891385 -0.410597 -0.6677641 0.2120659 0.020464327 0.08047578
0.50057256 0.7326712 -0.016885215 -0.2663548 -0.04182572 -0.44241068 -0.44980258 -0.2544519
0.5830508 -0.087822415 -0.40775764 0.28811988 -0.19477941 0.48367295 -0.6953004 -0.050669745
-0.57292 -0.20881727 -0.26218638 0.5236938 0.6339804 0.07273941 0.117778085 0.3252229
00000000: 797d a63e 8dd8 013e bddc ecbc c539 d2be
00000010: 97f2 2abf ce27 593e cea4 a73c 7cd0 a43d
00000020: 8625 003f 5790 3b3f dd52 8abc a85f 88be
00000030: 7251 2bbd a783 e2be 864c e6be 8547 82be
00000040: d142 153f 3ddc b3bd 9cc5 d0be 7384 933e
00000050: 4174 47be fba3 f73e 35ff 31bf 148b 4fbd
00000060: e3aa 12bf 32d4 55be 4b3d 86be cc10 063f
00000070: 8a4c 223f 66f8 943d a335 f13d 9e83 a63e

fc2.weight f4 [32, 32]
0.1216862 -0.09165137 0.082001254 0.21345685 0.22689107 0.123509705 -0.016822785 -0.18054909
0.040362813 0.0253906 0.122419335 0.08947279 0.07334516 -0.15031777 -0.06798653 -0.13886394
0.11570324 -0.1503766 -0.15392853 -0.18047479 -0.1319437 0.16133043 -0.14130072 -0.10514694
-0.25109273 0.08937647 0.13523969 0.06978839 -0.1868737 0.04414127 -0.21673998 0.24676576
-0.010778161 0.09872094 -0.14761521 -0.18186496 0.07080713 0.07726601 0.19958085 -0.09145926
0.033981282 0.116428815 0.06990497 -0.07738917 -0.045594648 -0.08187996 -0.115624405 0.018327031
-0.15458865 0.004631986 0.01897123 0.09254399 -0.101965286 -0.056999978 0.12470242 -0.1454804
0.16143951 -0.026399279 0.13205928 0.22091706 -0.17556413 0.12323388 0.08074641 0.13647413
-0.040499855 -0.1492 0.026010012 0.07747854 -0.13431667 -0.10412 -0.11705675 -0.05340172
-0.09651335 -0.15262796 0.11424417 -0.14164235 0.14577547 0.050284572 -0.1653241 -0.15611993
-0.10910228 -0.08534239 -0.12798364 -0.10321896 -0.088606276 0.046286095 -0.035330657 0.024502695
0.13750994 -0.029596249 0.025517715 -0.13713053 0.0127959065 0.15476872 0.049753074 0.07991808
-0.011704511 0.0070836144 -0.12767617 0.080143474 -0.13975969 -0.08661611 -0.09133435 -0.15833095
-0.10238915 -0.031375457 -0.092592046 -0.04926994 -0.17936695 -0.092132084 -0.0092599 -0.022457149
0.19902818 -0.0956885 -0.12744367 0.052348223 0.11428502 0.18842383 -0.16559982 -0.10189456
0.090556525 -0.024122933 0.107253134 -0.1305965 0.05337095 0.12873274 0.13493258 -0.0016291193
0.09223132 0.07674189 0.117011234 -0.07316459 -0.10147206 -0.034789726 0.1040296 -0.162778
0.009321509 -0.10027018 0.10727778 -0.10014812 -0.065927595 0.094423056 -0.0974856 -0.000642099
0.1402304 0.1512282 -0.0065120677 -0.023531048 -0.16473798 0.08304777 -0.2519669 0.043063663
-0.05073553 0.16990183 -0.082549386 0.15843497 -0.031282175 0.16193244 0.12940764 -0.07052264
0.04915866 0.027312888 -0.06973762 0.17774312 0.004753294 0.10488944 0.105346315 0.025329366
0.23013552 -0.052953947 0.16576329 -0.18911052 0.017948598 0.023647064 0.06536064 0.07631729
-0.02951179 -0.045565158 -0.14843674 -0.11267926 0.18021996 0.026678948 -0.21073224 -0.10107515
-0.14360519 0.021484176 0.12251224 -0.23416646 0.081515 0.014151697 -0.21440896 0.18833837
0.1478043 0.12860489 0.122967914 0.07360431 0.043053333 0.113782145 0.13893706 -0.1606889
-0.018774962 0.05101319 -0.025306134 0.060313445 0.17746039 0.18223044 -0.00026073895 0.03457991
-0.12914717 0.20719604 -0.11739103 -0.010701195 -0.10274034 -0.07477976 -0.0984245 0.017119747
-0.09548979 0.11339577 0.04180961 0.10970956 -0.0643259 -0.065687984 -0.05343592 0.103138536
0.14663641 -0.057763707 0.13124278 -0.15950908 -0.16955385 0.15626842 -0.10509056 0.12823363
-0.113316305 0.13673759 -0.15948002 -0.036885027 0.011616196 0.055921327 0.013533241 0.028143292
-0.15285386 0.12810099 -0.0065310136 0.1765044 -0.070806906 -0.13923267 -0.024527175 -0.17358018
-0.024797836 0.0051855887 -0.15733257 0.045820292 -0.038693924 0.073310845 0.14900479 0.087691724
00000000: 9d36 f93d b7b3 bbbd 46f0 a73d 6f94 5a3e
00000010: 2256 683e a8f2 fc3d f0cf 89bc dce1 38be
00000020: 7a53 253d f3ff cf3c fdb6 fa3d 833d b73d
00000030: fd35 963d e7ec 19be 863c 8bbd 5932 0ebe
00000040: d2f5 ec3d 53fc 19be 719f 1dbe 62ce 38be
00000050: 401c 07be ce33 253e 23b1 10be 4757 d7bd
00000060: 3a8f 80be 030b b73d 467c 0a3e 37ed 8e3d
00000070: d25b 3fbe 7acd 343d 16f1 5dbe 2ab0 7c3e
00000080: e296 30bc 342e ca3d 7128 17be cf3a 3abe
00000090: 5403 913d a43d 9e3d ec5e 4c3e fe4e bbbd
000000a0: f52f 0b3d 3b72 ee3d 562a 8f3d 377e 9ebd
000000b0: 74c1 3abd aeb0 a7bd 7dcc ecbd 9222 963c
000000c0: 7d4c 1ebe eac7 973b 8e69 9b3c b487 bd3d
000000d0: 2dd3 d0bd cf78 69bd fb63 ff3d d0f8 14be
000000e0: 6650 253e 4d43 d8bc 8c3a 073e 1538 623e
000000f0: 15c7 33be 0b62 fc3d 605e a53d e0bf 0b3e
00000100: 2de3 25bd e3c7 18be f312 d53c 12ad 9e3d
00000110: 4f8a 09be de3c d5bd 73bb efbd c3bb 5abd
00000120: cba8 c5bd 814a 1cbe d9f8 e93d b10a 11be
00000130: 2a46 153e 32f7 4d3d b94a 29be e7dd 1fbe
00000140: 0471 dfbd fec7 aebd 250e 03be 7664 d3bd
00000150: 3577 b5bd 7d96 3d3d e1b6 10bd e0b9 c83c
00000160: 68cf 0c3e d573 f2bc 870a d13c f26b 0cbe
00000170: eca5 513c b17b 1e3e e1c9 4b3d 17ac a33d
00000180: 47c4 3fbc aa1d e83b 8bbd 02be 4322 a43d
00000190: 2a1d 0fbe c963 b1bd 810d bbbd 8221 22be
000001a0: 67b1 d1bd 8d83 00bd e6a0 bdbd 47cf 49bd
000001b0: f8ab 37be bfaf bcbd d6b6 17bc 0ef8 b7bc
000001c0: 0bce 4b3e 55f8 c3bd 9880 02be 176b 563d
000001d0: 440e ea3d 2df2 403e 0093 29be 18ae d0bd
000001e0: b375 b93d 759d c5bc 88a7 db3d 17bb 05be
000001f0: 7f9b 5a3d 84d2 033e c42b 0a3e 2c88 d5ba
00000200: c6e3 bc3d da2a 9d3d 96a3 ef3d 51d7 95bd
00000210: 95d0 cfbd ac7f 0ebd 790d d53d 47af 26be
00000220: 3eb9 183c 745a cdbd 74b4 db3d 751a cdbd
00000230: 0c05 87bd e060 c13d 88a6 c7bd 8952 28ba
00000240: 8f98 0f3e 91db 1a3e 2f63 d5bb 2fc4 c0bc
00000250: 13b1 28be f314 aa3d ce01 81be 8663 303d
00000260: 0fd0 4fbd bffa 2d3e a70f a9bd c73c 223e
00000270: bd21 00bd 9ed1 253e 7083 043e 2d6e 90bd
00000280: 975a 493d 47bf df3c 99d2 8ebd 4b02 363e
00000290: 85c1 9b3b 46d0 d63d cfbf d73d 887f cf3c
000002a0: a5a8 6b3e 3de6 58bd dabd 293e 30a6 41be
000002b0: f008 933c 7db7 c13c cddb 853d 3d4c 9c3d
000002c0: b6c2 f1bc 88a2 3abd cdff 17be 62c4 e6bd
000002d0: 958b 383e cf8d da3c 31ca 57be 7d00 cfbd
000002e0: 3d0d 13be 95ff af3c b3e7 fa3d 55c9 6fbe
000002f0: 56f1 a63d 85dc 673c 068e 5bbe c6db 403e
00000300: 035a 173e 00b1 033e 9ad6 fb3d dbbd 963d
00000310: b158 303d 9d06 e93d 8445 0e3e a28b 24be
00000320: f3cd 99bc 35f3 503d cf4e cfbc 3b0b 773d
00000330: 2db8 353e 9e9a 3a3e cab3 88b9 aaa3 0d3d
00000340: 283f 04be 332b 543e b56a f0bd 1154 2fbc
00000350: 8769 d2bd 2126 99bd c992 c9bd b63e 8c3c
00000360: 2790 c3bd 0b3c e83d 8e40 2b3d 68af e03d
00000370: 4cbd 83bd 6c87 86bd a0df 5abd 4c3a d33d
00000380: db27 163e a399 6cbd 8264 063e 5956 23be
00000390: 869f 2dbe d404 203e b839 d7bd ad4f 033e
000003a0: 6112 e8bd f004 0c3e bb4e 23be c114 17bd
000003b0: db51 3e3c c30d 653d 87ba 5d3c c38c e63c
000003c0: b985 1cbe e82c 033e 1d02 d6bb 92bd 343e
000003d0: 3603 91bd 0293 0ebe 37ed c8bc 01bf 31be
000003e0: d524 cbbc dfeb a93b ca1b 21be 0fae 3b3d
000003f0: 857d 1ebd ff23 963d b694 183e b897 b33d

fc2.bias f4 [32]
-0.07888894 0.28085962 -0.15206765 0.06128824 0.007852264 0.030142114 0.026658997 -0.17408389
0.041919917 -0.063436985 0.04982049 0.1947052 -0.11103429 0.048709005 0.24684714 0.09324029
0.40845335 -0.13952577 0.025595844 0.018949231 0.39357033 -0.0021331543 -0.035710238 -0.00430328
-0.11161551 -0.17414434 0.21911757 -0.091183245 0.13526094 0.0897354 0.2098874 -0.027734762
00000000: 8690 a1bd d5cc 8f3e 9fb7 1bbe 6109 7b3d
00000010: c8a6 003c 98ec f63c f863 da3c 0c43 32be
00000020: 38b4 2b3d 40eb 81bd 9210 4c3d cd60 473e
00000030: f265 e3bd 1883 473d 7fc5 7c3e c4f4 be3d
00000040: cc20 d13e d8df 0ebe 60ae d13c 6b3b 9b3c
00000050: 0d82 c93e 64cc 0bbb e644 12bd 8702 8dbb
00000060: ac96 e4bd e552 32be 5b60 603e 48be babd
00000070: d881 0a3e 32c7 b73d b9ec 563e 0334 e3bc

fc3.weight f4 [1, 32]
0.40282282 -0.37352076 -0.16285603 0.17802688 0.2950739 0.47089714 0.19978112 -0.010210563
-1.4070812 -0.15982968 -0.39350748 0.5284962 0.14886478 0.087767206 1.3721085 0.053451233
1.0299764 -0.0794673 -0.22367074 -0.9175236 0.8721344 0.22416359 -0.7339436 0.30158153
0.40835768 -0.0011713995 -0.32600868 -1.1250138 -0.61810386 0.26898822 0.28893292 -0.08923229
00000000: cb3e ce3e 1d3e bfbe bbc3 26be ae4c 363e
00000010: ed13 973e 6e19 f13e 6c93 4c3e 354a 27bc
00000020: 3d1b b4bf 64aa 23be d079 c9be 874b 073f
00000030: 0270 183e 4bbf b33d 40a1 af3f aeef 5a3d
00000040: 44d6 833f c0bf a2bd f109 65be d4e2 6abf
00000050: 3344 5f3f 248b 653e bae3 3bbf e568 9a3e
00000060: 4214 d13e a589 99ba 9cea a6be 7400 90bf
00000070: 0e3c 1ebf d3b8 893e 04ef 933e 6bbf b6bd
