Networks/6-DDPG-with-target-network-target-Q-network-tau=0.5.pt (torch, 7607 bytes, 5 tensors)

fc1.weight f4 [32, 4]
000000 9e 4d ab 3f 1b fe 88 c0 80 fe 8a bf 98 07 9c be
       1.3383062 -4.2810187 -1.0858917 -0.30474544
000010 70 67 36 c0 5a 21 a2 3e ec a2 75 3f ba fb b0 3e
       -2.8500633 0.3166607 0.95951724 0.34567052
000020 8c 94 80 bf 58 d2 8a c0 a0 f4 77 bf ac 7b e0 be
       -1.0045333 -4.3381767 -0.96857643 -0.43844354
000030 b8 af 63 3d 4f a9 05 c0 7c df ea 3f bc 33 28 3f
       0.0555875 -2.0884588 1.8349452 0.6570394
000040 36 8c c4 3f dc 89 16 3f 52 80 0d be c2 a9 07 3e
       1.5355289 0.58804107 -0.13818482 0.13248351
000050 4b 9c 24 bf 4a 97 41 c0 98 9b 1b bf 44 d9 8a be
       -0.64300984 -3.024859 -0.6078429 -0.27118886
000060 08 c1 e2 3e fa 6c 22 bf a8 d7 c4 bd 30 ba a7 3d
       0.44287896 -0.63447535 -0.09611446 0.08189809
000070 12 76 61 40 b0 c8 da bf a3 52 b0 bf db dc 89 be
       3.5228314 -1.7092495 -1.3775219 -0.26926312
000080 9b bf 1f c0 d4 b3 20 c0 8d 1b 10 bf 16 a5 3f be
       -2.4960697 -2.5109758 -0.5629204 -0.18715319
000090 a2 15 9c c0 ed f2 44 c0 41 a3 95 bf 6d 63 81 be
       -4.8776407 -3.077327 -1.1690446 -0.25271168
0000a0 71 fc 23 bf b6 17 df 40 e9 8b b4 3f dc 89 ec 3e
       -0.6405707 6.9716444 1.4105197 0.46198928
0000b0 6d 9a cd 3e 80 d1 82 3f 18 fb 14 c0 66 28 d1 be
       0.4015688 1.0220184 -2.3278255 -0.40851134
0000c0 b2 ab 6b 40 76 af db bf 15 72 72 be 7e e7 2a 3e
       3.6823545 -1.7162921 -0.23676331 0.1668987
0000d0 19 0e 45 c0 b8 2e be bf c8 27 80 bf 68 c4 bd be
       -3.0789855 -1.4858007 -1.001214 -0.3706391
0000e0 b0 81 bd bf 62 cf 5a bf c8 49 88 bf 34 d0 8f be
       -1.4805202 -0.8547269 -1.0647516 -0.28088534
0000f0 1c c7 96 bf 06 3b a5 40 f8 1d 93 3f 62 22 9a 3e
       -1.1779513 5.163455 1.1493521 0.30104357
000100 59 c9 d3 3f da 0d 6f 3f 7c 3f 92 3e 90 3b be bd
       1.6545821 0.9338051 0.2856406 -0.092887044
000110 a6 c2 c9 bf ca 0a e6 be 7e 57 1b bf 1b ad a2 be
       -1.5762527 -0.44930106 -0.6068038 -0.31772694
000120 1a 31 dd be e8 2c a9 bf 90 63 c7 3e 75 3b 83 3f
       -0.43201524 -1.3216829 0.38943148 1.025252
000130 ee 01 25 c0 36 f0 99 c0 fa d6 52 bf 02 7c 5a be
       -2.5782428 -4.8105726 -0.8235928 -0.21336368
000140 c1 3c ab bf a1 3d 93 40 26 9c 6b 3f ec 0f 2a 3e
       -1.3377916 4.601273 0.9203514 0.16607636
000150 4a 80 7f c0 6b 5b 6c 40 1b 06 88 3f db 7c 6f bd
       -3.9922051 3.6930797 1.0626863 -0.05846868
000160 e4 b7 fc 3f 64 0b 34 40 02 86 86 bf d4 e7 96 3e
       1.9743619 2.8131952 -1.0509646 0.29473746
000170 74 0c 06 c0 88 0a ac 3f 06 3a df be 8a 3c a2 3c
       -2.09451 1.3440714 -0.43598956 0.019804258
000180 65 ff 00 c0 ce 06 d9 3e be 1c 9a 3f 3d c6 66 3e
       -2.015588 0.42388004 1.2040021 0.2253656
000190 62 6c 17 3f ef 89 43 3f f5 74 80 bf da a7 3a be
       0.59149754 0.76382345 -1.0035692 -0.18228093
0001a0 b6 54 af bf 82 dc fb c0 97 7c d8 bf 78 2f ef be
       -1.3697727 -7.8706675 -1.6913022 -0.46715903
0001b0 8a 13 58 3c b6 c9 a6 bf ba c2 ac 3f 4e e2 40 be
       0.013188252 -1.3030307 1.3496926 -0.18836328
0001c0 54 c8 29 40 52 88 ae 3f 2c 14 b2 be 2e b7 ad 3b
       2.652852 1.3635352 -0.34781015 0.0053013777
0001d0 94 fe 06 3e 66 4c 5a 3e 2e 70 94 3d b4 16 d0 bd
       0.13183051 0.21318206 0.07247959 -0.1016058
0001e0 35 98 03 40 cc 64 a3 be d0 79 27 3e 7e b0 06 3f
       2.056165 -0.3191284 0.16355062 0.52613056
0001f0 02 8a 42 40 b7 4a ae 3f fc c6 59 3f fe d1 0b bc
       3.0396733 1.3616551 0.8506925 -0.008533953

fc1.bias f4 [32]
000000 dc 21 12 c0 c0 70 82 40 76 ca e1 be 19 74 ab 3e
       -2.2833166 4.0762634 -0.44099778 0.33487013
000010 94 77 a2 bf 08 6b 24 bf 90 43 90 40 fc a9 24 3f
       -1.2692742 -0.64225817 4.5082474 0.64321876
000020 15 a5 d4 3c 1c bb 2a 40 35 fa 9b bf c6 36 72 3f
       0.025957623 2.6676702 -1.2185732 0.9461483
000030 9e 0b f9 be 5b fb 46 40 0a fb 92 bf 40 df 88 bf
       -0.48641676 3.1090915 -1.1482861 -1.069313
000040 36 7c cf be 46 7a 1e 40 1e a9 45 40 f2 3e db be
       -0.40524453 2.476213 3.088447 -0.4282146
000050 3f 30 d0 bd 0e 91 1f 40 3e c9 c3 3f 42 14 33 3f
       -0.10165452 2.4932284 1.5295789 0.69952786
000060 6c 64 7c 40 46 3b 0f c0 cb 18 60 bf a1 76 06 bf
       3.9436293 -2.2379928 -0.8753783 -0.52524763
000070 a0 5c b4 3e 3a b2 a8 be 38 64 09 3d ae f2 e6 be
       0.35226917 -0.32948476 0.03354284 -0.45107025

fc2.weight f4 [32, 32]
000000 4e b9 54 3e bd 98 a9 3e 60 bf e9 3e d9 bf 5c be
       0.20773813 0.33124343 0.4565382 -0.21557559
000010 b0 f5 87 3e 42 fc 33 3e 76 11 04 be 00 bb 12 bd
       0.26554632 0.17576697 -0.12897286 -0.03582287
000020 e6 2b 92 3e 27 ba b6 3d fb 8a 27 3c 32 36 1b be
       0.28549117 0.089222245 0.010226007 -0.15157393
000030 96 28 0d be 14 2b 39 3e 36 ac 1a 3e 72 97 0c bc
       -0.13785014 0.18082839 0.15104756 -0.008581029
000040 f5 5e 48 bd b8 a6 6d 3e 1e a4 1e be 46 a1 b5 3d
       -0.048918683 0.2320813 -0.15492293 0.08868651
000050 92 1b 3d 3e c1 c7 50 3e d0 d7 f0 3d a0 81 04 3c
       0.18467548 0.203887 0.11759913 0.008087546
000060 48 83 a9 bd 9a 76 0b 3b f4 dd 0a be 2c 25 32 be
       -0.08276993 0.002128041 -0.13561231 -0.17396992
000070 c5 1e 02 3d 27 ae aa 3c 0a 8f 66 3c e3 8a ef 3d
       0.031767625 0.020834995 0.014072189 0.116964124
000080 f7 ee 8d 3e f6 17 84 be 5a e9 6a bd 8e ae a9 be
       0.27721378 -0.2579953 -0.057351448 -0.33140987
000090 92 fd 5d 3e 6a ed e0 bd 84 c3 66 3e 0a 36 6c bd
       0.2167876 -0.10982783 0.22535521 -0.057668723
0000a0 4a 8f c5 3d 64 bb 9d 3c 86 02 15 3e 08 c2 64 bd
       0.09646471 0.019254394 0.14551744 -0.055849105
0000b0 76 ab 96 39 81 86 b9 bc 3c dc 7b bd 0a 6e 88 be
       0.00028737978 -0.022647144 -0.06148933 -0.26646453
0000c0 22 ab 8d 3e f6 1d 91 3c 7d b2 77 be 25 d1 28 3d
       0.27669626 0.017714482 -0.24189182 0.04121508
0000d0 3d 77 91 bb 7d 37 e8 3d 98 e2 1d 3e 48 e1 df 3c
       -0.004439263 0.113387085 0.1541847 0.027329102
0000e0 c1 66 69 be c0 cc 16 3d 18 4c 18 3e 32 7c 7d be
       -0.22793104 0.03681636 0.14872777 -0.24754408
0000f0 15 f9 21 3e ab 2f 6e bd 4a 2b 56 3e bd 1c 00 3e
       0.15817674 -0.05815093 0.20914951 0.12510963
000100 dc ff 77 3e 92 ce cd 3e ac 13 c5 bf 5d 51 17 bf
       0.24218696 0.40196663 -1.5396628 -0.59108526
000110 bb cc 16 3d 8c f5 83 bf 34 ff 90 be 53 b7 c5 bd
       0.03681634 -1.030931 -0.28319705 -0.09654107
000120 2f 68 91 bc a8 00 2d 3e d2 8d 90 3e cd a1 17 bf
       -0.017749874 0.16894782 0.282332 -0.59231263
000130 ad 96 a0 3d 90 62 c3 3e 2e e6 b1 be b7 cb f6 3e
       0.07841239 0.38161135 -0.34745926 0.48202297
000140 6e 50 fa 3c 44 d2 f3 3e 3a 7f 8b be 5e 17 37 3d
       0.03055593 0.47621357 -0.27245504 0.04470002
000150 78 05 ec 3e 51 9e 81 3e af 64 af be 76 71 ae 3e
       0.46097922 0.25316098 -0.34256503 0.3407094
000160 94 fa 8a 3e 27 8a 37 be 7c 22 fc 3d 1f 3f 34 3c
       0.271443 -0.17923795 0.12311265 0.011001377
000170 b0 f6 e1 3e 1b 5d a8 3d aa 52 9d 3d 71 e4 91 3e
       0.4413352 0.082208835 0.076817825 0.284946
000180 c2 f8 b6 3e 76 fb d6 3d c8 9d 3a be a8 2f 16 bd
       0.35736662 0.10497181 -0.18224251 -0.036666542
000190 90 21 37 3d 33 b4 93 be 07 1f 12 bd f8 db 0b bb
       0.044709742 -0.2884842 -0.03567412 -0.0021340828
0001a0 c9 e3 6b 3d 1c 9e 31 3e ce 9e 14 3f 16 b1 02 3c
       0.05759028 0.1734547 0.58054817 0.007976791
0001b0 b2 b5 a9 3e 4b 43 32 3e f6 b1 af 3c 6f 33 87 be
       0.33146435 0.17408483 0.021447163 -0.26406428
0001c0 a6 9c 10 bd 9e 37 6a 3e 8c d5 08 be e4 71 6e 3e
       -0.03530564 0.22872779 -0.13362712 0.23285633
0001d0 7e eb 46 3e e0 d6 0e 3e 42 81 2b be aa 49 40 3e
       0.1942577 0.13949156 -0.16748527 0.187781
0001e0 ea 26 c5 3d a4 91 5c bc 1c 66 01 3f c4 39 eb 3d
       0.09626563 -0.013462458 0.5054643 0.11485627
0001f0 36 a9 6d 3e a6 c0 b0 3d f5 d0 37 3e 46 93 92 3d
       0.2320908 0.08630495 0.17950805 0.071569964
000200 20 61 c5 3e 26 12 2d bf cc 2c 03 3f f3 e8 3c bf
       0.38550663 -0.6760582 0.5124023 -0.7379295
000210 36 b1 4e be 8c 18 98 3e 5c f5 fb be ba 8d ce be
       -0.20184788 0.29706228 -0.49210632 -0.40342504
000220 28 d7 0b be d4 a6 2e 3e 1c fc ed 3f 32 42 2d 3f
       -0.13656294 0.17055827 1.8592563 0.6767913
000230 f7 3f 88 be 40 c4 b4 be 48 fd 22 3f 3f 00 ab bd
       -0.266113 -0.35305977 0.63667727 -0.08349656
000240 0d c7 f3 bd 95 e3 02 bf c6 50 71 bf 30 78 1c be
       -0.119032 -0.5112851 -0.94263875 -0.15280223
000250 11 6d 2c 3f 92 7c 1b 3f 99 60 24 3f 66 69 84 3e
       0.6735392 0.60736954 0.64209896 0.25861663
000260 48 c6 c7 be 00 95 73 3e da 50 3a 3e d1 68 c7 be
       -0.39018464 0.23787308 0.18194905 -0.38947156
000270 86 d6 68 3d 52 46 bf 3d 88 85 3a be fe e1 12 3e
       0.05684521 0.093395844 -0.18215 0.14344022
000280 f2 ae 3d bd fe 89 01 be da d6 11 be ea 51 18 be
       -0.04630942 -0.12650296 -0.14242116 -0.14874998
000290 38 79 09 3e 27 e5 12 3d 70 4b b0 3d c2 87 d8 bd
       0.13425148 0.035863068 0.086081386 -0.10572769
0002a0 cc 60 df bd 4c d3 ce bd 86 48 c4 bd 1c 48 39 bc
       -0.109071344 -0.100988954 -0.09584145 -0.011308696
0002b0 83 fe ea 3d 7d b3 34 be a6 b0 ef 3c 7c 10 31 be
       0.114743255 -0.17646594 0.029259037 -0.17291445
0002c0 40 1d e7 3c e0 51 0d be 2a 63 0d be 04 6c 2b 3e
       0.02821219 -0.13800764 -0.1380736 0.16740423
0002d0 4c 07 1d 3e 90 48 f0 3c b4 97 dc bd 90 1c 36 3d
       0.15334815 0.029331475 -0.107711226 0.044460833
0002e0 6c 33 94 bd 54 ad ce bd 18 e9 95 bd 7a 0a 2a bd
       -0.072363704 -0.100916535 -0.0731985 -0.041513897
0002f0 18 28 d4 3c ec 6e 10 bd 52 dd 13 be 6c 57 bb 3d
       0.025898024 -0.035262033 -0.14439896 0.09147534
000300 42 2a 4c 3e 0e 74 68 bb 13 a9 3b bc aa da 6c bf
       0.19937995 -0.0035469565 -0.011453885 -0.92521155
000310 5a ff da bd a4 9e a5 3e 3a d0 2c bf c6 27 a7 bf
       -0.10693236 0.32347596 -0.6750523 -1.3059013
000320 9e ab b7 3e 5e ca dd 3e e6 96 c9 3f fa 05 7a be
       0.3587312 0.43318456 1.5749176 -0.24416342
000330 9c 08 bb be d5 1a 26 3e 0c d7 e0 3d 00 e4 ea bf
       -0.36530006 0.16221173 0.10978517 -1.835083
000340 7c 4a 73 3e 42 50 62 be 0a 0a 71 bf 62 ab ee 3d
       0.23758882 -0.22100928 -0.94155943 0.116537824
000350 05 c9 68 3f de 9e 86 3f 5f 8e 1f 3f 84 a7 16 3e
       0.9093173 1.0517232 0.62326616 0.1471234
000360 5e d5 af bf 06 5b 47 bf 0a 94 25 be 5a c0 8e be
       -1.373699 -0.77873266 -0.16169754 -0.27881128
000370 ba 4e 01 bf 3c d5 e6 3d 76 32 13 3e 89 85 88 3c
       -0.5051075 0.1127114 0.14374718 0.016665237
000380 68 8f 78 3f 6c a5 28 3f 93 90 ed be 40 15 a8 3c
       0.9709382 0.65877414 -0.46399364 0.020517945
000390 bb 33 bf 3e 1c e8 a1 be ac 58 82 be b4 77 04 be
       0.37344155 -0.31622398 -0.25458276 -0.12936288
0003a0 58 20 d5 3e da 1f 36 3f ee f6 a5 3f a4 9f 9c be
       0.4162624 0.7114235 1.2965982 -0.30590546
0003b0 f9 70 1a 3f 76 b5 72 3e 30 b4 01 bf 0b 6b 50 bf
       0.6032863 0.23702034 -0.5066557 -0.81413335
0003c0 a0 fd 04 3f b2 c5 cf 3e 16 46 66 be e4 af 66 3f
       0.519495 0.40580517 -0.22487673 0.9011214
0003d0 23 78 49 3f 76 80 36 3f 18 6e 87 bc e3 2a 42 3e
       0.7869894 0.71289766 -0.016531989 0.18961672
0003e0 a8 b1 49 bd e1 d0 d4 3e ac de be 3f 6e 40 a5 3d
       -0.04924169 0.41565612 1.4911704 0.080689296
0003f0 36 ab 6d 3e 52 f4 67 bd c4 47 c4 3e f1 37 a8 3e
       0.23209843 -0.056629486 0.38336003 0.3285518

fc2.bias f4 [32]
000000 aa 56 04 3e 56 76 3e 3e 32 6e 2c bb a8 da 24 3f
       0.12923685 0.18599829 -0.0026310799 0.6439614
000010 0a a8 05 be 96 23 1f bd ab 0b c9 be 50 39 ec 3f
       -0.13052383 -0.038852297 -0.39266714 1.845499
000020 ca 13 ae bd 9a 18 15 3e 30 9f ab 3f a6 06 d0 bd
       -0.08499868 0.14560166 1.3407955 -0.10157518
000030 d1 e9 fc 3e 46 0a 61 3d d8 f0 2d bd c2 8f 01 3d
       0.49397138 0.05494144 -0.042466015 0.03163124
000040 44 d4 dc bd d7 0a 56 3e 38 33 71 3f e0 a3 21 be
       -0.10782674 0.20902573 0.9421878 -0.1578517
000050 a0 cb 91 3d c3 41 8b 3f 4a b4 2a 3e 98 89 e1 be
       0.071189165 1.0879444 0.16670337 -0.44050288
000060 d6 95 28 be f2 ed 1e bd f8 24 ce bd be ad 21 3d
       -0.16463408 -0.03880114 -0.10065645 0.039472334
000070 cc 4f 39 40 82 8f 16 40 56 f7 2e bc 60 1e 6b 3d
       2.8954954 2.352509 -0.010679087 0.057402015

fc3.weight f4 [1, 32]
000000 94 6e 14 bf 30 55 07 bf b6 1c 03 c0 12 be 19 bf
       -0.5798123 -0.5286436 -2.0486274 -0.6005565
000010 e6 65 2c 40 b0 43 68 3d 3a c9 5a 40 f7 d1 f4 bf
       2.6937194 0.056705177 3.418532 -1.9126576
000020 d8 9e 29 3e 6e 44 df bf be f5 ae bf 76 d3 4a 40
       0.165645 -1.7442758 -1.3668745 3.1691566
000030 e4 ea 96 be d1 aa c8 be ca 2b 44 40 16 de c5 3f
       -0.29476082 -0.39192823 3.0651727 1.54584
000040 98 08 95 bf 6f 1d 35 c0 5c b2 ec bf 9c 09 72 bf
       -1.1643248 -2.8299215 -1.8491931 -0.9454591
000050 e2 77 5d 40 38 ad 8c bf 00 f9 85 c0 86 ff 91 40
       3.460442 -1.0990362 -4.1866455 4.562442
000060 5b 4a 38 40 ba c2 c3 bf fa 59 b1 be a4 02 3a 40
       2.8795383 -1.5293801 -0.3463896 2.9064112
000070 4c 66 6a c0 c5 fe 42 c0 6a 7b e5 40 5a 09 2b c0
       -3.6624937 -3.0468 7.171315 -2.6724458
