Networks/6-DDPG-with-target-network-policy-network-tau=0.8.pt (torch, 7463 bytes, 5 tensors)

fc1.weight f4 [32, 3]
0.64727426 -0.8472525 -0.18032508 -0.44112086 -0.0064900373 -0.038947474 -0.63831174 -0.72337353
-0.11384251 0.4967031 -0.19184707 -0.55199564 0.5773337 0.9215201 0.21952671 -0.02496706
-0.5492601 -0.53546214 0.6771859 -0.014705368 0.5620066 -0.07538617 -0.4686754 0.014046533
0.40162534 -0.3795175 0.38256648 -0.65764105 -0.7214539 -0.43120125 -0.40388128 0.70566726
0.1542353 -0.19718581 0.27882966 0.28044564 -0.43409342 0.8111702 0.16531053 0.3678016
-0.40000665 -0.32585907 0.06813672 -0.021725444 0.36349484 0.12264876 0.2121867 0.20216092
0.054928973 0.062408388 0.47497705 0.488719 -0.5404869 0.21079731 -0.26905787 -0.07057168
-0.5171356 0.46387917 -0.16058756 0.41101557 0.15325463 -0.100074165 -0.20295905 0.06721671
-0.29517072 0.34901014 -0.37590185 -0.26390302 0.06305815 0.5945073 -0.07887729 0.008354079
-0.0042129043 -0.5930018 -0.09703141 1.0924194 -0.88363713 -0.44147128 -0.41364822 -0.34185982
0.0034393773 -0.7227643 0.0056601455 0.69327796 0.07490495 -0.6441739 0.49780568 0.63676196
0.003775017 -0.5488443 0.22642899 -0.5122381 -0.11340388 -0.6086965 0.5017905 0.011254997
00000000: c4b3 253f 8ae5 58bf 23a7 38be 98da e1be
00000010: 61aa d4bb 6387 1fbd 6668 23bf 022f 39bf
00000020: 4326 e9bd de4f fe3e 8f73 44be 964f 0dbf
00000030: 24cc 133f bee8 6b3f 9ccb 603e b887 ccbc
00000040: 4f9c 0cbf 0c14 09bf 0e5c 2d3f c9ee 70bc
00000050: aadf 0f3f 1064 9abd 39f6 efbe 6e23 663c
00000060: d6a1 cd3e 1e50 c2be c1df c33e 2a5b 28bf
00000070: 34b1 38bf 69c6 dcbe 87c9 cebe 9ca6 343f
00000080: dcef 1d3e 14eb 49be c3c2 8e3e 9296 8f3e
00000090: 7e41 debe daa8 4f3f 2a47 293e 7e50 bc3e
000000a0: accd ccbe 00d7 a6be 448b 8b3d 8ff9 b1bc
000000b0: ff1b ba3e 462f fb3d 7847 593e 4603 4f3e
000000c0: 34fd 603d f09f 7f3d 3130 f33e 6039 fa3e
000000d0: 595d 0abf 40db 573e f4c1 89be e387 90bd
000000e0: 0063 04bf 9281 ed3e 1171 24be a270 d23e
000000f0: c8ee 1c3e aff3 ccbd 7fd4 4fbe eaa8 893d
00000100: 9e20 97be 75b1 b23e 3576 c0be 4c1e 87be
00000110: a224 813d a131 183f 6b8a a1bd 8cdf 083c
00000120: 670c 8abb f7ce 17bf 67b8 c6bd 66d4 8b3f
00000130: 0b36 62bf 8608 e2be b3c9 d3be 4008 afbe
00000140: 2d67 613b 1507 39bf be78 b93b aa7a 313f
00000150: c467 993d 95e8 24bf 63e0 fe3e d502 233f
00000160: 4766 773b 0f81 0cbf 00dd 673e 0922 03bf
00000170: 4b40 e8bd 89d3 1bbf 5875 003f e166 383c

fc1.bias f4 [32]
-0.28432575 -0.45196068 0.18746051 0.21518219 -0.033193406 -0.2817099 0.32498518 -0.5802023
0.5454279 0.6711228 0.18857163 0.13451762 0.17998993 -0.04228305 0.59387743 -0.11692974
-0.49630377 0.058546536 0.8089363 -0.36018094 0.2844012 0.46037456 -0.42793193 0.25322643
-0.22323492 -0.6888906 -0.20572302 0.33406582 -0.39319703 -0.40864927 0.5414116 0.83762926
00000000: 2593 91be 6467 e7be a6f5 3f3e b858 5c3e
00000010: cff5 07bd 483c 90be 7564 a63e 2388 14bf
00000020: 2aa1 0b3f b4ce 2b3f ec18 413e fdbe 093e
00000030: 484f 383e fe30 2dbd 5a08 183f dc78 efbd
00000040: 871b febe 7ece 6f3d 7316 4f3f a369 b8be
00000050: 099d 913e 37b6 eb3e e519 dbbe e5a6 813e
00000060: b297 64be 225b 30bf 0ea9 52be ad0a ab3e
00000070: 1f51 c9be 7a3a d1be f399 0a3f df6e 563f

fc2.weight f4 [32, 32]
-0.06500839 -0.10005795 0.24852897 0.009264589 -0.02899237 0.19017272 -0.101246975 -0.026651805
-0.03749893 0.17894487 -0.052076794 0.027624616 -0.07379822 -0.13825469 -0.12643631 -0.11706063
0.13071367 0.079557896 0.32934865 -0.13202268 0.05659734 0.04384668 -0.07136686 0.12332188
0.029587643 -0.18893546 0.1339243 -0.11501429 -0.105556905 -0.21782668 0.101475835 0.07257853
-0.13390261 -0.12876515 0.052337073 0.16799481 -0.11746665 -0.17849419 0.0008905999 0.11348288
0.064349584 -0.18291442 -0.047722396 0.016189773 -0.16776703 -0.1916332 0.010469446 -0.06970188
-0.1541661 0.05934948 0.12211442 -0.021299733 0.16174047 0.13884671 -0.0039932244 0.03867846
-0.15730798 0.050281554 0.02411295 -0.14861007 0.030771175 0.0150026865 -0.16411664 0.13140348
0.0996471 0.06532167 0.04437404 -0.1289562 -0.13396159 -0.16578925 -0.08304247 -0.12481709
-0.09961455 0.06142338 0.08086433 0.04039417 -0.0075440845 -0.09959402 -0.0026597653 -0.09861958
-0.048696775 -0.13816243 -0.01700478 0.019226212 0.03300651 -0.032166097 0.08863092 0.16803445
-0.05761177 -0.15151764 -0.07983959 -0.12174198 0.09651794 -0.10473873 0.03245489 0.08657388
-0.034210037 -0.0749606 0.1393853 -0.013901811 -0.0046795043 -0.12480471 0.014851405 0.07170372
-0.12347446 -0.10393676 0.12230405 0.05866938 0.37042424 -0.19299524 -0.020365627 0.0470215
0.08384441 -0.24985772 -0.13265395 -0.16116095 -0.015445966 0.077784285 -0.0146398 0.038715348
-0.11379808 -0.13925587 0.15173328 0.30888236 -0.33910188 0.017517263 -0.23562711 0.4525564
-0.2447118 0.0063695936 0.22767352 -0.040046614 0.43884444 0.07236954 0.18819913 -0.096995726
-0.019522008 0.52245146 -0.27659032 -0.20543721 -0.30349582 -0.07230347 -0.17690927 -0.09396342
0.20101061 0.0018447428 0.287963 0.16815928 -0.010100713 -0.067612156 0.08034441 0.11491231
0.036552884 -0.44106123 -0.14924133 -0.19082426 0.29475853 -0.31885016 0.030532334 -0.07267441
-0.23870337 -0.14559597 0.17803146 0.12483429 0.08102926 -0.02847045 0.14148377 0.0009689735
-0.029987324 0.24910842 -0.18894495 -0.03691731 -0.099644676 0.022853825 -0.21222687 0.07765947
0.06634939 0.037490293 0.17391078 0.17437445 -0.08758649 -0.048633147 0.017031217 -0.011688933
-0.08363852 -0.24136792 0.11243816 -0.092607886 0.13907959 -0.11682526 -0.08122113 -0.089704365
0.07384015 0.11063958 0.19432497 -0.11375508 0.1591325 -0.067801066 0.053297747 -0.06827591
-0.039548974 0.111936405 0.14778213 -0.028810592 0.04191958 -0.0014426194 0.1344276 -0.031176962
0.037795175 -0.058856443 -0.13200416 -0.070359156 -0.06864581 0.13463563 0.022007294 -0.17172918
-0.100004345 0.10129472 -0.14269724 0.06478558 0.04764393 -0.1057754 -0.22735073 0.12204685
0.027677098 0.16102628 -0.026383584 0.17249478 -0.28316435 -0.057412036 0.10312232 0.1615954
0.071082 -0.13616347 -0.049811784 -0.046612903 0.1494179 0.18310098 -0.06434339 0.039905664
0.030755522 0.07353613 -0.023971729 -0.025220847 0.19945218 0.01970986 -0.11715885 0.18460299
-0.030163309 0.42485082 -0.047939096 -0.05846853 0.012679429 0.15610197 0.0052992767 -0.26164776
00000000: 1e23 85bd 2feb ccbd 617e 7e3e 81ca 173c
00000010: 6881 edbc a3bc 423e 935a cfbd e354 dabc
00000020: 7a98 19bd 533d 373e 7a4e 55bd 054d e23c
00000030: 8523 97bd a392 0dbe 8578 01be 7cbd efbd
00000040: ced9 053e 40ef a23d 63a0 a83e f430 07be
00000050: 9dd2 673d 9498 333d ca28 92bd 2f90 fc3d
00000060: c961 f23c 4c78 41be 7423 093e 9d8c ebbd
00000070: 382e d8bd f50d 5fbe 90d2 cf3d 0da4 943d
00000080: c41d 09be 03db 03be 665f 563d d506 2c3e
00000090: 5b92 f0bd 2ec7 36be 2677 693a b669 e83d
000000a0: b7c9 833d eb4d 3bbe 8f78 43bd 6aa0 843c
000000b0: 1fcb 2bbe 7e3b 44be 0a88 2b3c dcbf 8ebd
000000c0: b8dd 1dbe 7118 733d 2017 fa3d c77c aebc
000000d0: 4b9f 253e d52d 0e3e 98d9 82bb 4e6d 1e3d
000000e0: 5815 21be 08f4 4d3d 8588 c53c 3d2d 18be
000000f0: d513 fc3c d4cd 753c 310e 28be a28e 063e
00000100: c713 cc3d 5ec7 853d 8ec1 353d 180d 04be
00000110: 3a2d 09be a8c4 29be 2c12 aabd 1aa0 ffbd
00000120: b702 ccbd 1597 7b3d 339c a53d 5b74 253d
00000130: 5e34 f7bb f3f7 cbbd 754f 2ebb 10f9 c9bd
00000140: 4576 47bd 747a 0dbe 9c4d 8bbc 4a80 9d3c
00000150: d631 073d 99c0 03bd 2184 b53d 3911 2c3e
00000160: 52fa 6bbd 7127 1bbe f082 a3bd dc53 f9bd
00000170: 33ab c53d 4281 d6bd 6bef 043d a54d b13d
00000180: d31f 0cbd f184 99bd 05bb 0e3e 6cc4 63bc
00000190: 8756 99bb 9d99 ffbd 4f53 733c 66d9 923d
000001a0: 2de0 fcbd ccdc d4bd 8c7a fa3d 4e4f 703d
000001b0: 3fa8 bd3e 8ba0 45be d1d5 a6bc 9e99 403d
000001c0: 9eb6 ab3d b4da 7fbe 70d6 07be 6007 25be
000001d0: 1411 7dbc 5e4d 9f3d c6db 6fbc fc93 1e3d
000001e0: f80e e9bd 1799 0ebe f85f 1b3e d425 9e3e
000001f0: c39e adbe 5d80 8f3c 3c48 71be 79b5 e73e
00000200: bb95 7abe 06b8 d03b 3f23 693e eb07 24bd
00000210: 38b0 e03e 7b36 943d 46b7 403e b2a5 c6bd
00000220: 9eec 9fbc 61bf 053f 3f9d 8dbe 225e 52be
00000230: ce63 9bbe d713 94bd b427 35be e56f c0bd
00000240: bad5 4d3e 4ccb f13a e36f 933e f231 2c3e
00000250: 767d 25bc 3e78 8abd 9c8b a43d 2557 eb3d
00000260: 7ab8 153d c7d2 e1be b8d2 18be 6f67 43be
00000270: 97ea 963e 5440 a3be f21e fa3c 52d6 94bd
00000280: a86e 74be 1c17 15be e14d 363e 1fa9 ff3d
00000290: abf2 a53d dc3a e9bc 1fe1 103e b602 7e3a
000002a0: faa7 f5bc 4716 7f3e c97a 41be 9b36 17bd
000002b0: 8212 ccbd f237 bb3c 0052 59be ee0b 9f3d
000002c0: 30e2 873d 6c8f 193d ab15 323e 378f 323e
000002d0: 8c60 b3bd 8d33 47bd 0d85 8b3c f082 3fbc
000002e0: ac4a abbd 2729 77be fa45 e63d 34a9 bdbd
000002f0: e16a 0e3e 1542 efbd 4457 a6bd ecb6 b7bd
00000300: 8139 973d 0197 e23d 20fd 463e 6cf8 e8bd
00000310: a1f3 223e 49db 8abd bd4e 5a3d 3ed4 8bbd
00000320: 1bfe 21bd ea3e e53d 3354 173e 3104 ecbc
00000330: deb3 2b3d 4616 bdba 64a7 093e d466 ffbc
00000340: 1dcf 1a3d 7413 71bd 192c 07be 7618 90bd
00000350: 2d96 8cbd ecdd 093e a448 b43c c6d9 2fbe
00000360: 14cf ccbd 9b73 cf3d 3a1f 12be 4dae 843d
00000370: 4826 433d c6a0 d8bd a1ce 68be b3f3 f93d
00000380: 15bb e23c 13e4 243e 6322 d8bc 79a2 303e
00000390: ebfa 90be e228 6bbd cb31 d33d 4479 253e
000003a0: 7193 913d 706e 0bbe 7107 4cbd 2ced 3ebd
000003b0: 0201 193e d37e 3b3e 78c6 83bd 1f74 233d
000003c0: 01f3 fb3c 1c9a 963d 5c60 c4bc f39b cebc
000003d0: 313d 4c3e 9376 a13c fbf0 efbd 9108 3d3e
000003e0: 0b19 f7bc 0c86 d93e c95b 44bd b37c 6fbd
000003f0: 61bd 4f3c 32d9 1f3e 8ea5 ad3b b2f6 85be

fc2.bias f4 [32]
0.3884338 -0.06477663 -0.011399963 0.2757737 0.056286246 0.19414447 0.09054199 -0.1643417
0.13931441 0.06113859 -0.03537599 -0.007077936 -0.043655455 0.1969563 0.28488216 -0.037375007
-0.21647723 -0.13858351 0.04371832 -0.032826442 0.0034436227 -0.030919585 -0.108011395 -0.02316388
0.21227288 0.18903601 -0.20447448 -0.1412327 -0.08414893 -0.063254245 0.05605244 -0.03534985
00000000: cce0 c63e 9ca9 84bd e9c6 3abc 3632 8d3e
00000010: 688c 663d cfcd 463e 146e b93d 3149 28be
00000020: 70a8 0e3e 756c 7a3d 6ae6 10bd 08ee e7bb
00000030: 10d0 32bd eaae 493e 13dc 913e 8916 19bd
00000040: 35ac 5dbe d6e8 0dbe fb11 333d 0575 06bd
00000050: 67ae 613b 124b fdbc 1435 ddbd 2dc2 bdbc
00000060: 105e 593e a892 413e c261 51be 4e9f 10be
00000070: 4656 acbd 718b 81bd 3e97 653d 01cb 10bd

fc3.weight f4 [1, 32]
-0.6285328 -0.16300008 -0.093892984 0.8296923 -1.1090587 -0.5721318 0.30216098 0.6057705
-0.062941246 0.22761568 -0.005506295 0.05131749 -0.11975393 -0.20585544 0.6963875 0.17164041
0.73148096 1.4469321 0.115024075 -0.43897605 0.47606066 -0.03406043 1.022974 -0.1290753
-1.2096083 -0.6630366 -0.38520142 -0.60396945 0.17382428 0.032394323 -0.39274165 -0.4452798
00000000: 87e7 20bf 7ee9 26be f74a c0bd b766 543f
00000010: a3f5 8dbf 3b77 12bf d8b4 9a3e c713 1b3f
00000020: 57e7 80bd 1614 693e 266e b4bb 4a32 523d
00000030: 8c41 f5bd c5cb 52be 7446 323f 81c2 2f3e
00000040: 5642 3b3f 1235 b93f be91 eb3d 78c1 e0be
00000050: 39be f33e f382 0bbd d0f0 823f 512c 04be
00000060: 72d4 9abf c4bc 29bf 1f39 c5be be9d 1abf
00000070: fefe 313e e9af 043d 6f15 c9be b7fb e3be
