Networks/6-DDPG-with-target-network-Q-network-tau=0.8.pt (torch, 7551 bytes, 5 tensors)

fc1.weight f4 [32, 4]
0	0xbfa3f2fc	-1.2808528
1	0xbf8063b5	-1.0030428
2	0x3dbc56e6	0.09196262
3	0x3eea5189	0.4576533
4	0x3f02c427	0.51080555
5	0x3f4d0f62	0.801016
6	0xbdf80a91	-0.121113904
7	0xbf18d6dc	-0.5970285
8	0xc00978b6	-2.1479926
9	0x3e5da4d5	0.2164491
10	0x3e6c4504	0.23073202
11	0x3e48974b	0.19588964
12	0x3f876b7a	1.0579674
13	0x3e8934ee	0.26798195
14	0x3f1a1def	0.60201925
15	0xbf19d47f	-0.6008987
16	0x4025b184	2.5889597
17	0x3f123fd8	0.5712867
18	0xbebc9d53	-0.3683878
19	0xbe723c67	-0.23655854
20	0xbd873c81	-0.06603337
21	0x3f43abe3	0.76434153
22	0xbf7ba734	-0.98302007
23	0xbd85694c	-0.065142244
24	0x3fc06913	1.5032066
25	0x3fdc985e	1.7233999
26	0xc048f1ba	-3.1397538
27	0xbf6bf8c8	-0.92176485
28	0x3f664a2c	0.8995693
29	0x3efcb5f0	0.49357557
30	0xbe946550	-0.28983545
31	0x3ebdd96a	0.37079936
32	0x3ff20a3f	1.8909377
33	0xbfd6fa58	-1.6795149
34	0xc02f10ae	-2.735393
35	0xbf9591a0	-1.1685066
36	0xbef7b620	-0.48381138
37	0x40691a24	3.6422205
38	0xc007f196	-2.1241202
39	0xbe5f1349	-0.217847
40	0x3f682ecb	0.906964
41	0xbe23b8c8	-0.15988457
42	0xbf4b4ee4	-0.7941725
43	0xbecebce6	-0.40378493
44	0x3fc9f451	1.5777684
45	0x3dcb020a	0.09912498
46	0xbec0eb1b	-0.3767937
47	0xbe56d512	-0.20979717
48	0x3e6f4cc7	0.23369132
49	0xc013fc46	-2.3122725
50	0x3f94ff54	1.164042
51	0x3f9be0d7	1.2177991
52	0x4064b043	3.5732582
53	0x3da54404	0.080696136
54	0xbf91b6c8	-1.1383905
55	0xbe838982	-0.25690848
56	0x4085999e	4.175002
57	0x3fc28218	1.5195951
58	0x3fc236cb	1.5172971
59	0x3ecc1fbb	0.39867958
60	0xc06cb629	-3.6986182
61	0xc06735c0	-3.6126556
62	0x4029117e	2.6416926
63	0x3fa44642	1.2833941
64	0xbdf7b1fa	-0.12094493
65	0xbfa158dd	-1.2605244
66	0xbedcc721	-0.43120673
67	0x3e819c0f	0.25314376
68	0xbfc09207	-1.5044564
69	0xc0a9bc6b	-5.3042502
70	0xbed4fbf5	-0.41598478
71	0x3dddbc28	0.108269036
72	0xbfd9cdb3	-1.70159
73	0xbff92e4b	-1.9467252
74	0xc07b3c54	-3.9255571
75	0xbf30ad8c	-0.6901481
76	0x407c7966	3.9449096
77	0xc01774d1	-2.366505
78	0xbfa33a9e	-1.2752264
79	0xbe9fefc3	-0.3123761
80	0x3fd74f44	1.6821065
81	0x400712bb	2.1105182
82	0x3efa1971	0.48847535
83	0x3e03fa9e	0.12888572
84	0xbf8e49fa	-1.1116326
85	0x40927949	4.5773053
86	0xc00da233	-2.2130249
87	0xbf6bba2f	-0.9208097
88	0x40b4ed72	5.653985
89	0x3e1f4840	0.15554905
90	0x3e7eb347	0.24873076
91	0xbf455b5f	-0.77092546
92	0x3f73306a	0.9499575
93	0xbe64cba1	-0.22343303
94	0x3d0ce072	0.034393735
95	0x3e05e34e	0.13074991
96	0x3fb31d2f	1.3993281
97	0x3f2c2bea	0.6725451
98	0xc033b81b	-2.808112
99	0xbf88bee5	-1.0683256
100	0x40beb0ba	5.959073
101	0xbf09a4b6	-0.53766954
102	0x3feb1a88	1.8367472
103	0x3f95cb04	1.170258
104	0xc085cf77	-4.1815753
105	0x3fab7f1f	1.3398169
106	0xbf2eaf2c	-0.6823604
107	0xbecb1191	-0.3966184
108	0xc092b777	-4.5848956
109	0x402ba621	2.6820147
110	0xc06ee897	-3.7329462
111	0xbef6994c	-0.4816383
112	0x3fccf321	1.6011697
113	0xbfc4d684	-1.5377965
114	0x400ea3d9	2.2287505
115	0x3f3cf80c	0.7381599
116	0x407a8ac4	3.9147196
117	0xc0fd2c98	-7.9116936
118	0xbf79378e	-0.97350395
119	0x3e236516	0.1595653
120	0xc077e4c9	-3.873339
121	0x409f96c1	4.9871526
122	0x3f2b9534	0.6702454
123	0x3e326514	0.1742137
124	0xc0048a67	-2.0709474
125	0xbfc362c4	-1.5264516
126	0xbf8d5092	-1.1040213
127	0x3dbd5a9c	0.09245798

fc1.bias f4 [32]
0	0x3f253d21	0.645464
1	0x3feb132c	1.8365226
2	0x406c416b	3.6914928
3	0xbf0cdb1c	-0.55021834
4	0xc035666b	-2.834376
5	0xc04d1c8a	-3.204867
6	0xc05e897a	-3.477141
7	0x3ebacccc	0.36484373
8	0xbf37565c	-0.7161615
9	0x3f26f629	0.6521936
10	0x40041807	2.0639665
11	0xbf9c5e06	-1.2216194
12	0xc06bd5cb	-3.684924
13	0x3effa43a	0.49929982
14	0xbf94e647	-1.1632775
15	0x3f893150	1.0718174
16	0x403141d5	2.769643
17	0x403ef01e	2.9834056
18	0xbdd593b4	-0.10428563
19	0xc00b8d81	-2.1805117
20	0xc01832dd	-2.3781044
21	0x403ba4f4	2.931943
22	0xbfccccda	-1.6000016
23	0xbf92f3ba	-1.148063
24	0x3f2c6984	0.67348504
25	0xc02425cd	-2.5648072
26	0x40f426b1	7.629723
27	0x4023ccee	2.559383
28	0x3f976dce	1.1830385
29	0xbfdf79bd	-1.7459027
30	0x4090874c	4.5165157
31	0xc0894550	-4.289711

fc2.weight f4 [32, 32]
0	0x3e490718	0.19631612
1	0xbe9f9cc5	-0.31174293
2	0xbe19e6cd	-0.1502945
3	0x3e5e235f	0.2169318
4	0x3f0cdf17	0.5502791
5	0xbf1a0106	-0.6015781
6	0xbe94ef9a	-0.2908905
7	0x3d7f75eb	0.062368315
8	0xbf534162	-0.8252164
9	0x3cc81498	0.024423882
10	0xbe5c45c4	-0.21510988
11	0x3e53c03e	0.20678803
12	0xbee466e9	-0.44609764
13	0x3e483acc	0.19553679
14	0x3ee7756b	0.4520677
15	0x3e073c13	0.1320651
16	0xbe25c45a	-0.16188183
17	0x3f1372e9	0.57597214
18	0xbfaabf5c	-1.3339648
19	0xbf949f9d	-1.161121
20	0x3e2e3704	0.17013174
21	0xbf1bc0d9	-0.6084114
22	0xbef367ba	-0.47540075
23	0x3ea28ab5	0.3174645
24	0xbd3ce465	-0.04611625
25	0x3f5bfa6c	0.8592899
26	0x3f80fcc4	1.0077138
27	0x3e88ba92	0.26704842
28	0xbebee5fb	-0.37284836
29	0xc00fdd5a	-2.2478852
30	0xbf8e7c3f	-1.1131667
31	0xbf678ad9	-0.9044624
32	0x3ec556b1	0.38542703
33	0xbecb9fb0	-0.3977027
34	0x3ba58142	0.005050809
35	0x3ec8df69	0.39232948
36	0x3ef88d40	0.48545265
37	0xbf044e1e	-0.516817
38	0xbe92dabf	-0.28682515
39	0xbe404c6e	-0.18779156
40	0xbf37798a	-0.7166983
41	0x3e2ba04c	0.16760367
42	0xbd3b05df	-0.045659896
43	0x3e93b547	0.2884924
44	0xbf356937	-0.7086367
45	0xbea065fb	-0.31327805
46	0x3f34157d	0.7034529
47	0xbef7b51b	-0.4838036
48	0xbe6013c7	-0.21882544
49	0x3f1bd1ac	0.6086681
50	0x3e8052b3	0.25063094
51	0xbfa81139	-1.3130256
52	0x3f00c553	0.5030109
53	0x3e83e39b	0.25759587
54	0xbeb73723	-0.35784253
55	0x3e14c768	0.14529192
56	0xbf0dc01c	-0.5537126
57	0x3f7fe4bb	0.9995839
58	0x3f5a698f	0.8531732
59	0x3fe6e5d0	1.8038883
60	0xbe880c6c	-0.26571977
61	0xbfc385e1	-1.5275232
62	0xbf468356	-0.7754415
63	0xbed05380	-0.40688705
64	0x3ec2df79	0.3806112
65	0xbf484750	-0.78233814
66	0x3ee7d352	0.45278412
67	0x3e2fc3f7	0.17164598
68	0x3e86b1ae	0.26307434
69	0xbf803d55	-1.0018717
70	0xbed8ac43	-0.42318925
71	0xbe1174c1	-0.14204694
72	0xbedb6a7f	-0.42854688
73	0xbf96869d	-1.1759831
74	0xbe5c847d	-0.21534915
75	0x3edeff41	0.43554118
76	0xbf4cea72	-0.80045235
77	0x3a823576	0.0009934145
78	0xbf922202	-1.1416628
79	0x3fd3014c	1.6484771
80	0x3f0b2a15	0.5436109
81	0x3f819759	1.0124313
82	0xbfc7608f	-1.5576342
83	0xbe389c18	-0.18028295
84	0x3ea3806d	0.3193392
85	0xbf19e001	-0.6010743
86	0xbf668257	-0.9004263
87	0x3e065d9e	0.1312165
88	0xbe474053	-0.19458131
89	0xbf188715	-0.5958112
90	0x3fc153da	1.5103714
91	0x3e8d228c	0.2756542
92	0xbf06855c	-0.5254724
93	0x3f1cf46f	0.61310476
94	0xbea5d1bb	-0.32386574
95	0xbfa2244e	-1.2667329
96	0x3e82c42c	0.25540292
97	0xbea66b37	-0.32503673
98	0xbd97f9d2	-0.07420696
99	0x3ea15872	0.3151279
100	0x3f6a8718	0.91612387
101	0xbf908c56	-1.1292827
102	0xbee082b4	-0.4384972
103	0xbe998ba5	-0.29989353
104	0xbf23c60d	-0.63974077
105	0xbe76954d	-0.24080391
106	0xbe135b7b	-0.14390366
107	0x3e3f7c2f	0.18699716
108	0xbf2b06f9	-0.66807514
109	0xbed13516	-0.40860814
110	0x3faf82bf	1.3711776
111	0xbe7fe73d	-0.24990554
112	0xbe282a91	-0.16422488
113	0x3f00380c	0.5008552
114	0xbea7998d	-0.32734337
115	0xbf83aac3	-1.0286487
116	0x3f5af427	0.85528797
117	0x3f4c121d	0.7971514
118	0xbf6f37dc	-0.9344461
119	0x3e90e091	0.2829633
120	0xbe4471e1	-0.19184066
121	0x3e4035e9	0.18770565
122	0x3f461883	0.7738115
123	0x3ec43b56	0.3832652
124	0xbeba25c0	-0.36356926
125	0xbfe2d7e6	-1.7722137
126	0xbcec7e57	-0.028868837
127	0xbf6cd3a1	-0.9251042
128	0xbe627c08	-0.22117627
129	0xbe84edb8	-0.25962615
130	0xbfa9bfb4	-1.3261628
131	0xbdc923b1	-0.09821261
132	0xbea10bae	-0.31454223
133	0x3f33fce5	0.7030776
134	0x3fda062f	1.7033137
135	0xbeafa140	-0.3430271
136	0x3f388ce6	0.72089994
137	0x3da1d034	0.0790104
138	0xbe39bde9	-0.18138851
139	0x3ecc01c5	0.398451
140	0xbeecb7ea	-0.46234065
141	0x3f71c59e	0.94442165
142	0x3e273730	0.16329646
143	0x3eb8dbe1	0.36105254
144	0xbea3aa7f	-0.31966016
145	0x3e8749df	0.26423547
146	0x3eeb2e5c	0.45933807
147	0x3f32c2b5	0.6982835
148	0xbf2149ba	-0.6300312
149	0xbfc9a836	-1.5754459
150	0x3f404764	0.75108933
151	0xbe097910	-0.13425088
152	0x3f1f111e	0.62135494
153	0xbf1f4c72	-0.6222602
154	0xbf8f3b63	-1.1189998
155	0x3e036e84	0.12835127
156	0xbe518b1b	-0.20463221
157	0x3f8cf42d	1.1012017
158	0xbfc10890	-1.5080738
159	0xbc935816	-0.017986339
160	0xbeac6faf	-0.33678958
161	0x3e57d0a8	0.2107569
162	0x3ef14d63	0.47129354
163	0xbea06f0a	-0.31334716
164	0xbe815bb4	-0.25265276
165	0xbe389d3b	-0.18028729
166	0xbf07880e	-0.5294198
167	0xbd1d9cc3	-0.038479578
168	0xbe89502e	-0.26818985
169	0x3f333eed	0.7001789
170	0xbe0fae90	-0.14031434
171	0xbd4d1f4c	-0.050078675
172	0x3f2e4bd0	0.6808443
173	0x3e111ec5	0.14171894
174	0x3f3510ce	0.70728767
175	0x3ea8d4fa	0.32974988
176	0xbeb086e3	-0.3447791
177	0xbf5d9ef4	-0.8657067
178	0xbefb4d84	-0.49082577
179	0xbe306ac0	-0.17228222
180	0xbe85e199	-0.2614868
181	0x3e61a307	0.22034846
182	0x3eb35687	0.35026953
183	0xbe86664f	-0.2624993
184	0xbec462e5	-0.383567
185	0xbf234861	-0.63782316
186	0x3f2d9bef	0.6781606
187	0xbf0e806a	-0.55664694
188	0xbecea910	-0.4036336
189	0x3f92b1b9	1.1460487
190	0x3fdc2430	1.7198544
191	0xbef870df	-0.48523614
192	0xbeb022bd	-0.34401503
193	0xbec4c188	-0.38428903
194	0xbfb03c47	-1.3768395
195	0xbec1ce7c	-0.37852848
196	0xc00192b6	-2.0245795
197	0xbf874791	-1.0568715
198	0xbe1105ae	-0.14162323
199	0x3ec5d501	0.38639072
200	0xbfd770b5	-1.683127
201	0x3f603a3d	0.87588865
202	0xbf18652e	-0.5952939
203	0xbf7d19d6	-0.9886755
204	0x3fc2f572	1.5231154
205	0xbe5a35b4	-0.21309549
206	0xbdf71d15	-0.12066094
207	0xbe45d396	-0.19318995
208	0x3d407df7	0.04699513
209	0xc036396f	-2.8472555
210	0xc03ce74f	-2.951618
211	0xbfb3fae8	-1.4060946
212	0xbfeb9a94	-1.8406549
213	0x4002c8d0	2.0435066
214	0x3fc543d9	1.541133
215	0xbf61a503	-0.8814241
216	0xbeac4747	-0.3364813
217	0x401d0856	2.4536338
218	0xc05002c5	-3.250169
219	0xbf36a4fa	-0.71345484
220	0xbdca1cb9	-0.0986876
221	0xc0687834	-3.6323366
222	0xbf36537e	-0.7122115
223	0xbfafc455	-1.3731791
224	0x3f4d5931	0.8021422
225	0x3f743c2a	0.95404303
226	0x3f6f49cc	0.9347198
227	0xbe48b8f9	-0.19601811
228	0xbccb390a	-0.024807472
229	0xbe9eab54	-0.30990088
230	0x3f84c748	1.0373316
231	0xbe2dd2ea	-0.16974989
232	0xbe367911	-0.1781962
233	0x3f31e5ca	0.69491255
234	0x3db8b6c1	0.090192325
235	0x3e72405b	0.23657362
236	0xbfca9eaf	-1.5829676
237	0xbcee74cb	-0.029108426
238	0xc0891234	-4.283472
239	0x3e874a69	0.26423958
240	0x4006ee6b	2.1083019
241	0x40339dac	2.8064985
242	0x3e8b806a	0.2724641
243	0x3ebd77a5	0.37005344
244	0x3f1b35db	0.6062905
245	0xbf521c37	-0.820743
246	0xbfee6e57	-1.8627423
247	0x3e9e0a46	0.30867213
248	0xbfe3a699	-1.7785217
249	0xbffc1142	-1.9692767
250	0x3f94b441	1.1617509
251	0xc0347afb	-2.8200061
252	0xbe2682ba	-0.16260806
253	0xbfe19501	-1.7623597
254	0xbf938e0b	-1.1527723
255	0x3ec9447e	0.39310068

fc2.bias f4 [32]
0	0x3f456d84	0.7712023
1	0x3f086e80	0.5329361
2	0x3f4bd109	0.7961584
3	0x3edee067	0.4353058
4	0xbd7bb5a9	-0.06145254
5	0x3cd82627	0.02638538
6	0x3e40aa40	0.18814945
7	0x3f1208eb	0.5704486
8	0x3e53882d	0.20657416
9	0x3ec923a2	0.39284998
10	0x3e3fce22	0.18730977
11	0x3db3c394	0.08777538
12	0x3f287911	0.6580973
13	0xbdcf0ec3	-0.101102374
14	0x3ed194da	0.40933877
15	0x3ca1688f	0.019703178
16	0x3d8405cc	0.06446418
17	0x3ecb5486	0.39712924
18	0x3f41100e	0.7541512
19	0x3ece957e	0.40348428
20	0x3e2c7459	0.16841258
21	0xbcc4f4b6	-0.024042469
22	0x3dc7d320	0.09757066
23	0xbdff6a87	-0.1247149
24	0x3eb0a60f	0.34501693
25	0x3f3b5c83	0.73188037
26	0x3cdc4d3a	0.026892293
27	0x3f68ead5	0.90983325
28	0x3fc41cba	1.5321267
29	0x3e47c8ce	0.19510195
30	0x3e858bb3	0.26083145
31	0x3f91d7db	1.1393999

fc3.weight f4 [1, 32]
0	0xc03a36d7	-2.9095972
1	0xc03c799a	-2.944922
2	0xc02677ef	-2.6010702
3	0xc014dac7	-2.325853
4	0xc03ba80b	-2.9321315
5	0xbfabf953	-1.3435463
6	0xc1010105	-8.062749
7	0x405fe9f5	3.4986546
8	0x40772318	3.861517
9	0x406abd17	3.6677911
10	0xc04b73f9	-3.1789534
11	0xc05753a7	-3.3644807
12	0xc080ba15	-4.022715
13	0x3f37cdba	0.7179829
14	0xc04930a3	-3.1435935
15	0xbf7357d9	-0.9505592
16	0xc0149661	-2.3216784
17	0xbfc1e581	-1.5148164
18	0xc01d5e47	-2.4588792
19	0xc0a2db7a	-5.0892916
20	0xc00307d6	-2.0473533
21	0xc044c745	-3.0746624
22	0xc018970b	-2.384219
23	0xc07dc463	-3.9651115
24	0xc0320b74	-2.781949
25	0xc01d6196	-2.4590812
26	0x405742c1	3.3634493
27	0xc0819d9f	-4.050491
28	0xbff5179e	-1.9147832
29	0xc055d591	-3.34116
30	0xbfc9af8e	-1.57567
31	0xc02ed4dd	-2.7317421
