Networks/6-DDPG-with-target-network-target-Q-network-tau=0.01.pt (torch, 7615 bytes, 5 tensors)

fc1.weight f4 [32, 4]
0	0x3f8e0a1c	1.1096835
1	0x3ff59439	1.9185859
2	0x3fa27b23	1.2693828
3	0xbf21b46f	-0.63165945
4	0x3f59544d	0.8489426
5	0xc063f6b7	-3.5619333
6	0xbf507b71	-0.81438357
7	0xbedff956	-0.43744916
8	0x402c654f	2.6936834
9	0x401ae4fc	2.420226
10	0x3f6c3dc0	0.92281723
11	0xbd702380	-0.058627605
12	0x40e372e0	7.107773
13	0xbfb49265	-1.4107176
14	0xbe95abcf	-0.29232642
15	0x3ebccce5	0.36875072
16	0xbefc20c9	-0.49243763
17	0xbf53d207	-0.8274235
18	0xbd9e3567	-0.077250294
19	0x3da15a18	0.07878512
20	0xbfedb5bf	-1.857109
21	0x40359c94	2.8376818
22	0xbe8a10fd	-0.26966086
23	0xbec2e2aa	-0.38063556
24	0x3e09840e	0.13429281
25	0xc079a592	-3.9007306
26	0xbf02cd92	-0.51094925
27	0xbea0f9da	-0.31440622
28	0xbfa11904	-1.2585759
29	0x403347ca	2.8012567
30	0xbe3d5779	-0.184904
31	0xbeb56725	-0.35430256
32	0xbd71a1ad	-0.058992077
33	0xbda6e7f8	-0.08149713
34	0xbd6ca06c	-0.057770178
35	0x3ebcff71	0.36913636
36	0x3f5f996f	0.87343496
37	0x404c1063	3.1885002
38	0xc022b546	-2.542314
39	0xbf08ae43	-0.533909
40	0x3f8a555b	1.0807298
41	0x4050e0e0	3.2637253
42	0x3f50d714	0.81578183
43	0x3a8986c3	0.0010492433
44	0x3f1d76d2	0.6150943
45	0xbe27166b	-0.16317146
46	0x3f88bfb2	1.0683501
47	0xbd2de025	-0.04245009
48	0xbf5f6172	-0.87258065
49	0xbf928b8e	-1.1448839
50	0x3eb421f1	0.35182145
51	0x3e8f9838	0.2804582
52	0xbe45411c	-0.19263119
53	0x406e950e	3.7278476
54	0x3ed0f9c3	0.40815553
55	0xbf2b3910	-0.66883945
56	0x3fca5949	1.5808498
57	0x409580b4	4.671961
58	0xbf04e54c	-0.5191238
59	0xbf6f3702	-0.9344331
60	0xc05de9e0	-3.4673996
61	0x4044bd1e	3.0740428
62	0xc02db935	-2.7144291
63	0xbeccecfb	-0.40024552
64	0x40300faa	2.750956
65	0x406d0f52	3.70406
66	0x3f18a12e	0.5962094
67	0x3e1cdfcb	0.15319745
68	0xc036d626	-2.8568206
69	0x40971601	4.721436
70	0xc0215016	-2.520513
71	0xbfa81000	-1.3129883
72	0x40bf4c81	5.978089
73	0xc0955c94	-4.667551
74	0xc00129c6	-2.0181746
75	0xbf65e7df	-0.8980693
76	0x402867b8	2.6313305
77	0x403168ea	2.7720284
78	0xbf85bdee	-1.0448587
79	0xbeab5e79	-0.33470514
80	0x3f381e25	0.71920997
81	0x3fffe9d9	1.999324
82	0xbfe6ec1a	-1.8040802
83	0xbf1900f4	-0.5976708
84	0x406f073b	3.7348163
85	0x40119789	2.274874
86	0x3fab752f	1.3395137
87	0x3f299cfd	0.6625517
88	0xc0854d74	-4.1657047
89	0xc035d0cc	-2.840869
90	0xbfdae51f	-1.7101172
91	0x3e515793	0.20443563
92	0xc0289433	-2.6340454
93	0xbfe3b8ac	-1.7790732
94	0x400d5dc8	2.208849
95	0x3f3de2f6	0.7417444
96	0x3f1ba0a5	0.60792
97	0xbe291989	-0.16513647
98	0x3f6266fe	0.88438404
99	0xbf2aa332	-0.66655266
100	0xbcbfe595	-0.023424903
101	0xbe8cb4fe	-0.27481836
102	0xbf36c3a4	-0.71392274
103	0xbf136742	-0.57579434
104	0xc09a397f	-4.8195186
105	0x3fd99d17	1.7001065
106	0x3fce8e16	1.6137111
107	0xbc7df45a	-0.0155001525
108	0xbeebc480	-0.46048355
109	0x3e4e57ae	0.20150635
110	0x3c1dc483	0.009629372
111	0x3dbd53d1	0.09244502
112	0x3f857fd0	1.042963
113	0x40094dce	2.1453738
114	0x3fd831c7	1.6890191
115	0x3f2e3414	0.68048215
116	0x402c989c	2.6968145
117	0xc0abab1c	-5.3646374
118	0xbf1934e7	-0.5984635
119	0x3edd17e6	0.43182296
120	0x3fe36fc4	1.7768483
121	0xc007df7a	-2.123015
122	0x3fcb6e7b	1.5893091
123	0xbd5776bd	-0.052603472
124	0x3f8c485b	1.0959581
125	0xc0806233	-4.011987
126	0xbf74402b	-0.9541041
127	0xbe96c2b4	-0.29445422

fc1.bias f4 [32]
0	0x3f5e05e8	0.8672776
1	0x3f2490f6	0.6428369
2	0xbfa12235	-1.2588564
3	0x3f4dbbf7	0.80364937
4	0xbfd38dac	-1.652761
5	0x40019f78	2.0253582
6	0x3f40b63a	0.75278056
7	0xbee0bf33	-0.43895873
8	0xbf6568c5	-0.8961299
9	0xbfe2fd22	-1.77335
10	0x3ee9d9e0	0.45674038
11	0xc035fff2	-2.8437467
12	0x4031fbf9	2.7810042
13	0xbfb01571	-1.3756543
14	0xbfac9159	-1.3481857
15	0x3d2cac95	0.042156775
16	0xbf95b8e1	-1.1697046
17	0x3f8d1b5e	1.1023977
18	0xc055523b	-3.333144
19	0x4063b53a	3.5579362
20	0x3fe8c6c0	1.8185654
21	0xc02bea6a	-2.6861825
22	0x40944b0d	4.6341615
23	0xbf7d0206	-0.9883121
24	0x3ca4becb	0.020110508
25	0xbf19b800	-0.60046387
26	0x4051f38e	3.2804904
27	0xbf2c30b5	-0.6726182
28	0xbd98062d	-0.07423053
29	0xbf2659b6	-0.6498064
30	0x3f9b777a	1.2145836
31	0x3f2b814d	0.6699417

fc2.weight f4 [32, 32]
0	0x3e265095	0.16241677
1	0x3c662743	0.014047447
2	0x3cf99cbd	0.030470246
3	0xbe1f942f	-0.15583871
4	0x3d8fec5e	0.07027505
5	0xbd01743f	-0.031605
6	0xbdc87016	-0.09787004
7	0x3e34fba1	0.17674114
8	0x3d1bd97f	0.038049217
9	0xbdd285ba	-0.102794126
10	0xbd80bda4	-0.06286171
11	0xbcab3e23	-0.020903653
12	0x3d75d89d	0.06002103
13	0xbcca883c	-0.024723165
14	0xbdd127d7	-0.10212677
15	0xbd8550a4	-0.065095216
16	0xbdfff27e	-0.124974236
17	0x3d7aedf7	0.061262097
18	0x3dcb1f13	0.09918036
19	0xbe303531	-0.17207791
20	0x3d148647	0.03626087
21	0x3dcb4b29	0.09926445
22	0x3cb3550e	0.021891143
23	0xbdc5f3cb	-0.096656404
24	0x3da0f208	0.07858664
25	0x3db92c56	0.090416595
26	0x3d3e3cc7	0.04644468
27	0xbcfc8ef1	-0.030829879
28	0xbd6a2a67	-0.057169344
29	0xbb8f083f	-0.0043649967
30	0xbd83c45c	-0.06433937
31	0xbd8865b6	-0.06660025
32	0xbefc0102	-0.4921952
33	0x3e1deab5	0.15421565
34	0xbfd6a953	-1.6770424
35	0x3f08e7e7	0.53478855
36	0x3e456bb3	0.19279365
37	0x3fa292a8	1.2701006
38	0x3e875d26	0.26438254
39	0xbf59226f	-0.84818166
40	0xbdc337a2	-0.095320955
41	0xbf382195	-0.7192624
42	0xbf8704ca	-1.0548337
43	0xbfa34880	-1.27565
44	0x3e53d866	0.20688018
45	0x3f4a0438	0.7891269
46	0xbfce156e	-1.610029
47	0xc0399ff7	-2.9003885
48	0xc0185ec2	-2.3807836
49	0x3fc054a6	1.5025833
50	0xbd1c9f15	-0.03823765
51	0xbe538240	-0.20655155
52	0xbf807c53	-1.0037941
53	0xc034d260	-2.8253403
54	0xbda54bd6	-0.08071105
55	0x3fb16f75	1.3862139
56	0x3f0dfe90	0.55466557
57	0xbeec2cdf	-0.46127984
58	0x3e8b30aa	0.27185565
59	0xbdf18c95	-0.11794392
60	0xbfc1a655	-1.5128886
61	0x3ef8582e	0.48504776
62	0xbf1e558e	-0.61849296
63	0xbeb9cec5	-0.36290565
64	0xbe2e75f5	-0.17037185
65	0x3de3d734	0.11125031
66	0x3e09321b	0.1339802
67	0x3db34b11	0.08754552
68	0xbdfc70b3	-0.12326183
69	0xbe323876	-0.1740435
70	0xbe184450	-0.14869809
71	0x3e0703e7	0.13185082
72	0x3dadd11d	0.08487151
73	0x3e26e280	0.1629734
74	0x3dbf3f39	0.09338231
75	0x3d375862	0.044762023
76	0xba64ace1	-0.0008723271
77	0xbe09aa92	-0.13443974
78	0xbe1b369c	-0.1515755
79	0xbe294f98	-0.16534269
80	0x3d945beb	0.072440945
81	0xbdb1a595	-0.086741604
82	0xbc9b4bb4	-0.018956997
83	0xbdb0f5ce	-0.086406335
84	0xbcb9ce42	-0.02268136
85	0xbdfeca6d	-0.124409534
86	0xbdf88df2	-0.12136449
87	0x3d5a672e	0.053321056
88	0xbd579eb0	-0.05264157
89	0x3dde48ef	0.10853755
90	0xbd690308	-0.056887656
91	0xbe04c932	-0.12967375
92	0xbcff80da	-0.03118937
93	0xbdc00547	-0.093760066
94	0xbd5b3cdc	-0.053524837
95	0xbe332b6e	-0.17497036
96	0xbe36c64f	-0.17849086
97	0xbeff977b	-0.49920258
98	0xbe9d9883	-0.3078042
99	0x3e193163	0.14960246
100	0x3e7e91ca	0.24860302
101	0x3f5b7445	0.8572429
102	0xbdbc8504	-0.09205058
103	0xbfa6304e	-1.2983491
104	0x3ddabde8	0.10680753
105	0xbf162e90	-0.586648
106	0xbe3d9224	-0.1851278
107	0xbf86609e	-1.0498235
108	0x3f2f4019	0.6845718
109	0x3f6f99df	0.93594164
110	0xbf4804dd	-0.7813242
111	0xbfbe02c8	-1.4844599
112	0xbec06dfd	-0.37583914
113	0x3ffe7f67	1.988263
114	0xc007984f	-2.1186712
115	0x3edcc840	0.4312153
116	0xbf21ca02	-0.63198864
117	0xbf73c5ac	-0.952235
118	0x3ef64040	0.48095894
119	0x3e4132fd	0.18867107
120	0x3ddbb8f0	0.107286334
121	0xbf056d2c	-0.5211971
122	0xbf81afc3	-1.0131763
123	0xbe2cd141	-0.16876699
124	0xbf680c15	-0.90643436
125	0xbe4cd90c	-0.20004672
126	0xbf89c885	-1.0764319
127	0xbe8790a2	-0.26477534
128	0xbed114de	-0.40836233
129	0x3e3d9183	0.1851254
130	0xbedaad9c	-0.42710578
131	0xbe9ce148	-0.30640626
132	0xbf147743	-0.5799448
133	0x3ed305e0	0.4121542
134	0x3ec6a99b	0.38801274
135	0x3d811ce0	0.063043356
136	0xbe8a3386	-0.26992434
137	0xbec17761	-0.3778639
138	0xbf14a516	-0.580644
139	0xbec913a7	-0.39272806
140	0xbd888521	-0.06666017
141	0x3f27e7f3	0.655883
142	0xbef0bc3a	-0.47018605
143	0x3ddcb71c	0.10777113
144	0xbf01207e	-0.50440204
145	0x3e3545db	0.17702429
146	0x3f3ffae2	0.7499219
147	0xbf374dcb	-0.7160308
148	0xbf2894df	-0.6585216
149	0xbf4abdfd	-0.7919615
150	0x3ee79ed6	0.4523837
151	0xbf21e986	-0.63246953
152	0xbd77bdd1	-0.060483757
153	0xbda48e92	-0.08035006
154	0x3e8554c6	0.2604124
155	0x3c78473e	0.015153704
156	0x3e3047bd	0.17214866
157	0x3d8c4bd5	0.06850401
158	0xbf741abe	-0.95353305
159	0xbe425220	-0.1897664
160	0xbe02311c	-0.12714046
161	0xbd375243	-0.044756185
162	0x3e10a9bf	0.14127253
163	0x3e1f1731	0.1553619
164	0xbde7e1f9	-0.11322398
165	0xbe1a238e	-0.15052626
166	0xbe11b7a1	-0.14230205
167	0xbe330a81	-0.17484476
168	0xbe0baf37	-0.13641058
169	0xbd00a9ed	-0.031412054
170	0x3e0b4613	0.1360095
171	0x3cf6b6d9	0.030116485
172	0xbe0e9a29	-0.13925995
173	0xbe23119a	-0.15924683
174	0x3dcf3a5f	0.10118555
175	0xbe0ceffe	-0.13763425
176	0x3bb1995e	0.005419894
177	0x3da3d2a3	0.0799916
178	0xbd934fe9	-0.07192976
179	0x3d0e4cf7	0.03474137
180	0x3c635dd1	0.013877348
181	0xbce7cc16	-0.028295558
182	0xbdbd171b	-0.09232923
183	0xbe2a9724	-0.16659218
184	0xbe1699bc	-0.14707083
185	0xbdc93690	-0.0982486
186	0x3e0f16d0	0.13973546
187	0xbdbc55ea	-0.09196074
188	0xbe042790	-0.12905717
189	0x3d0995eb	0.03359024
190	0x3cf41c58	0.029798672
191	0x3da19c98	0.07891196
192	0xbfb2d121	-1.3970071
193	0x3d82bcd9	0.06383676
194	0xc04b6e5d	-3.178611
195	0x3f040ea1	0.5158482
196	0x3ea691a5	0.32532993
197	0x3fbf3e02	1.4940798
198	0xbe9228c9	-0.28546742
199	0xbe264be9	-0.16239895
200	0x3c012f08	0.007884748
201	0x3f3b8274	0.7324593
202	0xc0406153	-3.0059402
203	0xbfd1fac6	-1.6404655
204	0x3f834e06	1.0258186
205	0x3fe43bfe	1.7830808
206	0xc046c8fa	-3.1060166
207	0x3dd2dfbf	0.102965824
208	0xc05ff765	-3.4994748
209	0x3fe437bb	1.7829508
210	0x4000de87	2.013582
211	0xbf23401c	-0.637697
212	0xbf526913	-0.8219158
213	0xc0712118	-3.767645
214	0xc04b254f	-3.1741521
215	0x3f00218a	0.50051177
216	0x3e85f562	0.26163775
217	0xbcf20b8a	-0.029546518
218	0x3f6a7d21	0.9159718
219	0xbe2b10d0	-0.16705632
220	0xbf768d2c	-0.9630916
221	0xbccb239c	-0.024797253
222	0xbe0e0ec2	-0.13872817
223	0x3e9da73d	0.30791655
224	0x3e28cdf5	0.16484816
225	0xbd2b22be	-0.04178118
226	0x3ccb89da	0.024846006
227	0xbd43892c	-0.04773824
228	0xbd3b993d	-0.045800436
229	0x3e55c54e	0.20876047
230	0xbe88d4e4	-0.26724923
231	0xbd725c63	-0.059170138
232	0x3d8ac153	0.06775155
233	0x3ea9a959	0.33137015
234	0x3e6430bc	0.22284216
235	0xbe211fd7	-0.15734802
236	0xbe365fa7	-0.17809926
237	0x3ed01df2	0.40647846
238	0xbcad0207	-0.02111913
239	0x3e2f82bf	0.1713972
240	0x3decad30	0.115564704
241	0x3e26ce0b	0.16289537
242	0x3d1bd861	0.038048152
243	0x3dec659a	0.115428165
244	0xbe359dbb	-0.1773595
245	0xbda4fdc6	-0.08056216
246	0xbeb0bf30	-0.34520864
247	0x3d6a574e	0.057212166
248	0xbbfbb268	-0.00768118
249	0xbc24768d	-0.01003803
250	0x3eec70a0	0.46179676
251	0xbdc4eb92	-0.09615244
252	0x3f278872	0.65442574
253	0xbe222df1	-0.15837838
254	0xbe10fbb1	-0.14158513
255	0xbed8ad6c	-0.4231981

fc2.bias f4 [32]
0	0x39f1bc15	0.00046107234
1	0x406c497e	3.6919856
2	0xbae1eeed	-0.0017237343
3	0x402eaf3f	2.7294462
4	0x40fb5fae	7.8554296
5	0x3dda3073	0.10653772
6	0x409618ef	4.6905437
7	0x405037f6	3.2534156
8	0x3e4ded81	0.20110132
9	0x40648bf4	3.571042
10	0xbe2b20bb	-0.16711704
11	0xbe9b2c6b	-0.30307326
12	0xbd81afcf	-0.06332361
13	0x3f91acb0	1.1380825
14	0xbcee02b9	-0.029054033
15	0x3fe354d4	1.7760262
16	0x3d358df9	0.04432485
17	0x3f8b6022	1.0888712
18	0xbe297db0	-0.16551852
19	0x40459f40	3.0878448
20	0x40841bf0	4.1284103
21	0xbe3fe708	-0.18740475
22	0x40f05ab6	7.511073
23	0xbc103dda	-0.008803809
24	0x3f4162c8	0.75541353
25	0x40fefe8d	7.968573
26	0x3dd58917	0.104265384
27	0x3fbf8570	1.4962597
28	0x3f9994a3	1.1998485
29	0x40293c48	2.6443043
30	0x40265ee5	2.599542
31	0x40900d1c	4.5016003

fc3.weight f4 [1, 32]
0	0x3dfeaf70	0.12435806
1	0xc0961fd2	-4.6913843
2	0x3deb746c	0.11496815
3	0xc0728829	-3.7895606
4	0xc00501f9	-2.0782454
5	0x3e39df1a	0.18151513
6	0xc0db61fa	-6.85571
7	0xbf8427b8	-1.0324621
8	0xc09960fb	-4.7930884
9	0xc000680e	-2.006351
10	0x3f99f830	1.2028866
11	0x402ac9f6	2.6685767
12	0xc005c06d	-2.0898697
13	0xbf9d95cc	-1.2311339
14	0x3d87b1ba	0.066256955
15	0x3f8d6730	1.1047115
16	0xc0452ccf	-3.08086
17	0xc0b466dc	-5.637556
18	0x3ea25991	0.3170896
19	0xbf2b69e4	-0.6695845
20	0xc0d80ecb	-6.751806
21	0x3ea46b8a	0.32113296
22	0xbfc505fd	-1.5392452
23	0x3f57c0d9	0.8427864
24	0xbfdba56f	-1.7159861
25	0xbfb50213	-1.4141258
26	0x3e7c212d	0.2462203
27	0xbf26fd2e	-0.6523007
28	0xbfc3b43e	-1.528938
29	0xbfc1d206	-1.5142219
30	0xc01400c0	-2.3125458
31	0xbfc06253	-1.5030006
