Networks/6-DDPG-with-target-network-policy-network-tau=1.0.pt (torch, 7463 bytes, 5 tensors)

fc1.weight f4 [32, 3]
0.37150416 -0.27391505 0.6187161 -0.30625692 -0.601713 0.15152237 -0.42037937 0.33961928
-0.020692853 0.02809974 -0.07215741 0.14826542 -0.3633325 -0.52970266 0.36230978 -0.02181442
-0.4854417 0.5771618 0.0029568828 -0.15116452 0.41139522 -0.19736728 0.17057493 0.6979215
-0.42731816 0.34585333 0.6443794 -0.56539905 0.10625711 -0.26199445 -0.22005145 0.2910829
0.11629675 -0.18389712 0.36067694 0.34447682 0.21584097 -0.32263607 -0.4852477 0.23013781
0.49825102 0.3019525 -0.12524323 0.006276786 -0.72854125 -0.41391566 -0.07303579 0.5895838
-0.6675034 0.15911773 -0.26667035 0.40511352 -0.0025675914 0.03720015 0.31839567 0.558399
-0.031393275 -0.52244467 -0.35687733 -0.23810594 -0.31329626 0.0647156 -0.30985862 -0.32567644
0.32200807 -0.5604699 -0.5379995 -0.1999942 -0.28076565 0.30431592 -0.46790868 0.40708098
-0.3612862 -0.4098814 0.30475307 -0.57811093 -0.23184168 -0.20027429 -0.05919858 -0.16742562
-0.38922006 -0.09163113 0.34875706 0.1605871 0.51535285 -0.5163763 0.4890321 0.16734096
0.50695175 0.2854445 0.53915673 0.46720257 0.3855491 -0.46189165 -0.03451205 0.030065767
00000000: cb35 be3e 983e 8cbe 2e64 1e3f b5cd 9cbe
00000010: dd09 1abf ae28 1b3e f73b d7be 94e2 ad3e
00000020: 0f84 a9bc 6d31 e63c 44c7 93bd e4d2 173e
00000030: b806 babe 989a 07bf ab80 b93e 28b4 b2bc
00000040: d18b f8be e0c0 133f 43c8 413b dfca 1abe
00000050: 65a2 d23e a61a 4abe 32ab 2e3e fcaa 323f
00000060: 72c9 dabe b013 b13e 0cf6 243f febd 10bf
00000070: 549d d93d 2324 86be 2b55 61be d108 953e
00000080: fe2c ee3d 874f 3cbe a6aa b83e 445f b03e
00000090: 6a05 5d3e 8e30 a5be 6372 f8be 3fa9 6b3e
000000a0: c21a ff3e 8599 9a3e c33f 00be 7fad cd3b
000000b0: ae81 3abf c1ec d3be ca93 95bd f7ee 163f
000000c0: 81e1 2abf c2ef 223e 0489 88be 0a6b cf3e
000000d0: 0945 28bb 2f5f 183d c204 a33e 3df3 0e3f
000000e0: 3c96 00bd efbe 05bf a0b8 b6be 0bd2 73be
000000f0: 5e68 a0be 9d89 843d caa5 9ebe 10bf a6be
00000100: 3ede a43e f57a 0fbf 56ba 09bf 48cb 4cbe
00000110: 84c0 8fbe 4ccf 9b3e ba91 efbe eb6c d03e
00000120: 81fa b8be fadb d1be 9808 9c3e 14ff 13bf
00000130: e867 6dbe b414 4dbe 367a 72bd 9f71 2bbe
00000140: da47 c7be 1aa9 bbbd 4990 b23e f270 243e
00000150: 2aee 033f 3d31 04bf 6a62 fa3e 6e5b 2b3e
00000160: 97c7 013f c825 923e 2d06 0a3f 2d35 ef3e
00000170: b166 c53e 107d ecbe 825c 0dbd 7c4c f63c

fc1.bias f4 [32]
0.38895023 -0.26717398 0.18976517 -0.24136081 -0.04648671 -0.06269706 -0.40298614 0.16484931
0.30720064 0.37657788 -0.15469247 -0.04088497 0.19780591 -0.31857884 0.32660812 0.23693311
0.51885664 -0.031111157 -0.09652067 -0.34046286 -0.40014544 -0.010851868 0.58793277 0.34536365
0.088906184 0.5075205 0.36907223 0.35612696 0.44775018 -0.10256856 0.16303487 0.40754932
00000000: 7c24 c73e 07cb 88be cd51 423e 4a27 77be
00000010: d968 3ebd 5167 80bd 3354 cebe 42ce 283e
00000020: 6749 9d3e d1ce c03e b467 1ebe 0077 27bd
00000030: a28d 4a3e c41c a3be 2e39 a73e 989e 723e
00000040: cad3 043f d3dc febc a1ac c5bd 2651 aebe
00000050: dddf ccbe 09cc 31bc c382 163f 81d3 b03e
00000060: 7214 b63d ddec 013f 09f7 bc3e 4656 b63e
00000070: 833f e53e 770f d2bd 9df2 263e 4eaa d03e

fc2.weight f4 [32, 32]
-0.023851933 -0.05071461 -0.16220492 -0.063227415 0.0169848 0.10480724 0.03593767 -0.016398031
0.03327774 -0.14373143 -0.08129322 0.079524696 -0.014302448 -0.15230499 -0.121489994 -0.023605881
-0.09831439 0.117727734 -0.12534563 0.023310704 0.088406324 0.08637293 0.17377476 -0.088429525
-0.022374138 -0.13717139 -0.089564264 -0.16276357 -0.113723405 0.12324586 -0.00807719 -0.1271538
0.18064788 -0.1317648 -0.005045347 -0.042028066 -0.11753696 0.1683008 0.13819477 -0.06243861
0.182306 0.008486372 0.07943736 -0.026549606 -0.014671828 -0.15487334 0.010010966 -0.06945061
0.14531952 0.1616843 0.082645305 -0.018454572 -0.009271589 0.09401752 0.13272882 0.07067854
-0.11161726 -0.18382846 0.0297532 -0.05716411 -0.12121726 -0.1432392 0.02605411 0.050233107
-0.11300937 -0.09308088 -0.04124218 0.014990017 -0.13658366 0.04013956 -0.028907577 0.07311305
-0.072291955 -0.06930066 -0.1177834 -0.12005378 -0.008226319 0.054743614 -0.05143631 -0.14631411
-0.153053 0.08661963 -0.16981074 -0.10426972 -0.008703683 -0.08848203 -0.17074561 0.02298735
0.1201271 -0.06920289 0.05005307 -0.02074306 0.14243011 0.027094876 0.14400156 0.016933039
-0.0074857734 -0.11876988 -0.10025576 -0.09759556 -0.11385101 -0.15197577 -0.029484544 0.048493713
-0.057647355 0.045963038 -0.16689262 -0.00094781606 0.020107647 -0.051247176 -0.0078638485 0.11883889
-0.114151485 -0.105205834 -0.15682971 0.06411636 -0.18390787 0.05619071 -0.015471227 0.03828018
0.103468835 0.017574769 0.07339158 -0.15420622 -0.024331393 0.014886077 0.0707649 0.017880809
0.16235685 0.051331222 0.042544503 0.12063494 -0.06608028 -0.14519362 -0.040960804 -0.06988649
-0.09511811 -0.03686325 -0.120921426 -0.029468477 0.042573784 -0.0148346145 -0.06799236 0.009190392
0.113653496 0.11476113 -0.0066353464 -0.008681288 0.033856943 -0.08094278 -0.049280014 0.028354663
-0.003082862 -0.060923494 -0.08665133 0.059182905 0.094640955 0.025259478 -0.09057445 0.05451904
0.0766802 0.18355548 -0.17215733 -0.07851682 0.078853644 0.027679298 -0.04105764 -0.061241336
0.24388413 0.066181704 -0.103760906 0.08214994 -0.11475256 0.01656261 -0.10974475 0.18379253
0.07891414 -0.0044392333 0.09665835 0.14360477 -0.13610034 -0.17997286 -0.08782933 0.3040865
0.15589614 -0.06727581 0.043247744 -0.015047471 0.26904714 0.0020221297 0.085065216 -0.15125728
-0.059604082 0.03758566 -0.03686622 0.03161317 -0.015246598 -0.15942028 0.05686319 -0.14529765
0.061289456 0.2665797 0.12986381 -0.02232872 0.08368199 -0.08816984 0.07121656 -0.15371649
0.110574156 -0.15346192 0.061859634 -0.07354813 -0.087837234 -0.0004553589 0.22684598 -0.08768118
-0.00019491168 0.099414945 0.05501517 -0.111119576 -0.18665794 0.15239628 -0.09858775 0.08094814
0.0372736 -0.08890316 0.097522974 0.038328603 -0.01920163 -0.011652208 0.1223599 0.16550452
0.07239658 0.14552782 -0.089762665 0.10374146 -0.04934358 -0.0017623543 0.11290806 0.067660965
0.008135769 0.04099888 -0.0049757063 -0.091657065 0.0801645 -0.12677962 0.08066295 0.07868086
-0.022248028 -0.17326096 -0.08764387 0.17578557 -0.045807306 0.013803468 -0.077223584 -0.05047586
00000000: 2165 c3bc 1fba 4fbd 0c19 26be 607d 81bd
00000010: b523 8b3c 2ea5 d63d 6133 133d 2a55 86bc
00000020: 3d4e 083d 552e 13be 0f7d a6bd d8dd a23d
00000030: d154 6abc d7f5 1bbe bfcf f8bd 1f61 c1bc
00000040: 0e59 c9bd 3d1b f13d 9b5a 00be 17f6 be3c
00000050: 600e b53d 4ae4 b03d 03f2 313e 8a1a b5bd
00000060: f849 b7bc a876 0cbe 786d b7bd 7eab 26be
00000070: d1e7 e8bd 5368 fc3d 3156 04bc 9b34 02be
00000080: c2fb 383e 5aed 06be 7053 a5bb 9f25 2cbd
00000090: 38b7 f0bd 0b57 2c3e ee82 0d3e a1bf 7fbd
000000a0: 6dae 3a3e 6d0a 0b3c 0eb0 a23d 8f7e d9bc
000000b0: 1b62 70bc 1e97 1ebe 0905 243c 1f3c 8ebd
000000c0: a4ce 143e 9290 253e f141 a93d 0b2e 97bc
000000d0: dde7 17bc 428c c03d 10ea 073e e9bf 903d
000000e0: 9797 e4bd 873d 3cbe fcbc f33c ea24 6abd
000000f0: c140 f8bd 4cad 12be 6e6f d53c 3bc1 4d3d
00000100: 7571 e7bd 30a1 bebd 8fed 28bd b098 753c
00000110: 96dc 0bbe 6169 243d 95cf ecbc 4bbc 953d
00000120: ce0d 94bd 81ed 8dbd 6c38 f1bd c2de f5bd
00000130: afc7 06bc d73a 603d e1ae 52bd 5ed3 15be
00000140: edb9 1cbe a265 b13d dee2 2dbe 5d8b d5bd
00000150: e499 0ebc 1136 b5bd f0d7 2ebe f84f bc3c
00000160: 3205 f63d 3fba 8dbd 7304 4d3d 5aed a9bc
00000170: 33d9 113e 13f6 dd3c 2575 133e 28b7 8a3c
00000180: 384b f5bb 9f3d f3bd e452 cdbd 2ee0 c7bd
00000190: b82a e9bd 899f 1bbe 9289 f1bc 58a1 463d
000001a0: a21f 6cbd bd43 3c3d e6e5 2abe dc76 78ba
000001b0: cbb8 a43c 8fe8 51bd 5fd7 00bc ce61 f33d
000001c0: 41c8 e9bd 2876 d7bd f897 20be 704f 833d
000001d0: 5852 3cbe 3b28 663d 077b 7dbc aecb 1c3d
000001e0: 78e7 d33d f6f8 8f3c 534e 963d 3ce8 1dbe
000001f0: a152 c7bc bbe4 733c 30ed 903d c67a 923c
00000200: e040 263e b040 523d 2543 2e3d 740f f73d
00000210: 1955 87bd a3ad 14be 84c6 27bd a620 8fbd
00000220: 49cd c2bd ebfd 16bd a7a5 f7bd e067 f1bc
00000230: d961 2e3d e20c 73bc 943f 8bbd 4c93 163c
00000240: 2ac3 e83d e207 eb3d 526d d9bb f63b 0ebc
00000250: 94ad 0a3d 54c5 a5bd d7d9 49bd 0a48 e83c
00000260: d709 4abb ea8a 79bd 4176 b1bd c669 723d
00000270: 1ed3 c13d f7ec ce3c 197f b9bd 5b4f 5f3d
00000280: 820a 9d3d f8f5 3b3e 034a 30be 6dcd a0bd
00000290: 057e a13d b2bf e23c 0e2c 28bd 32d8 7abd
000002a0: c3bc 793e 468a 873d 9980 d4bd 3a3e a83d
000002b0: 6403 ebbd 50ae 873c dbc1 e0bd 1c34 3c3e
000002c0: bd9d a13d fd76 91bb d0f4 c53d 210d 133e
000002d0: e35d 0bbe ce4a 38be dddf b3bd 3ab1 9b3e
000002e0: 3da3 1f3e e6c7 89bd 8c24 313d ab89 76bc
000002f0: 8cc0 893e b585 043b ac36 ae3d 30e3 1abe
00000300: 6923 74bd 6cf3 193d 0901 17bd d07c 013d
00000310: decc 79bc 123f 23be 60e9 683d e8c8 14be
00000320: a70a 7b3d 227d 883e 05fb 043e b8ea b6bc
00000330: 7761 ab3d 6492 b4bd fdd9 913d db67 1dbe
00000340: b474 e23d 1f25 1dbe 8760 7d3d 67a0 96bd
00000350: 02e4 b3bd 3dbd eeb9 504a 683e 3192 b3bd
00000360: 3561 4cb9 109a cb3d 9657 613d a992 e3bd
00000370: 4223 3fbe c50d 1c3e 60e8 c9bd 23c8 a53d
00000380: 34ac 183d dc12 b6bd 20ba c73d 74fe 1c3d
00000390: bd4c 9dbc e7e8 3ebc d497 fa3d 047a 293e
000003a0: a844 943d 3f05 153e 7dd5 b7bd 6776 d43d
000003b0: 7e1c 4abd ccfe e6ba 573c e73d d591 8a3d
000003c0: e34b 053c 71ee 273d 400b a3bb b3b6 bbbd
000003d0: 492d a43d 84d2 01be 9e32 a53d 6e23 a13d
000003e0: 7f41 b6bc 526b 31be a17e b3bd 2201 343e
000003f0: 71a0 3bbd f127 623c 6627 9ebd c6bf 4ebd

fc2.bias f4 [32]
-0.007796535 -0.1668424 0.11195272 -0.0722496 0.036330584 0.06403258 -0.029842092 -0.06293404
0.027397348 -0.122765884 0.08035552 0.034702163 -0.1645165 -0.0030511126 0.14456888 0.04371485
0.012187807 -0.08200243 0.09069045 0.15706106 0.15345007 -0.05263029 0.05789413 0.016357725
0.023209749 0.23255052 0.17697933 0.010467337 0.16950577 0.042465493 -0.090850405 -0.14364022
00000000: 137a ffbb bcd8 2abe 7847 e53d 99f7 93bd
00000010: 61cf 143d 8323 833d 6777 f4bc 90e3 80bd
00000020: 6770 e03c ae6c fbbd 6f91 a43d db23 0e3d
00000030: 0377 28be 2df5 47bb dd09 143e 580e 333d
00000040: 5eaf 473c e4f0 a7bd eabb b93d 9dd4 203e
00000050: 0422 1d3e dc92 57bd 6522 6d3d a300 863c
00000060: 5f22 be3c b921 6e3e 123a 353e 327f 2b3c
00000070: ec92 2d3e 4cf0 2d3d c70f babd 6c16 13be

fc3.weight f4 [1, 32]
-0.14818619 -0.04911664 0.041877307 -0.15676007 0.02873939 -0.4528561 0.41337037 -0.032483693
0.09881933 -0.15056194 -0.22473381 0.5164589 0.07094474 -0.04808033 0.23198529 0.19053577
0.15200052 0.054232165 -0.10990242 0.8788039 -0.60205865 0.10575835 0.4849843 -0.11469485
0.22647509 -0.27671212 0.62148774 0.08386279 -0.51987284 0.2691723 0.060774274 -0.016984794
00000000: 1fbe 17be 882e 49bd 8a87 2b3d b685 20be
00000010: df6e eb3c c1dc e7be 48a5 d33e 9f0d 05bd
00000020: ca61 ca3d e92c 1abe 9f20 66be a736 043f
00000030: 7a4b 913d e1ef 44bd 8d8d 6d3e cf1b 433e
00000040: 06a6 1b3e 8c22 5e3d 8514 e1bd 4bf9 603f
00000050: 8420 1abf d597 d83d dd4f f83e 22e5 eabd
00000060: 16e9 673e 36ad 8dbe d219 1f3f 41c0 ab3d
00000070: 6316 05bf f4d0 893e 72ee 783d b223 8bbc
