Networks/6-DDPG-with-target-network-Q-network-tau=0.2.pt (torch, 7551 bytes, 5 tensors)

fc1.weight f4 [32, 4]
-2.0151157 -0.34559238 0.7092 0.3646569 -1.149094 -0.57584906 0.49539173 -0.14661635
-0.33943415 0.4590898 0.22273803 0.7557045 1.7988194 -2.0428846 0.16449378 0.047862377
0.3138041 2.6169684 0.22241022 0.061308853 -0.5325624 -2.9298644 0.7588764 0.4643347
1.9268959 -1.4971863 0.35090882 0.060494963 -0.26180306 0.1354998 0.06847151 0.14127928
1.9932127 0.6684998 0.2267892 -0.13824259 -0.13419032 -1.8602117 -1.6384356 -0.28027147
0.84889597 -0.1578108 -0.22611678 0.0215527 1.3398076 -1.739307 -1.1419454 -0.3023584
-0.55748177 -4.6098547 3.1114452 0.48590702 -0.21928854 -1.4738958 0.19470395 0.7903437
-0.47998837 -5.35075 3.1709673 0.8107168 2.0944114 0.19208162 -0.39690155 -0.1370113
0.65401816 0.38911808 0.33364815 0.5224472 1.3842541 0.6850012 1.4276471 0.4656854
-0.49766433 0.4141795 -0.22527874 0.78738767 0.59304744 -0.024308102 0.8646386 0.6316024
0.40018693 2.7741 -0.08426711 -0.04804886 0.2782379 2.2875106 0.87001187 0.3709559
2.5199428 0.8267364 -1.2262031 -0.5553573 -0.44379014 1.4131942 -0.13740864 0.6999306
-0.112002365 -1.2791328 -1.5505227 -0.123806536 0.8593359 3.6105182 -0.7066166 -0.13289826
-0.14937466 0.083475165 -0.43076 0.21883203 3.0358102 1.8591795 -0.68902516 -0.5108652
-0.08822244 0.26765984 0.043750003 0.30869326 -0.32537988 -2.1748338 0.232382 0.13013917
1.4697387 -0.2007969 0.756645 0.7307437 -0.53551245 0.062050745 0.068552546 0.25433207
00000000: a8f7 00c0 7cf1 b0be 228e 353f 4fb4 ba3e
00000010: 8315 93bf d86a 13bf fca3 fd3e 9922 16be
00000020: 50ca adbe d10d eb3e 7015 643e da75 413f
00000030: b73f e63f 9fbe 02c0 0f71 283e 570b 443d
00000040: eeaa a03e 697c 2740 81bf 633e fe1e 7b3d
00000050: 0256 08bf e682 3bc0 b945 423f 47bd ed3e
00000060: 86a4 f63f cda3 bfbf 52aa b33e 91c9 773d
00000070: 0d0b 86be 76c0 0a3e cb3a 8c3d 84ab 103e
00000080: 9821 ff3f ce22 2b3f 6e3b 683e 778f 0dbe
00000090: 3069 09be 6b1b eebf 42b8 d1bf be7f 8fbe
000000a0: 3f51 593f 2899 21be 288b 67be 4a8f b03c
000000b0: d17e ab3f 9da1 debf 442b 92bf b8ce 9abe
000000c0: 20b7 0ebf ee83 93c0 eb21 4740 cec8 f83e
000000d0: 2d8d 60be 9ea8 bcbf 7960 473e f753 4a3f
000000e0: 09c1 f5be 5839 abc0 21f1 4a40 238b 4f3f
000000f0: d60a 0640 0bb1 443e ae36 cbbe b14c 0cbe
00000100: bc6d 273f 7c3a c73e eed3 aa3e 1abf 053f
00000110: 3d2f b13f 3d5c 2f3f 24bd b63f 516e ee3e
00000120: dccd febe 560f d43e 78af 66be 3d92 493f
00000130: f5d1 173f c921 c7bc f558 5d3f b2b0 213f
00000140: 4de5 cc3e db8a 3140 3c94 acbd e2ce 44bd
00000150: 3375 8e3e 9366 1240 19b9 5e3f efed bd3e
00000160: be46 2140 ffa4 533f 39f4 9cbf e52b 0ebf
00000170: 7638 e3be 8ce3 b43f dab4 0cbe a72e 333f
00000180: 7f61 e5bd a0ba a3bf 8777 c6bf 488e fdbd
00000190: 70fd 5b3f bb12 6740 d3e4 34bf 7b16 08be
000001a0: acf5 18be 07f5 aa3d 938c dcbe 8115 603e
000001b0: b74a 4240 98f9 ed3f f463 30bf 10c8 02bf
000001c0: f7ad b4bd b60a 893e 3433 333d 0b0d 9e3e
000001d0: 3198 a6be 7a30 0bc0 8cf5 6d3e 3443 053e
000001e0: 6620 bc3f b49d 4dbe 7db3 413f 0512 3b3f
000001f0: 5817 09bf ec28 7e3d 4765 8c3d d037 823e

fc1.bias f4 [32]
-1.6622144 -1.2099229 -0.27442297 -1.573218 -0.55427796 1.0078096 -1.7485441 -0.11892363
-0.41174942 0.19738741 -1.4220389 1.0675747 1.5402458 1.035955 0.612534 -2.745223
-1.4423232 0.46970537 -0.20577106 -1.1721286 -0.7000934 -0.3378197 -0.4953698 0.20675959
0.15334783 -1.2973089 -0.40965885 -0.20762858 -0.3877525 0.5882413 -2.517945 -0.49882674
00000000: 71c3 d4bf c1de 9abf 2b81 8cbe 355f c9bf
00000010: 29e5 0dbf e8ff 803f 4bd0 dfbf 3b8e f3bd
00000020: d2d0 d2be ed1f 4a3e 5f05 b6bf 4aa6 883f
00000030: c626 c53f 2c9a 843f 07cf 1c3f bcb1 2fc0
00000040: 0c9e b8bf 397d f03e a6b5 52be 4f08 96bf
00000050: 5239 33bf b4f6 acbe 1ca1 fdbe c9b8 533e
00000060: 3707 1d3e 380e a6bf cebe d1be 969c 54be
00000070: 7f87 c6be fb96 163f 0326 21c0 3866 ffbe

fc2.weight f4 [32, 32]
0.019057604 0.21676604 0.056337066 0.0053597745 0.22548263 -0.034462385 0.13046737 -0.026375258
0.033528 -0.0139487125 -0.24576558 -0.022703476 0.041665744 -0.11126945 -0.0391977 -0.32692063
-0.04617927 -0.3092164 -0.071255945 -0.13627394 0.11507318 0.051145174 0.04231366 -0.19320114
0.23137033 0.019933771 0.050702058 -0.19563009 -0.12863238 0.019358091 -0.29158348 0.15712225
0.013363871 0.040044528 0.036345445 -0.105680116 -0.12328433 -0.042020556 0.17461047 0.05522911
0.14230953 -0.008564029 -0.0031669226 -0.06437953 0.07672518 -0.10476872 0.07129443 -0.19172648
-0.1520402 0.105924 0.09313851 -0.06600962 0.0889884 -0.099138625 0.09421168 0.13049616
0.062333707 0.017818762 -0.15130185 0.07803314 -0.05836175 0.12129858 0.045715388 -0.05464711
-0.04053871 0.15699978 0.10317369 0.02590643 -0.18916807 -0.05015049 -0.16868679 -0.212712
0.08460344 -0.019263437 0.12417085 -0.011534216 0.071014024 0.2070726 -0.019097177 0.08010079
-0.04994478 -0.081434526 0.02668414 0.021907473 0.10836373 -0.20384562 0.30712706 0.0804937
-0.12941512 -0.016602723 -0.0325964 0.101265095 -0.05361683 -0.08103072 -0.061576653 -0.06881688
-0.10327952 -0.07943786 -0.05467534 0.16373019 0.047457643 -0.043116827 0.012512515 -0.16145448
0.0057406574 -0.12941267 0.077449016 -0.0037601148 0.06418497 -0.02531931 0.023133392 0.061407007
-0.118634425 -0.086266585 0.0056095077 0.15010487 0.18216537 0.1896813 0.0072391094 0.06803938
0.051541016 0.07423084 0.12786601 -0.22261082 -0.039458003 -0.13146509 0.098584056 0.08789423
0.06676141 0.021243889 -0.09061176 0.09307848 -0.06456281 0.16085385 0.15617052 0.048373178
0.15731718 -0.043562233 -0.14307418 -0.2428464 0.12946805 0.14145122 -0.11398739 -0.12051657
0.028529614 -0.11456367 0.0817269 -0.25330704 0.15137935 0.24345589 0.067112476 -0.058419198
0.08270342 0.24232645 -0.03312746 -0.0070759067 0.14405288 0.19137494 -0.2688934 -0.14695401
0.10161326 0.14715701 -0.14470136 -0.16435137 -0.16603883 -0.12029037 0.059954405 0.14856444
0.048301052 0.08484902 -0.040739194 -0.07175278 0.11178274 -0.0027874978 0.18907827 -0.15554605
0.0096217785 -0.18756498 -0.001759042 -0.10050984 -0.00037523592 -0.008898782 -0.097252645 0.07259287
-0.004041537 -0.16278946 0.08419186 -0.11909 0.07998077 -0.1782827 0.11827022 -0.0656435
0.14313655 -0.078887574 0.17618091 0.09996189 -0.18456164 -0.078131475 0.18362106 -0.09265809
0.09160502 0.08075169 0.072588146 -0.09603283 0.014318685 -0.12951675 -0.097382665 -0.018469404
0.13179007 0.04264201 -0.13970701 0.02877257 0.11794224 0.07461899 -0.14232436 0.10980188
0.020566517 0.060344808 0.05968957 -0.15365782 0.08441019 -0.02808009 -0.106877595 -0.07089338
0.13906461 0.1120059 0.060717847 0.60949856 0.096663624 0.13238528 0.42731613 0.047955193
0.27302235 0.007442733 -0.1804578 -0.3296794 -0.0055212993 -0.05920299 -0.22851008 -0.5474799
-0.15510383 -0.23295847 -0.04134644 -0.23071368 0.28146976 0.13888678 0.3055267 0.039100733
0.222754 -0.07206546 -0.1523121 -0.32780015 -0.15137187 -0.07450877 -0.31934425 0.13710104
00000000: b11e 9c3c ebf7 5d3e b2c1 663d 0ca1 af3b
00000010: ebe4 663e 6e28 0dbd 3d99 053e ed10 d8bc
00000020: a854 093d 2489 64bc f9a9 7bbe a4fc b9bc
00000030: b3a9 2a3d 3de1 e3bd c48d 20bd 2462 a7be
00000040: 7926 3dbd 9d51 9ebe a3ee 91bd 658b 0bbe
00000050: 7dab eb3d 9a7d 513d 1751 2d3d 85d6 45be
00000060: 58ec 6c3e 264c a33c f6ac 4f3d 4153 48be
00000070: 35b8 03be dc94 9e3c 6e4a 95be a8e4 203e
00000080: 23f4 5a3c bb05 243d f6de 143d d16e d8bd
00000090: 7f7c fcbd bf1d 2cbd 16cd 323e eb37 623d
000000a0: 97b9 113e 2450 0cbc 258c 4fbb 6ad9 83bd
000000b0: 1722 9d3d fc90 d6bd d002 923d f253 44be
000000c0: 6db0 1bbe afee d83d 67bf be3d 0d30 87bd
000000d0: 8d3f b63d 3109 cbbd 0ef2 c03d c9a0 053e
000000e0: a151 7f3d a7f8 913c dfee 1abe d7cf 9f3d
000000f0: bb0c 6fbd 646b f83d 0f40 3b3d a6d5 5fbd
00000100: eb0b 26bd 8dc4 203e ba4c d33d b939 d43c
00000110: 46b5 41be 9a6a 4dbd 3bbc 2cbe 2dd1 59be
00000120: 9144 ad3d 5bce 9dbc 494d fe3d 02fa 3cbc
00000130: cd6f 913d d70a 543e af71 9cbc e20b a43d
00000140: e692 4cbd 25c7 a6bd b398 da3c 4d77 b33c
00000150: ceed dd3d e8bc 50be c23f 9d3e e2d9 a43d
00000160: 6685 04be 6f02 88bc cd83 05bd 1364 cf3d
00000170: 529d 5bbd 6ff3 a5bd cd37 7cbd ddef 8cbd
00000180: 3784 d3bd 51b0 a2bd 40f3 5fbd e3a8 273e
00000190: f262 423d 459b 30bd 4b01 4d3c 5354 25be
000001a0: 201c bc3b c184 04be 979d 9e3d 426c 76bb
000001b0: 6973 833d 716a cfbc 3d82 bd3c ea85 7b3d
000001c0: 9bf6 f2bd 89ac b0bd f6cf b73b 17b5 193e
000001d0: 8f89 3a3e d13b 423e 0d36 ed3b 3b58 8b3d
000001e0: ac1c 533d 5706 983d 4fef 023e 17f4 63be
000001f0: b79e 21bd c99e 06be 70e6 c93d e401 b43d
00000200: 35ba 883d aa07 ae3c a992 b9bd ee9f be3d
00000210: 8239 84bd dfb6 243e 2aeb 1f3e f422 463d
00000220: c117 213e 506e 32bd 0a82 12be baac 78be
00000230: 4693 043e 97d8 103e 3972 e9bd 64d1 f6bd
00000240: f0b6 e93c 5ba0 eabd 6f60 a73d 76b1 81be
00000250: 3003 1b3e 804c 793e 4472 893d f848 6fbd
00000260: 6960 a93d 6d24 783e a9b0 07bd 02dd e7bb
00000270: 9982 133e cbf7 433e 65ac 89be 1d7b 16be
00000280: 9d1a d03d 54b0 163e 982c 14be ba4b 28be
00000290: 1506 2abe cc5a f6bd c092 753d 4721 183e
000002a0: 53d7 453d 53c5 ad3d 24de 26bd 1ff3 92bd
000002b0: 59ee e43d 74ae 36bb bc9d 413e 7747 1fbe
000002c0: aaa4 1d3c 0911 40be a88f e6ba 1ad8 cdbd
000002d0: 50bb c4b9 32cc 11bc 652c c7bd 92ab 943d
000002e0: df6e 84bb 48b2 26be c86c ac3d 75e5 f3bd
000002f0: f5cc a33d bd8f 36be a837 f23d 1970 86bd
00000300: 6392 123e cf8f a1bd c568 343e d2b8 cc3d
00000310: bafd 3cbe 6503 a0bd 2907 3c3e 86c3 bdbd
00000320: 6a9b bb3d 2461 a53d 18a9 943d dcac c4bd
00000330: eb98 6a3c 0aa0 04be 9070 c7bd 264d 97bc
00000340: faf3 063e 63a9 2e3d 5b0f 0fbe 74b4 eb3c
00000350: b38b f13d d7d1 983d 7abd 11be cfdf e03d
00000360: 1d7b a83c 1e2c 773d 0d7d 743d 7a58 1dbe
00000370: 40df ac3d 3808 e6bc a4e2 dabd 8c30 91bd
00000380: f466 0e3e 5963 e53d 47b3 783d 1908 1c3f
00000390: 94f7 c53d 0290 073e 2ec9 da3e aa6c 443d
000003a0: 96c9 8b3e 2be2 f33b eec9 38be bdcb a8be
000003b0: 04ec b4bb d67e 72bd 8cfe 69be a527 0cbf
000003c0: 8ad3 1ebe aa8c 6ebe e25a 29bd 3540 6cbe
000003d0: ce1c 903e 5638 0e3e ff6d 9c3e 1728 203d
000003e0: a019 643e 0e97 93bd b4f7 1bbe 6cd5 a7be
000003f0: 3a01 1bbe 0e98 98bd 1781 a3be 3764 0c3e

fc2.bias f4 [32]
1.5430702 0.7305905 -0.020546423 -0.18922962 1.5692619 -0.065115824 -0.15621501 4.5192904
4.815371 0.07481495 0.009081862 2.1318288 -0.23108116 6.8099427 -0.24320275 -0.06059647
-0.03929872 0.15684035 0.19849144 6.9792633 5.6836567 11.84299 4.836204 0.5369638
12.793183 2.2021875 8.235637 0.07123449 0.11816072 0.008550583 10.149477 0.8713393
00000000: 5383 c53f fb07 3b3f f950 a8bc 69c5 41be
00000010: 93dd c83f 725b 85bd d4f6 1fbe 079e 9040
00000020: 8517 9a40 9538 993d 17cc 143c e26f 0840
00000030: 8aa0 6cbe 0deb d940 240a 79be 0134 78bd
00000040: b2f7 20bd c29a 203e 5741 4b3e 2056 df40
00000050: 84e0 b540 e37c 3d41 2fc2 9a40 7676 093f
00000060: e1b0 4c41 a4f0 0c40 2bc5 0341 63e3 913d
00000070: 3ffe f13d bf17 0c3c 4264 2241 1810 5f3f

fc3.weight f4 [1, 32]
-0.9939369 -0.40290207 0.40274954 0.26113516 -0.98708016 -0.124521814 -0.07638439 -2.799744
-2.9434738 0.3116075 -0.0915687 -1.3032398 0.4366851 -4.277587 0.4241849 -0.007552163
0.09163173 0.35933664 -0.55249983 -4.324437 -3.5490336 -7.2983265 -3.0179276 -0.5350508
-7.9126906 -1.3414037 -5.073985 -0.2668837 -0.10320687 -0.16146275 -6.268084 -0.768547
00000000: a672 7ebf 2e49 cebe 3035 ce3e 82b3 853e
00000010: 49b1 7cbf 4b05 ffbd 6b6f 9cbd 012f 33c0
00000020: e061 3cc0 058b 9f3e 5f88 bbbd 90d0 a6bf
00000030: 3095 df3e fee1 88c0 c32e d93e 2378 f7bb
00000040: 6ba9 bb3d f9fa b73e a170 0dbf ca61 8ac0
00000050: 5e23 63c0 e48b e9c0 ba25 41c0 17f9 08bf
00000060: c334 fdc0 1eb3 abbf 165e a2c0 fba4 88be
00000070: 205e d3bd 7e56 25be 2594 c8c0 7fbf 44bf
