Networks/6-DDPG-with-target-network-policy-network-tau=0.2.pt (torch, 7463 bytes, 5 tensors)

fc1.weight f4 [32, 3]
000000 29 49 01 bf 9a 56 81 bd 57 dc 2a 3f e8 ee 65 bd
       -0.5050226 -0.06315346 0.6674246 -0.056136042
000010 af ab 16 3f 2d af 17 bf dd ea cf 3e 60 fa 5e 3e
       0.5885572 -0.5925167 0.40608874 0.21775198
000020 59 4a a6 3e 4d 34 95 be 63 8c b5 3d cb a7 ef be
       0.32478598 -0.29141465 0.08864667 -0.46807703
000030 69 85 1c 3e 13 19 a3 3e b2 3f 3d 3e 10 61 c1 be
       0.15285267 0.31855068 0.18481329 -0.37769365
000040 ea e6 b5 bd 9c 4f b6 be 50 dd fa bd 16 81 28 3f
       -0.08881934 -0.35607612 -0.12249243 0.6582197
000050 ce 6b 04 be ba e5 d1 3d 60 4f 34 bf da e0 ac 3e
       -0.12931749 0.10248895 -0.70433617 0.33765298
000060 55 31 f2 3e ee ea 47 3f 16 09 c4 be 99 8f cc be
       0.47303262 0.7809285 -0.38288182 -0.39953306
000070 4c 8a 12 3f 68 7b 1f be 2f c0 89 3d e8 c0 07 3f
       0.57242274 -0.1557442 0.06726109 0.53028727
000080 2e f6 11 3f d5 e8 82 be a7 2b 3d 3f c5 cf f4 be
       0.57016265 -0.25568262 0.73894733 -0.47814766
000090 48 80 a8 3e 6f de 44 be 85 07 9d 3e a8 de cb 3d
       0.3291037 -0.19225477 0.306698 0.09954578
0000a0 21 3a 99 3e be e9 07 3f ed 3b c4 be 48 71 5a 3e
       0.2992716 0.5309104 -0.3832697 0.21332276
0000b0 95 da 24 3e 90 85 04 3f f5 69 b6 3e ad d0 4e 3e
       0.16099007 0.517663 0.35627714 0.20196791
0000c0 bc 25 f5 3e ea 5d 80 3d 99 9a e7 3e 4c 8e 6f be
       0.47880352 0.06267913 0.45235136 -0.23394126
0000d0 ab 18 c7 be 9b 1f 13 be 33 57 2a bf 9e ce a5 be
       -0.38886008 -0.14367525 -0.66539305 -0.323842
0000e0 32 c6 4e 3e 3f 16 b0 3e e0 f1 47 3d 91 dc 0a bf
       0.20192793 0.34391972 0.048814654 -0.5424281
0000f0 4f 98 d0 3e 13 2f c3 bd 25 fb 09 3f 2e 54 2e be
       0.40741202 -0.09530463 0.5389884 -0.170243
000100 8c b1 09 bf ef 12 a3 3d 84 07 ad be d3 4a 88 3d
       -0.5378654 0.07962596 -0.33794796 0.066548966
000110 b9 a7 7e 3d 80 1a 88 3e c5 42 e2 3e f1 1c 1f bf
       0.06217167 0.26582718 0.44191566 -0.62153536
000120 c7 51 19 3f 1a 39 98 3c b0 59 24 bf 38 94 dd bd
       0.5989041 0.018581916 -0.6419935 -0.10819286
000130 82 42 b1 be d0 a8 15 be e0 ba ef be 1d 0b ca 3e
       -0.34621054 -0.14615178 -0.46822262 0.39461604
000140 d2 56 f6 3d a1 3d e1 3e bf e2 cb 3e 52 ea cf bd
       0.120282784 0.43992332 0.3982143 -0.10152115
000150 ed 89 5b be 55 58 b1 3e 85 b0 43 be 21 ff 22 bf
       -0.21439333 0.34637704 -0.19110306 -0.63670546
000160 1c eb 0d bf c5 06 2f 3f 9b 9c 5c be 5d c8 fd be
       -0.55436873 0.68369704 -0.21544115 -0.49566928
000170 66 d7 0f 3e 94 44 98 3d 41 27 f8 3e b7 41 93 3d
       0.14047012 0.07434955 0.48467448 0.071902685

fc1.bias f4 [32]
000000 52 04 98 be f1 9f e9 3e 2b 35 1f be f7 99 ec 3e
       -0.29690796 0.45629838 -0.15547626 0.46211216
000010 1e 31 2b bd f7 e3 d3 bc 36 02 b6 3d 5c 2b c7 3e
       -0.04179489 -0.025865538 0.088871405 0.38900268
000020 47 79 e0 3e a3 c4 b1 3e 21 f9 c5 be d1 a0 2a be
       0.43842527 0.34720334 -0.38666633 -0.16662909
000030 8a 1c be be 6a 4b 10 3e fd ad f4 be 9a 84 13 3e
       -0.3713115 0.14091268 -0.47788993 0.14406052
000040 13 0e 21 be 9a 0c 74 3e ff 52 e7 3e 49 47 90 be
       -0.15728025 0.23832932 0.45180508 -0.28179386
000050 f5 22 0e 3f ca cb 11 be 21 cc 91 3e 58 bf ae be
       0.5552209 -0.14237896 0.2847605 -0.3413036
000060 56 bc 15 be b0 09 bb be ba e0 0c 3f cd d4 20 3d
       -0.14622626 -0.36530828 0.55030406 0.039265443
000070 1b 95 0c bf 3d 54 8b 3e ce 0e cf be 8b 00 0e 3e
       -0.54915017 0.27212706 -0.40440983 0.13867395

fc2.weight f4 [32, 32]
000000 db 9a 12 3e ef 1e ed bd ad a9 4b bd fc 4f 48 be
       0.14316885 -0.11578166 -0.049722362 -0.19561762
000010 88 ae 8f 3d 86 4c e8 bc 25 4a bf 3d 3d 5a 86 bd
       0.07015711 -0.028356802 0.09340314 -0.0656018
000020 2a 6b 4a be 28 a9 f7 3d bc 36 7e 3d b9 7e 36 be
       -0.19767442 0.12092811 0.062063918 -0.17821778
000030 b0 40 17 3e 19 09 43 3e 4c fe 9a 3d 19 9f 7a bd
       0.1477077 0.19046439 0.075680345 -0.061186884
000040 b6 0d 13 be 54 c8 78 3d 3b d3 91 bd fc 55 36 bb
       -0.14360699 0.060737923 -0.07120367 -0.0027822247
000050 6d ee 56 bd 2b d7 e6 bd 84 25 60 3c 1a 30 b4 bd
       -0.052473474 -0.11271509 0.013680819 -0.08798237
000060 dd 61 39 3d 5e 93 19 be 25 7c 28 3e 66 25 15 be
       0.045259345 -0.14997622 0.16453607 -0.14565048
000070 16 04 3b 3d 00 40 68 3e 59 93 cb 3c f7 6f eb 3d
       0.045658194 0.22680664 0.024850534 0.11495965
000080 37 fb 4d be e6 a0 75 3e e8 79 5f 3d e9 80 02 3c
       -0.20115362 0.23987159 0.05455962 0.007965305
000090 2e 52 e6 3d 1f 80 98 bd 1b 69 50 3e 58 fa 37 3d
       0.11246143 -0.07446312 0.20352595 0.04491648
0000a0 79 c9 a3 3e 19 b2 1c bd 76 f2 f1 bd 63 54 65 3e
       0.3198965 -0.038255785 -0.11813824 0.22395472
0000b0 56 b5 ef bd 50 f0 37 3b d8 4a bc 3c 24 87 01 be
       -0.11704509 0.0028066821 0.022984907 -0.12649208
0000c0 a0 d8 cf bd d8 b5 5f 3d d2 20 2a be dc 1e 69 3e
       -0.1014874 0.05461678 -0.16614082 0.22765678
0000d0 e4 1e 46 be 77 c2 1c be 95 7e 0b 3e f4 2d 62 3e
       -0.19347721 -0.15308557 0.13622506 0.22087842
0000e0 8f 2b 09 ba 40 35 1e be 7f e3 d3 bd c7 67 02 be
       -0.0005232626 -0.15450001 -0.10346126 -0.127349
0000f0 2d 13 00 3e 53 b3 80 bd 7b 3b 4f 3d 39 5b c8 3d
       0.12507315 -0.062842034 0.050593834 0.09783024
000100 0d 76 37 3e 7b ca 02 be 99 74 14 bc 04 10 30 3d
       0.17916127 -0.12772553 -0.009061002 0.042984024
000110 77 7f d9 3b 98 45 10 3e f5 a6 02 be a7 83 aa 3d
       0.0066375094 0.14089048 -0.12759002 0.08325892
000120 af 2a ec 3c 0d 99 2c 3b 0a 2c 31 3d 5b c3 e9 bd
       0.028828947 0.0026336343 0.04325489 -0.11414214
000130 99 37 d5 bd d5 03 49 bb a6 35 c1 3d 8a 5c 3e 3d
       -0.10410995 -0.003067245 0.09434061 0.04647497
000140 97 f4 a3 3d bb 17 03 3e c2 ba 34 3e 2e 75 53 bd
       0.08005636 0.12802021 0.17649367 -0.051625423
000150 df 87 51 3d 4e 32 c4 bd a3 8d 25 be 6a fa 9f 3d
       0.051154967 -0.09579907 -0.16167311 0.078114346
000160 e2 ab b3 bd 89 2c 72 3d 71 35 11 3e 39 7b 21 3e
       -0.087730184 0.059124503 0.14180543 0.15769662
000170 b7 0f 90 bd 34 d0 bd bd e2 73 77 3d 20 81 be 3d
       -0.07034247 -0.09268227 0.06041325 0.093019724
000180 d2 cd 28 be ec 32 1e be 5f e3 33 be ac e4 0a 3e
       -0.16484764 -0.15449113 -0.17567204 0.13563794
000190 3c 13 14 3e 06 ba 4d 3d c0 32 00 bd 91 2d 87 3a
       0.14460462 0.050226234 -0.0312984 0.0010313262
0001a0 af eb 10 3e 2b ae 09 be 25 85 43 3d cf 54 2a 3e
       0.14152406 -0.13445346 0.0477344 0.16633914
0001b0 c1 d8 b6 bd ab 68 63 3d 1b dd ae 3d bd c6 fd bc
       -0.08928061 0.05551974 0.08538266 -0.030978555
0001c0 4e 8f e9 bc 82 fd 08 3e 96 b3 b7 bc d4 2e ed 3d
       -0.028510716 0.13377956 -0.0224245 0.115811974
0001d0 2e c5 0f 3e 21 81 d5 bd 63 64 5d 3d 6c cb ef 3c
       0.14040062 -0.1042502 0.054050814 0.029271804
0001e0 5e 9b ad bd bd 31 8d bd d6 5a fd bc a7 69 10 3d
       -0.084768996 -0.068942524 -0.030927103 0.035257008
0001f0 2f 75 c6 3a ca 28 26 be b7 fd 16 3c ab 24 3b bb
       0.0015141125 -0.16226497 0.009215764 -0.0028555791
000200 2f 9f 0c be 05 2c ef 3d 88 bc 2d be 2b e6 6a bd
       -0.13732599 0.11678318 -0.1696645 -0.05734841
000210 25 45 62 bc da 36 2a 3e 21 a7 24 be 94 2c 25 be
       -0.013810431 0.16622487 -0.1607938 -0.16130286
000220 d8 13 80 3c 25 50 23 be 2e f7 48 bd 7f 0d dc bd
       0.015634462 -0.15948541 -0.049063854 -0.10744762
000230 0b 06 cd 3c cc 0d 1b 3e d0 82 e4 3b ce ed c9 3d
       0.025027296 0.15141982 0.006973602 0.09859811
000240 35 77 2d 3e fe b1 81 bd 06 bb 89 3d 68 ea 09 be
       0.16940005 -0.063327774 0.06725125 -0.13468325
000250 e2 db 2b 3d cf 49 37 3b 18 53 dd bd 68 a8 24 3e
       0.041957743 0.0027967577 -0.108068645 0.16079867
000260 3d 85 ff bd c4 fb c5 3d f5 dd 11 3d 6c 38 c4 3d
       -0.12476585 0.09667161 0.035612065 0.09581074
000270 12 6f 19 3e 98 b5 0a 3e 70 40 06 bd 10 4a 35 3d
       0.14983776 0.13545835 -0.032776296 0.044260085
000280 c3 28 01 be 31 1e 0f 3e fb 35 2a bd 53 7b 03 3e
       -0.12613206 0.13976361 -0.041555386 0.12840013
000290 89 15 12 3e cf a6 e7 3d 92 ce 21 bc 29 03 a2 3d
       0.14266028 0.11311113 -0.00987591 0.07910759
0002a0 df 3f af 3d fc 58 18 3e 9c e4 02 bd 65 6c b1 bd
       0.08557104 0.14877695 -0.0319563 -0.08663253
0002b0 83 43 a7 3b 27 e6 32 3d 6f 6c f0 3d cd 82 6f 3d
       0.0051044836 0.04367652 0.11739432 0.05847435
0002c0 ec f7 33 be 7f f6 96 3c 0e b7 02 be bb 86 2f 3d
       -0.17575043 0.018428085 -0.12765142 0.0428531
0002d0 aa 42 cf 3c 57 0e e8 bd c0 73 75 bd a4 21 59 bd
       0.025300343 -0.1133086 -0.05992484 -0.053010598
0002e0 13 b9 ea 3b 1b bc c0 bd e0 ec 14 3e 50 21 89 bc
       0.007163176 -0.09410878 0.14543486 -0.016739517
0002f0 b1 28 73 3d b6 c4 f8 3c c6 9e 9a bd da 86 ed 3c
       0.05936498 0.030367237 -0.07549815 0.028994966
000300 aa 1f 8d 3e a2 b1 18 be 4f c5 67 bc 3d 53 2c bd
       0.2756322 -0.14911512 -0.014146163 -0.04207157
000310 46 c8 d1 bc fe ae ab 3d 64 9f 3f bd 4c ef 04 3e
       -0.025608193 0.083829865 -0.046782866 0.1298191
000320 83 c1 ad bd ff a8 e7 b9 57 0a 19 3e d4 fc 6c be
       -0.08484175 -0.00044185665 0.1494535 -0.23143321
000330 4f fb ae bd 5a 7d fd ba d7 b6 d8 bc 78 a7 16 be
       -0.08544027 -0.0019339726 -0.026454372 -0.14712322
000340 bc d2 1a 3e f0 ea 5d 3c 94 99 a2 3e 87 55 68 3d
       0.15119451 0.013544783 0.31757796 0.05672219
000350 0b b9 1a bd 71 30 a7 3c d5 39 7e bd 05 57 28 be
       -0.037774127 0.02040884 -0.06206687 -0.16439445
000360 fb 8a 45 be 79 36 1a 3e 1e e8 ee 3d a8 fa 88 bd
       -0.19291298 0.15059842 0.116653666 -0.06688434
000370 80 e6 e2 bd 4a 1b 47 3e 5b 2f df bd d9 e4 75 3c
       -0.11079121 0.19444004 -0.10897704 0.015008175
000380 6b 8c 6b 3d ef 22 54 bd 14 16 2f 3e 15 c6 49 bd
       0.05750696 -0.051791128 0.17098266 -0.04926117
000390 65 10 9b bc 7a aa fb 3d dc 05 e5 3d db 5d 50 bd
       -0.018928716 0.12288375 0.11182758 -0.050870758
0003a0 4e c2 dd 3c 59 24 9f bd cf 11 86 bd ed eb 49 bd
       0.02707019 -0.07770605 -0.065463655 -0.049297262
0003b0 ca 09 34 bd 6c a2 21 bd 5a 00 46 bd 83 f4 0b 3e
       -0.043954648 -0.03946154 -0.04834018 0.13667493
0003c0 6e 94 bb 3d b8 f3 e1 3d 76 4d 31 bd 5a 5d 9c 3c
       0.0915917 0.11032814 -0.043286763 0.019087482
0003d0 c0 c8 f2 bd 81 5f 93 3d 39 90 e0 bd ee 8a bb 3d
       -0.11854696 0.0719595 -0.10965008 0.09157358
0003e0 dd 23 af bd 07 6f b5 bd 7d a3 70 3d f5 7b ba 3d
       -0.08551762 -0.088590674 0.058749665 0.09105674
0003f0 93 ab 0d bd c4 0d a2 bd 8c 31 b8 3d 9f 6a e1 3c
       -0.034587454 -0.07912782 0.08993825 0.027516661

fc2.bias f4 [32]
000000 90 0f ae 3d cb 11 1d 3e 2e 4f 07 be 34 f1 84 bd
       0.08499062 0.15338819 -0.13213798 -0.06491318
000010 f6 ba b3 bd 35 99 31 be fb a6 86 3e 85 d3 03 be
       -0.08775894 -0.173436 0.2629927 -0.12873657
000020 a9 96 02 be 54 5f 87 bd e0 d8 97 3d 1f 4b 53 3e
       -0.12752785 -0.06609979 0.074144125 0.20634125
000030 61 b2 22 bd 25 58 03 3e 3c 88 a2 bd 5d 98 50 3e
       -0.039720897 0.12826593 -0.07936141 0.20370622
000040 39 81 79 3e f9 b3 b5 3d 8d e1 7e 3e b6 76 9f bc
       0.24365701 0.08872218 0.24890728 -0.019465785
000050 a8 ff 3b be df 3f a2 3d 07 c1 e7 3b 50 fa b7 3d
       -0.18359244 0.07922339 0.007072571 0.0898329
000060 d8 3d 9c bd b1 66 9b bd 88 cb 49 bc 17 93 20 be
       -0.07628983 -0.07587946 -0.012316592 -0.1568111
000070 18 a7 e6 3b b9 28 ae bc d3 e3 ca bd d4 fd ca 3d
       0.007038962 -0.021259652 -0.09906735 0.09911695

fc3.weight f4 [1, 32]
000000 25 50 8f be a6 5c 04 3f 16 66 3f be 6b cb 84 3d
       -0.27990833 0.5170387 -0.18691286 0.064841114
000010 ab 12 a2 3d 35 5e ce 3d d4 62 0b bf 8b 76 2e 3e
       0.07913717 0.10076562 -0.54447675 0.17037408
000020 41 ee ff 3e b8 49 03 be ce 49 13 be af e3 d1 be
       0.4998646 -0.1282109 -0.14383623 -0.4099402
000030 d2 ae 4c be e8 1b 09 3e 34 34 0e 3f 33 05 05 bf
       -0.19988564 0.13389552 0.55548406 -0.5196106
000040 2a f6 7c bf e2 d3 f6 bc f0 58 45 bf d6 ef cc bd
       -0.98813117 -0.03013033 -0.7708883 -0.100066826
000050 82 9d 03 3e 6f f7 69 bd 80 ef 8d be 56 96 88 bc
       0.12853053 -0.057120737 -0.27721786 -0.016673248
000060 99 9d 56 bc 7c c1 00 3e c5 cb ae 3e 53 45 fe bd
       -0.013099098 0.12573808 0.3413984 -0.12415566
000070 2a 5b 74 3c 73 19 12 3f e0 c5 18 3d 66 12 bc be
       0.014914313 0.5707008 0.037298083 -0.36732787
