Networks/6-DDPG-with-target-network-Q-network-tau=1.0.pt (torch, 7551 bytes, 5 tensors)

fc1.weight f4 [32, 4]
0	0xbe903859	-0.2816799
1	0x3ee9da82	0.4567452
2	0xbf5c8b06	-0.8614963
3	0xbf7c7229	-0.98611695
4	0x401d8a48	2.461565
5	0x4018f5e8	2.390009
6	0xbed0ca29	-0.40779236
7	0xbe140203	-0.14453892
8	0x3e0966a4	0.1341806
9	0x3fa7964c	1.3092742
10	0x3e1c600a	0.15271011
11	0xbedade70	-0.4274783
12	0x3fa4f301	1.2886659
13	0xc0627bfb	-3.5388172
14	0x3fb9e0b5	1.45217
15	0x3eb0b069	0.3450959
16	0x3f277dcb	0.6542632
17	0x3f4e1410	0.8049936
18	0x3c96856a	0.018374164
19	0xbdbd1523	-0.09232547
20	0x3f440f35	0.76585704
21	0x3f92239d	1.1417118
22	0xbe9c5c37	-0.30539104
23	0xbc00c0d5	-0.007858475
24	0xbf63552e	-0.8880185
25	0x3f4f2605	0.8091739
26	0x3eba8844	0.36432087
27	0xbeef0a57	-0.46687576
28	0xc052d4a1	-3.2942278
29	0x40203832	2.50343
30	0xbea9bbed	-0.33151188
31	0x3ec4f5d6	0.38468808
32	0xbf573062	-0.840582
33	0xc04094b1	-3.0090754
34	0xbc9885fb	-0.018618574
35	0xbf35fc5b	-0.7108819
36	0x3dfa8ee4	0.122342855
37	0xbe5d6ca8	-0.2162348
38	0x4041fda0	3.031105
39	0x3ebd3fd2	0.36962754
40	0xbdb9f6df	-0.0908029
41	0x3e9efa93	0.31050548
42	0xbc9c5702	-0.019084457
43	0x3dafb4de	0.085794196
44	0x3fb7f471	1.4371473
45	0xc0153b2c	-2.3317366
46	0x3e6fe745	0.23428066
47	0x3ec7b19e	0.390027
48	0x400c3707	2.1908586
49	0x401ba1aa	2.4317422
50	0xbf0c687b	-0.54846925
51	0xbf05aae6	-0.52213895
52	0x3fbfde75	1.4989763
53	0xc0634017	-3.5507867
54	0x3f56d487	0.8391804
55	0xbee95dc3	-0.45579347
56	0xbf234b99	-0.6378723
57	0xbecc1a91	-0.3986402
58	0xbfa94c48	-1.3226404
59	0x3e7f7933	0.24948578
60	0x3ebacedf	0.36485955
61	0x3ece14f3	0.40250358
62	0xc0171da1	-2.3611834
63	0xbf73dace	-0.95255744
64	0x3f3fa913	0.7486736
65	0xc067db9f	-3.6227796
66	0xbfa255f6	-1.2682483
67	0xbf3d88a0	-0.740366
68	0x40461370	3.0949364
69	0x3f80a988	1.0051737
70	0x3f871e37	1.0556096
71	0x3ef6e320	0.48220158
72	0x3f93014a	1.1484768
73	0x3e65b57e	0.22432515
74	0x3e096ed1	0.1342118
75	0xbe7de7e7	-0.24795495
76	0xbe4a9e75	-0.19787009
77	0x3f470dab	0.7775523
78	0xbe21f34f	-0.15815471
79	0xbe8027b4	-0.2503029
80	0x3f89ed5d	1.0775563
81	0x3f9a4faa	1.2055562
82	0xbfa2c46b	-1.2716192
83	0xbee44f05	-0.44591537
84	0x3fa373ee	1.2769754
85	0x3f8f945a	1.1217148
86	0x3e683afb	0.2267875
87	0xbf7c9a37	-0.98672813
88	0x3fad1510	1.3522053
89	0xc09764dd	-4.7310624
90	0x3eef13a7	0.4669468
91	0x3e382985	0.17984588
92	0x3d973984	0.07384017
93	0xbe7dbb22	-0.24778417
94	0x3e4f5fdb	0.2025141
95	0x3cae426b	0.021271905
96	0x3f16b8f2	0.58875954
97	0x3e42bbd2	0.1901696
98	0x3e823b33	0.2543579
99	0x3ec2ca5f	0.38045022
100	0xbfac753e	-1.347328
101	0xbfa0e13f	-1.256874
102	0x3e302d11	0.17204691
103	0x3c67dfec	0.014152508
104	0xbedd5b14	-0.4323355
105	0xbf5c6f8d	-0.86107713
106	0x3f90644a	1.1280606
107	0xbf3dd3cf	-0.7415132
108	0x3f901213	1.1255516
109	0xc03063b5	-2.7560856
110	0x3f1fbe11	0.62399393
111	0x3f0b8798	0.54503775
112	0x4025f2d4	2.592946
113	0x3f8d9840	1.1062088
114	0xbeac458a	-0.33646804
115	0xbeba29d0	-0.36360025
116	0xbe866630	-0.26249838
117	0x3f23ace4	0.63935685
118	0xbf493204	-0.7859194
119	0xbf9be4fe	-1.2179258
120	0x3f41ead2	0.7574893
121	0x3de026d4	0.10944906
122	0x3e3949b9	0.18094529
123	0x3d8b4bf5	0.06801597
124	0x3ffefe94	1.9921441
125	0xbe53b21a	-0.20673409
126	0x3f4f8e89	0.81076866
127	0x3dd655ab	0.104655586

fc1.bias f4 [32]
0	0x3f34cdfc	0.7062681
1	0xbe8bbafa	-0.2729109
2	0x40410c86	3.0163894
3	0xbef8fa52	-0.4862848
4	0x3ffdff04	1.984345
5	0x4034d64e	2.8255801
6	0x3fbf20aa	1.4931843
7	0x407724e8	3.8616276
8	0x3f34b7a3	0.7059271
9	0xbe73cf37	-0.23809515
10	0xbeef7267	-0.4676697
11	0xbf536ade	-0.8258494
12	0xc033c68a	-2.8089929
13	0xbf83f384	-1.030869
14	0x408dc900	4.430786
15	0x3ced5254	0.028969921
16	0xbd8b633d	-0.068060376
17	0xbf689568	-0.90852976
18	0x3fd94b5a	1.697612
19	0x3f9cd6ea	1.2253087
20	0xbff9cc06	-1.9515388
21	0x4053595d	3.3023293
22	0xbef7a414	-0.4836737
23	0xbeb3e220	-0.35133457
24	0x3fb39365	1.4029356
25	0x3fc02351	1.5010778
26	0xbfa24059	-1.2675887
27	0xbecebc61	-0.40378097
28	0xbfbbf61b	-1.468448
29	0x3f03561a	0.51303256
30	0x3fbeaf8b	1.4897321
31	0xc0661ffd	-3.5957024

fc2.weight f4 [32, 32]
0	0xbe4d30ce	-0.20038149
1	0x3e127a86	0.14304551
2	0x3c657c60	0.014006704
3	0x3e0f3f2d	0.13988943
4	0xbca1940d	-0.019723916
5	0x3cbd9fa2	0.023147408
6	0x3d3246d3	0.043524574
7	0x3e1de96d	0.15421076
8	0x3d322eae	0.04350155
9	0x3ca83c46	0.020536553
10	0x3d3d6167	0.04623547
11	0xbbaaa7b9	-0.0052079824
12	0x3d59bc2c	0.05315797
13	0x3e7bc1d5	0.2458566
14	0x3e923187	0.2855341
15	0xbd917fa0	-0.07104421
16	0x3e36c8e4	0.17850071
17	0x3ea53820	0.32269382
18	0xbd8de6c5	-0.069287814
19	0x3d750f15	0.059828836
20	0xbe97cbe0	-0.29647732
21	0xbdc3e123	-0.09564426
22	0x3e30b838	0.17257774
23	0x3d850100	0.06494331
24	0x3e540d9f	0.20708321
25	0x3dea8694	0.1145145
26	0x3e18e283	0.14930157
27	0xbc3bb234	-0.011456061
28	0x3cfe7224	0.031060286
29	0x3dddc295	0.10828129
30	0x3e30e24b	0.17273824
31	0xbe6a65e1	-0.22890426
32	0xbea96d50	-0.3309121
33	0x3f11dd63	0.56978434
34	0x3ecdd1cb	0.40199122
35	0xbdb0874a	-0.08619554
36	0x3e1781a5	0.14795549
37	0x3c1b7415	0.009488125
38	0x3df30344	0.11865857
39	0x3f4cfce2	0.8007337
40	0x3e5c602b	0.2152106
41	0x3e38c484	0.18043715
42	0xbd83264e	-0.064037904
43	0x3ea17fa6	0.315427
44	0x3f101a0c	0.56289744
45	0x3ee812c1	0.45326808
46	0x3ee17f43	0.44042405
47	0xbf06f699	-0.5272003
48	0x3eaa0a03	0.33210763
49	0x3e76fabc	0.24119085
50	0xbe1dc0b5	-0.15405543
51	0xbda1fbfd	-0.07909391
52	0xbedbaf2a	-0.42907077
53	0x3e10b51f	0.14131592
54	0x3efe6069	0.4968293
55	0xbba41e5c	-0.005008502
56	0x3e4ebf82	0.20190242
57	0x3e74298d	0.23843975
58	0xbd3092d5	-0.04310878
59	0x3ea8bd4c	0.32956922
60	0x3ec2054f	0.37894675
61	0xbdf39d98	-0.11895293
62	0x3e71cd66	0.2361351
63	0xbf0637de	-0.52428997
64	0xbdbfa8c8	-0.09358364
65	0xbc1e88ff	-0.009676217
66	0xbde47825	-0.11155728
67	0x3e4aca42	0.19803718
68	0xbd6c3936	-0.057671748
69	0xbdf78661	-0.120861776
70	0xbdf818fa	-0.12114139
71	0xbd1eb2e9	-0.03874484
72	0x3d839219	0.0642435
73	0x3dfbca26	0.12294416
74	0x3d9fb5c3	0.0779834
75	0x3e3f1817	0.18661533
76	0x3e0636fa	0.1310691
77	0x3e632d0c	0.22185153
78	0xbd384ff9	-0.044998143
79	0xbd0a5cc6	-0.033779882
80	0x3e664e6d	0.22490855
81	0xbcf58c6f	-0.02997419
82	0x3d4004ad	0.04687946
83	0xbe0fe047	-0.14050399
84	0xbd87525f	-0.06607508
85	0x3cd20ce2	0.025640909
86	0x3ce329b2	0.027729843
87	0x3d327119	0.04356489
88	0xbe0b50b2	-0.13605002
89	0x3e382865	0.1798416
90	0xbab3a09e	-0.0013704484
91	0x3e39c6b5	0.18142207
92	0x3e095198	0.13410032
93	0xbb8e5ce8	-0.0043445714
94	0x3db3fc84	0.08788398
95	0x3e11e06f	0.14245771
96	0xbd456de5	-0.048200507
97	0x3cbc92ae	0.023019161
98	0xbd42f067	-0.047592547
99	0x3d284a3c	0.04108642
100	0xbda7aeb2	-0.08187617
101	0x3d779b82	0.06045104
102	0xbde12c2f	-0.109947555
103	0xb8cc8b7f	-9.753461e-05
104	0xbdb87ee6	-0.09008579
105	0x3ce90e55	0.028449217
106	0x3df57761	0.1198566
107	0xbd737fa4	-0.0594479
108	0x3ded6590	0.11591637
109	0xbde66669	-0.11250002
110	0xbe2906db	-0.16506521
111	0x3da8454e	0.08216344
112	0x3dab6323	0.08368518
113	0x3e672f14	0.22576553
114	0x3de77ab3	0.113027
115	0xbe28b469	-0.16475071
116	0xbdf34b4b	-0.11879595
117	0x3d97e9f2	0.074176684
118	0xbd2c9d7f	-0.042142387
119	0x3b8761cf	0.0041315327
120	0xbe149af9	-0.14512242
121	0xbe25dc23	-0.16197257
122	0xbe07be55	-0.132562
123	0x3d491311	0.04909045
124	0x3e43fcc8	0.19139397
125	0xbdbaa06d	-0.0911263
126	0xbe08ef24	-0.13372475
127	0xbe04abad	-0.12956114
128	0xbea34596	-0.31889027
129	0x3f2a1830	0.6644316
130	0x3e9cb4bc	0.3060664
131	0xbd0981a9	-0.03357092
132	0x3e8d045a	0.27542382
133	0x3d030d3a	0.031995036
134	0x3e2cd699	0.16878738
135	0x3f433225	0.7624839
136	0x3dedb261	0.11606289
137	0x3eb14c52	0.3462854
138	0x3d271147	0.04078796
139	0x3e2e4996	0.17020258
140	0x3eee88ad	0.4658865
141	0x3ea0f29c	0.31435096
142	0x3ebdebac	0.37093866
143	0xbeae1856	-0.34002942
144	0x3edb9ba3	0.4289218
145	0x3ec08017	0.37597725
146	0x3d95375c	0.072859496
147	0x3e5ea519	0.21742667
148	0xbe93ea2c	-0.28889596
149	0x3e98edcf	0.29868934
150	0x3f1afb3b	0.605396
151	0xbc72e465	-0.014824961
152	0xbc1f0e7f	-0.009708046
153	0x3e89b3a7	0.26894876
154	0xbdf2cca0	-0.11855435
155	0x3e23ac95	0.15983804
156	0x3ebe8e97	0.37218162
157	0xbdbda0d9	-0.09259195
158	0x3e047a49	0.12937273
159	0xbf3196b6	-0.6937059
160	0xbe9cb653	-0.30607852
161	0x3f5c6b7d	0.86101514
162	0x3ec1142a	0.37710696
163	0xbd20728b	-0.039171737
164	0x3e32eb74	0.1747263
165	0x3e0f4e0b	0.13994615
166	0x3e62848d	0.22120877
167	0x3f86546c	1.0494514
168	0x3e1ab60b	0.15108506
169	0x3f059654	0.5218251
170	0xbdad3afc	-0.08458516
171	0x3eebfabe	0.4608974
172	0x3f6ce6fc	0.92539954
173	0x3ee5d895	0.448918
174	0x3f30bfec	0.6904285
175	0xbea89522	-0.3292628
176	0x3f239f66	0.639151
177	0x3f4d09ea	0.8009325
178	0x3e24c945	0.16092403
179	0x3dd8f809	0.10594184
180	0xbf2b41cd	-0.6689728
181	0x3e7b9446	0.2456828
182	0x3f57b0f6	0.84254396
183	0x3ce61e85	0.028090725
184	0x3e599edc	0.21252006
185	0x3f0c9307	0.54911846
186	0xbe444574	-0.1916712
187	0x3f0ca696	0.5494169
188	0x3f0f124d	0.558873
189	0x3d6b97a3	0.05751766
190	0x3e76fce5	0.24119909
191	0xbf780fc7	-0.96899074
192	0xbebbef7a	-0.36706144
193	0x3f21e89b	0.6324555
194	0x3ea3c7e1	0.31988433
195	0xbde1bcf7	-0.1102237
196	0x3e9673cd	0.29385224
197	0x3e493387	0.19648562
198	0x3eb1814d	0.3466896
199	0x3f4ff61b	0.812349
200	0x3e8068ab	0.25079855
201	0x3eaa0580	0.3320732
202	0xbe38db3b	-0.1805238
203	0x3e5f0ecd	0.2178299
204	0x3f2903ea	0.660216
205	0x3f0b0cf5	0.54316646
206	0x3f1ce04f	0.6127977
207	0xbeb774fc	-0.3583144
208	0x3f1bb01f	0.60815614
209	0x3eb2a8f7	0.34894535
210	0x3dbc8e08	0.09206778
211	0x3e6e32a7	0.2326151
212	0xbf3c3576	-0.73519075
213	0x3e7c67c4	0.24648958
214	0x3f1560d8	0.58350897
215	0xbe24d01a	-0.1609501
216	0x3e4101b6	0.18848309
217	0x3eb39131	0.3507171
218	0xbe8956d1	-0.26824048
219	0x3f07d018	0.530519
220	0x3f369d38	0.71333647
221	0xbdd6c8b2	-0.10487498
222	0x3d04838e	0.032352023
223	0xbf606781	-0.87657934
224	0x3d745903	0.0596552
225	0x3d17eb9d	0.037089933
226	0x3df42f95	0.11923138
227	0xbe1e6dea	-0.15471616
228	0xbdb9666c	-0.090527385
229	0xbd08fb48	-0.033442765
230	0x3e2389ca	0.15970531
231	0x3c02a6ee	0.007974369
232	0xbe0eb262	-0.13935235
233	0xbde64280	-0.112431526
234	0x3e25e182	0.16199306
235	0x3e472bca	0.19450298
236	0x3e4925ea	0.1964337
237	0xbdc7f7df	-0.097640745
238	0xbde848fb	-0.11342045
239	0x3bb24459	0.0054402766
240	0x3e5e781c	0.21725506
241	0xbe15bb19	-0.14622153
242	0xbd8d75bd	-0.069072224
243	0x3e2ba047	0.1676036
244	0xbe09bb5e	-0.13450381
245	0xbce3c138	-0.027802095
246	0xbe234f18	-0.1594814
247	0xbe2fcd85	-0.17168243
248	0xbbe3998f	-0.006945796
249	0x3e4346c0	0.19069958
250	0xbe3b674e	-0.18301126
251	0x3e4feff5	0.2030638
252	0x3c2f5d44	0.010703389
253	0x3d240115	0.040040094
254	0x3c6bdb6c	0.014395576
255	0xbe1a235f	-0.15052556

fc2.bias f4 [32]
0	0x3ec5c9ae	0.38630432
1	0x3f6b0b07	0.918137
2	0xbdaabeb8	-0.08337158
3	0xbd84a139	-0.06476063
4	0x3f81a38f	1.0128039
5	0x3fbb81c8	1.4648981
6	0x3fa1d649	1.264352
7	0xbca36f1b	-0.01995044
8	0x3e3fa314	0.18714553
9	0x3b5db87f	0.0033831892
10	0x3ec004ca	0.37503654
11	0x3f3bebc6	0.73406637
12	0x3e53dac0	0.20688915
13	0x3cef742f	0.029230205
14	0x3d74e773	0.05979104
15	0x3f047a9e	0.517496
16	0x3e7838ac	0.24240369
17	0x3f7f879a	0.99816287
18	0x3f6ffe8e	0.93747795
19	0x40340171	2.812588
20	0x3ee62b0d	0.4495472
21	0x3d0b31c1	0.033982996
22	0x3f9e1c26	1.235234
23	0x3e5b77ec	0.21432465
24	0xbe21c7ae	-0.15798828
25	0x40349ccf	2.8220708
26	0x3f16467b	0.58701295
27	0x3d2bd8f6	0.041954957
28	0x3fcf011b	1.6172212
29	0xbe47484e	-0.19461176
30	0xbe0f2b21	-0.13981296
31	0xbb9081e5	-0.004410016

fc3.weight f4 [1, 32]
0	0xbeda18c9	-0.42597035
1	0xbf98df9d	-1.1943241
2	0x3ec8bb00	0.3920517
3	0x3e724357	0.236585
4	0xbf9e8b92	-1.2386343
5	0xbff13ffc	-1.8847651
6	0xbfc71de6	-1.5555999
7	0xbdc8c0df	-0.09802412
8	0xbe04f33b	-0.1298341
9	0xbf07225a	-0.5278679
10	0xbec70abc	-0.38875377
11	0xbf72fe8b	-0.9491965
12	0xbf1394ff	-0.57649225
13	0x3f402b50	0.7506609
14	0x3f8bce96	1.092242
15	0xbf10a856	-0.5650686
16	0xbe898218	-0.26857066
17	0xbfbe37e5	-1.4860808
18	0xbf9249c2	-1.1428759
19	0xc0736a49	-3.8033621
20	0xbed35251	-0.4127374
21	0x3fabab90	1.3411732
22	0xbfe4871e	-1.7853734
23	0xbebf71f2	-0.3739162
24	0x3f816a55	1.0110575
25	0xc06f1eaa	-3.7362466
26	0xbf808ff9	-1.0043937
27	0xbc9b5bf5	-0.018964747
28	0xc01979a4	-2.3980494
29	0x3f19e058	0.60107946
30	0x3e5b3466	0.21406707
31	0xbdca013d	-0.098635174
