Networks/6-DDPG-with-target-network-Q-network-tau=0.5.pt (torch, 7551 bytes, 5 tensors)

fc1.weight f4 [32, 4]
0	0x3fab58b6	1.3386447
1	0xc0890045	-4.281283
2	0xbf8af1c1	-1.0855027
3	0xbe9bdf07	-0.30443594
4	0xc0366731	-2.8500483
5	0x3ea21cf7	0.31662723
6	0x3f759c62	0.95941746
7	0x3eb0fc91	0.34567693
8	0xbf8098da	-1.0046647
9	0xc08ad248	-4.338169
10	0xbf7806f2	-0.968856
11	0xbee08392	-0.4385038
12	0x3d63c2e2	0.055605777
13	0xc005a985	-2.0884717
14	0x3feae4a5	1.8351027
15	0x3f28355f	0.6570644
16	0x3fc48985	1.5354468
17	0x3f168a21	0.5880452
18	0xbe0d8e1f	-0.13823746
19	0x3e07af08	0.13250363
20	0xbf24a8ff	-0.6432037
21	0xc04196b0	-3.0248222
22	0xbf1bb5b6	-0.60824144
23	0xbe8ae7ae	-0.27129883
24	0x3ee2cdcb	0.44297633
25	0xbf226fdb	-0.6345193
26	0xbdc4540d	-0.09586344
27	0x3da7a7b8	0.08186287
28	0x4061772c	3.5228987
29	0xbfdac744	-1.7092061
30	0xbfb0536a	-1.3775456
31	0xbe89e4a9	-0.26932266
32	0xc01fbedc	-2.4960241
33	0xc020b395	-2.5109608
34	0xbf1014ad	-0.5628155
35	0xbe3fa0e7	-0.18713723
36	0xc09c152c	-4.8775845
37	0xc044f03e	-3.0771632
38	0xbf95c15c	-1.1699634
39	0xbe8173f4	-0.25283778
40	0xbf23fbea	-0.64056265
41	0x40df17d8	6.9716606
42	0x3fb4993e	1.4109266
43	0x3eec861d	0.4619607
44	0x3ecd9a69	0.40156868
45	0x3f82d1e9	1.022031
46	0xc014fd80	-2.3279724
47	0xbed12ac5	-0.40852943
48	0x406bab6d	3.682338
49	0xbfdbace1	-1.7162133
50	0xbe72887c	-0.23684877
51	0x3e2ae315	0.16688187
52	0xc0450c64	-3.0788813
53	0xbfbe303f	-1.4858474
54	0xbf802f69	-1.0014468
55	0xbebdc003	-0.37060556
56	0xbfbd8432	-1.4805968
57	0xbf5acf26	-0.85472333
58	0xbf8851bd	-1.0649945
59	0xbe8fdcb5	-0.28098074
60	0xbf96c8fb	-1.1780084
61	0x40a53b49	5.163487
62	0x3f93092e	1.1487176
63	0x3e9a2d2c	0.30112588
64	0x3fd3c911	1.6545736
65	0x3f6f0ce9	0.93379074
66	0x3e924232	0.28566128
67	0xbdbe2928	-0.09285194
68	0xbfc9c1d6	-1.5762279
69	0xbee609a4	-0.4492923
70	0xbf1b5ff9	-0.6069332
71	0xbea2af14	-0.317742
72	0xbedd2cc9	-0.4319823
73	0xbfa92e6b	-1.3217291
74	0x3ec76a9b	0.3894852
75	0x3f833b14	1.0252404
76	0xc025020c	-2.57825
77	0xc099ed71	-4.8102345
78	0xbf532729	-0.8248163
79	0xbe5aadfb	-0.21355431
80	0xbfab3c4b	-1.3377775
81	0x40933d5e	4.601241
82	0x3f6bb7e2	0.9207746
83	0x3e2a0bf0	0.16606116
84	0xc07f8050	-3.9922066
85	0x406c5ce6	3.69317
86	0x3f87fc11	1.06238
87	0xbd6fb1c4	-0.05851914
88	0x3ffcb5bd	1.9742962
89	0x40340c67	2.813257
90	0xbf868a69	-1.051099
91	0x3e96e6f7	0.29473087
92	0xc0060b34	-2.0944338
93	0x3fac0aa3	1.3440746
94	0xbedf1b5a	-0.43575555
95	0x3ca27fbd	0.019836301
96	0xc000fe22	-2.015511
97	0x3ed901df	0.4238424
98	0x3f9a1cd4	1.2040048
99	0x3e66ca90	0.22538209
100	0x3f176c62	0.59149754
101	0x3f438ae2	0.76383793
102	0xbf807460	-1.0035515
103	0xbe3aa5d2	-0.18227318
104	0xbfaf46d7	-1.3693494
105	0xc0fbdf5b	-7.871015
106	0xbfd867d4	-1.6906686
107	0xbeef04e8	-0.4668343
108	0x3c57f0af	0.013179942
109	0xbfa6c982	-1.3030245
110	0x3facc47e	1.3497465
111	0xbe40e303	-0.18836598
112	0x4029c892	2.6528668
113	0x3fae860d	1.3634659
114	0xbeb20f6d	-0.34777394
115	0x3bad6f14	0.0052927826
116	0x3e06fe67	0.13182984
117	0x3e5a4b2f	0.21317743
118	0x3d94699c	0.07246706
119	0xbdd01505	-0.10160259
120	0x40039767	2.0561159
121	0xbea35de0	-0.31907558
122	0x3e2733c9	0.16328348
123	0x3f06aec0	0.526104
124	0x4042895b	3.0396335
125	0x3fae4c6c	1.3617072
126	0x3f59c5ad	0.85067254
127	0xbc0c7c65	-0.00857458

fc1.bias f4 [32]
0	0xc0121a94	-2.2828722
1	0x40826e29	4.0759473
2	0xbee1bed6	-0.4409091
3	0x3eab7ccc	0.3349365
4	0xbfa27a4b	-1.2693571
5	0xbf246847	-0.64221615
6	0x409044a0	4.508377
7	0x3f24ad20	0.6432667
8	0x3cd405aa	0.025881607
9	0x402ab681	2.6673892
10	0xbf9bf828	-1.2185106
11	0x3f723e96	0.9462675
12	0xbef918ad	-0.4865164
13	0x4046f99c	3.108985
14	0xbf92f847	-1.1482018
15	0xbf88e09f	-1.0693549
16	0xbecf7aa3	-0.40523252
17	0x401e767f	2.4759824
18	0x4045a9a3	3.0884788
19	0xbedb7049	-0.42859104
20	0xbdd027dc	-0.101638526
21	0x401f8f38	2.4931164
22	0x3fc3cbdc	1.5296588
23	0x3f330c45	0.69940597
24	0x407c6788	3.943819
25	0xc00f3b5f	-2.2379987
26	0xbf5ffc44	-0.874943
27	0xbf067666	-0.5252441
28	0x3eb4541c	0.3522042
29	0xbea8b2f6	-0.32949036
30	0x3d08fb33	0.033442687
31	0xbee6f767	-0.45110628

fc2.weight f4 [32, 32]
0	0x3e54b658	0.20772684
1	0x3ea99432	0.33120877
2	0x3ee9bce0	0.45651913
3	0xbe5cc296	-0.21558604
4	0x3e87f5be	0.26554674
5	0x3e33f979	0.17575635
6	0xbe041af1	-0.12900902
7	0xbd12cbfc	-0.035839066
8	0x3e92297b	0.28547272
9	0x3db69c83	0.08916571
10	0x3c2779fe	0.010221956
11	0xbe1b4078	-0.15161312
12	0xbe0d298a	-0.13785377
13	0x3e391d70	0.18077636
14	0x3e1aa849	0.15103258
15	0xbc0ca826	-0.008585012
16	0xbd485bd2	-0.04891569
17	0x3e6d9da0	0.2320466
18	0xbe1eab38	-0.15495002
19	0x3db5954e	0.08866368
20	0x3e3d19e9	0.18466915
21	0x3e50bf62	0.20385507
22	0x3df0cce9	0.117578335
23	0x3c042a31	0.0080667
24	0xbda99167	-0.082796864
25	0x3b0b4892	0.0021252972
26	0xbe0ae69d	-0.13564534
27	0xbe3225ff	-0.17397307
28	0x3d021d99	0.031766508
29	0x3caaae7a	0.02083515
30	0x3c66893a	0.014070803
31	0x3def8d8c	0.1169692
32	0x3e8deda2	0.27720362
33	0xbe841a8b	-0.258015
34	0xbd6afb97	-0.05736884
35	0xbea9af52	-0.3314157
36	0x3e5dfd4c	0.21678656
37	0xbde0f28e	-0.10983764
38	0x3e66b56f	0.22530149
39	0xbd6c6159	-0.057710025
40	0x3dc5883f	0.096451275
41	0x3c9d6f01	0.01921797
42	0x3e15033b	0.14552014
43	0xbd64e213	-0.055879664
44	0x398911de	0.00026143988
45	0xbcb9c605	-0.02267743
46	0xbd7be93b	-0.061501723
47	0xbe886ddd	-0.2664632
48	0x3e8da9f2	0.2766872
49	0x3c90ea07	0.017689718
50	0xbe77ba6c	-0.24192208
51	0x3d28be36	0.041197024
52	0xbb916702	-0.0044373283
53	0x3de8340a	0.11338051
54	0x3e1dda94	0.15415412
55	0x3cdfce45	0.027320037
56	0xbe696c60	-0.22795248
57	0x3d16cb8d	0.036815215
58	0x3e184446	0.14869794
59	0xbe7d7c29	-0.24754395
60	0x3e21f376	0.15815529
61	0xbd6e2fa6	-0.05815091
62	0x3e5626ed	0.20913287
63	0x3e00174c	0.12508887
64	0x3e77ffdd	0.24218698
65	0x3ecdc919	0.40192488
66	0xbfc51403	-1.5396732
67	0xbf174eb1	-0.5910445
68	0x3d16ccc8	0.03681639
69	0xbf83f5b3	-1.0309356
70	0xbe910635	-0.28325048
71	0xbdc5b676	-0.09653942
72	0xbc91a364	-0.017778106
73	0x3e2ce6a6	0.1688486
74	0x3e908f9e	0.2823457
75	0xbf17a522	-0.5923635
76	0x3da09680	0.078412056
77	0x3ec3561b	0.3815163
78	0xbeb1e843	-0.34747514
79	0x3ef6cd4c	0.48203504
80	0x3cfa5e7b	0.03056263
81	0x3ef3c9a5	0.4761478
82	0xbe8b8273	-0.27247962
83	0x3d36fc65	0.044674296
84	0x3eec05c5	0.46098152
85	0x3e819893	0.25311717
86	0xbeaf6a28	-0.34260678
87	0x3eae6add	0.34065905
88	0x3e8af7c9	0.2714217
89	0xbe378a24	-0.1792379
90	0x3dfc19d0	0.12309611
91	0x3c34ca0d	0.011034501
92	0x3ee1f6df	0.4413366
93	0x3da85d64	0.08220938
94	0x3d9d5343	0.076818965
95	0x3e91e7d4	0.28497183
96	0x3eb6f7a7	0.3573582
97	0x3dd6e05d	0.10492013
98	0xbe3aa1fb	-0.18225853
99	0xbd1647a5	-0.03668942
100	0x3d372052	0.044708557
101	0xbe93b594	-0.2884947
102	0xbd126450	-0.035740197
103	0xbb0d9727	-0.0021604986
104	0x3d6bcfc6	0.057571195
105	0x3e318e55	0.17339452
106	0x3f149f12	0.5805522
107	0x3c01f9c0	0.00793308
108	0x3ea9b411	0.33145192
109	0x3e3236d8	0.17403734
110	0x3caf91b8	0.021431789
111	0xbe8732f6	-0.26406068
112	0xbd10a40a	-0.03531269
113	0x3e6a2e06	0.22869119
114	0xbe08e0eb	-0.1336705
115	0x3e6e6ad4	0.23282939
116	0x3e46ebac	0.19425839
117	0x3e0ecef8	0.1394614
118	0xbe2b8d04	-0.16753012
119	0x3e404441	0.18776037
120	0x3dc50c8d	0.096215345
121	0xbc5c9716	-0.013463756
122	0x3f01649d	0.5054415
123	0x3deb3328	0.11484367
124	0x3e6da45d	0.23207231
125	0x3db0c0bc	0.08630511
126	0x3e37cdb4	0.17949563
127	0x3d928a01	0.071552284
128	0x3ec56771	0.38555482
129	0xbf2d0e4e	-0.6759995
130	0x3f03313d	0.51247007
131	0xbf3ce9fa	-0.7379452
132	0xbe4eb279	-0.2018527
133	0x3e981dc8	0.2971022
134	0xbefbebac	-0.4920324
135	0xbece88f5	-0.40338865
136	0xbe0bc9b9	-0.1365117
137	0x3e2ed001	0.17071535
138	0x3fedfcdd	1.8592793
139	0x3f2d4956	0.67690027
140	0xbe88406c	-0.2661165
141	0xbeb4b0dd	-0.35291186
142	0x3f230097	0.63672775
143	0xbdaaf634	-0.08347741
144	0xbdf3cdfe	-0.11904524
145	0xbf02dd29	-0.51118714
146	0xbf714e4c	-0.94260097
147	0xbe1c670e	-0.15273687
148	0x3f2c6ef7	0.6735682
149	0x3f1b81dc	0.60745025
150	0x3f2463d6	0.6421484
151	0x3e8471e3	0.2586814
152	0xbec7c1a6	-0.3901493
153	0x3e7396af	0.2378795
154	0x3e3a6f3a	0.18206492
155	0xbec76a63	-0.38948354
156	0x3d68c82d	0.056831528
157	0x3dbf45f6	0.09339516
158	0xbe3a87c3	-0.18215851
159	0x3e12dca2	0.14341977
160	0xbd3daef2	-0.04630942
161	0xbe0189fd	-0.12650295
162	0xbe11d6da	-0.14242116
163	0xbe1851e9	-0.14874996
164	0x3e097938	0.13425148
165	0x3d12e527	0.035863068
166	0x3db04b71	0.08608139
167	0xbdd887c2	-0.10572769
168	0xbddf60cc	-0.109071344
169	0xbdced34c	-0.100988954
170	0xbdc44885	-0.095841445
171	0xbc39481b	-0.011308695
172	0x3deafe83	0.114743255
173	0xbe34b37d	-0.17646594
174	0x3cefb0a6	0.029259037
175	0xbe31107b	-0.17291443
176	0x3ce71d40	0.02821219
177	0xbe0d51e0	-0.13800764
178	0xbe0d6329	-0.13807358
179	0x3e2b6c04	0.16740423
180	0x3e1d074c	0.15334815
181	0x3cf04891	0.029331477
182	0xbddc97b3	-0.10771122
183	0x3d361c91	0.044460837
184	0xbd94336b	-0.0723637
185	0xbdcead53	-0.10091653
186	0xbd95e918	-0.0731985
187	0xbd2a0a79	-0.041513894
188	0x3cd42818	0.025898024
189	0xbd106eec	-0.035262033
190	0xbe13dd51	-0.14439894
191	0x3dbb576c	0.09147534
192	0x3e4c2a47	0.19938003
193	0xbb5ec02e	-0.003398906
194	0xbc3b6010	-0.011436477
195	0xbf6cda82	-0.92520916
196	0xbddaff5a	-0.10693236
197	0x3ea59fbb	0.32348427
198	0xbf2cc8ef	-0.674941
199	0xbfa727bf	-1.3059005
200	0x3eb7afd5	0.35876337
201	0x3edddab0	0.43330908
202	0x3fc99a51	1.5750219
203	0xbe79edc7	-0.24407111
204	0xbebb089c	-0.36530006
205	0x3e263d48	0.16234314
206	0x3de0e568	0.10981256
207	0xbfeae165	-1.8350035
208	0x3e734b1b	0.23759119
209	0xbe6235e5	-0.22090872
210	0xbf71062f	-0.9415006
211	0x3deeb879	0.11656279
212	0x3f68cf10	0.9094095
213	0x3f86a4f7	1.0519093
214	0x3f1f9420	0.62335396
215	0x3e16becd	0.14721222
216	0xbfafd12a	-1.3735707
217	0xbf475b0f	-0.7787332
218	0xbe258d3f	-0.16167162
219	0xbe8ec06b	-0.27881178
220	0xbf014e14	-0.5050976
221	0x3de6d538	0.11271137
222	0x3e1332ab	0.14374797
223	0x3c889174	0.01667092
224	0x3f788da5	0.9709113
225	0x3f289aa2	0.6586095
226	0xbeed9744	-0.4640447
227	0x3ca77c72	0.020445082
228	0x3ebf333c	0.37343776
229	0xbea1ec7f	-0.31625745
230	0xbe827441	-0.2547932
231	0xbe048dc1	-0.129447
232	0x3ed51861	0.41620162
233	0x3f36134b	0.7112319
234	0x3fa5f759	1.296611
235	0xbe9cb1e3	-0.30604467
236	0x3f1a6e61	0.60324675
237	0x3e728dd2	0.23686913
238	0xbf01b765	-0.5067046
239	0xbf506a4a	-0.81412184
240	0x3f04fc28	0.5194726
241	0x3ecfb66a	0.40568858
242	0xbe666a4b	-0.22501485
243	0x3f66aa45	0.9010356
244	0x3f497848	0.7869916
245	0x3f367a2a	0.7128016
246	0xbc8899b6	-0.016674858
247	0x3e4219aa	0.18955103
248	0xbd4a5990	-0.04940182
249	0x3ed4d056	0.41565198
250	0x3fbedc49	1.4910976
251	0x3da52b5f	0.08064913
252	0x3e6d9bc3	0.2320395
253	0xbd67f3ca	-0.05662898
254	0x3ec44296	0.3833205
255	0x3ea83090	0.3284955

fc2.bias f4 [32]
0	0x3e045491	0.12922885
1	0x3e3e7376	0.18598732
2	0xbb2d4026	-0.002643594
3	0x3f24d9b7	0.64394706
4	0xbe05a3a0	-0.13050699
5	0xbd1f2395	-0.038852293
6	0xbec907eb	-0.39263853
7	0x3fec37d0	1.8454533
8	0xbdae12e0	-0.08499694
9	0x3e1516e8	0.1455952
10	0x3fab9e1d	1.3407627
11	0xbdcff41e	-0.101539835
12	0x3efce8c8	0.49396348
13	0x3d6106fa	0.054938294
14	0xbd2db2cb	-0.04240684
15	0x3d018ce1	0.031628493
16	0xbddcdea4	-0.10784653
17	0x3e560386	0.20899782
18	0x3f7130eb	0.9421527
19	0xbe21a54d	-0.15785713
20	0x3d91d95f	0.07121538
21	0x3f8b40cc	1.087915
22	0x3e2aa4ef	0.1666448
23	0xbee18475	-0.4404637
24	0xbe288aec	-0.16459244
25	0xbd1eeffd	-0.03880309
26	0xbdce24f9	-0.10065646
27	0x3d21df71	0.03951973
28	0x40394e5d	2.895408
29	0x40168e4f	2.3524358
30	0xbc2ddf12	-0.010612266
31	0x3d6b0f5c	0.057387695

fc3.weight f4 [1, 32]
0	0xbf1469d6	-0.5797399
1	0xbf07533d	-0.52861387
2	0xc0031c4f	-2.0486028
3	0xbf19b6d0	-0.60044575
4	0x402c66b6	2.693769
5	0x3d6843b1	0.05670518
6	0x405ac9a3	3.418557
7	0xbff4c796	-1.9123409
8	0x3e299efc	0.16564554
9	0xbfdf4448	-1.7442713
10	0xbfaeec4f	-1.3665866
11	0x404ad44b	3.1692073
12	0xbe96df5f	-0.29467294
13	0xbec8a820	-0.3919077
14	0x404432a5	3.065591
15	0x3fc5ddc5	1.5458304
16	0xbf95047a	-1.1641991
17	0xc0351d12	-2.8298993
18	0xbfecad72	-1.8490431
19	0xbf7207fa	-0.9454342
20	0x405d7951	3.4605296
21	0xbf8ca77f	-1.0988616
22	0xc085f7af	-4.186485
23	0x40920294	4.5628147
24	0x40384b46	2.8795943
25	0xbfc3c255	-1.529368
26	0xbeb159fa	-0.3463896
27	0x403a0465	2.9065182
28	0xc06a5de1	-3.66198
29	0xc042f70c	-3.0463285
30	0x40e57cf7	7.1715045
31	0xc02b0962	-2.6724477
