Networks/6-DDPG-with-target-network-target-Q-network-tau=0.8.pt (torch, 7607 bytes, 5 tensors)

fc1.weight f4 [32, 4]
000000 53 f3 a3 bf c6 62 80 bf 27 65 bc 3d af 54 ea 3e
       -1.2808632 -1.0030143 0.09198981 0.45767733
000010 66 c3 02 3f ec 09 4d 3f 71 0e f8 bd 87 d9 18 bf
       0.51079404 0.80093265 -0.121121295 -0.5970692
000020 ba 78 09 c0 4a 95 5d 3e fd 47 6c 3e 58 92 48 3e
       -2.1479936 0.2163898 0.23074336 0.19587076
000030 58 6c 87 3f 19 3d 89 3e e6 22 1a 3f 88 d2 19 bf
       1.0579939 0.26804426 0.602095 -0.6008687
000040 83 b1 25 40 a9 3f 12 3f c9 9a bc be 62 3d 72 be
       2.5889595 0.5712839 -0.36836842 -0.23656228
000050 e2 3b 87 bd 98 ab 43 3f 11 a6 7b bf 1a 69 85 bd
       -0.066032186 0.76433706 -0.9830027 -0.06514187
000060 9f 68 c0 3f fe 97 dc 3f d4 f2 48 c0 1e f9 6b bf
       1.5031928 1.7233884 -3.139821 -0.92177
000070 89 4a 66 3f 12 b1 fc 3e d4 67 94 be 7d d6 bd 3e
       0.8995748 0.49353844 -0.28985465 0.37077704
000080 8c 0a f2 3f b2 fa d6 bf 25 10 2f c0 4c 91 95 bf
       1.8909469 -1.6795256 -2.7353604 -1.1684966
000090 92 b8 f7 be 71 19 69 40 53 f2 07 c0 ae 1e 5f be
       -0.48383003 3.6421778 -2.1241653 -0.21789047
0000a0 66 2e 68 3f a2 c3 23 be 35 50 4b bf f6 c0 ce be
       0.906958 -0.15992597 -0.7941926 -0.40381593
0000b0 1e f4 c9 3f ee 04 cb 3d 23 ed c0 be 92 d4 56 be
       1.5777624 0.0991305 -0.3768092 -0.20979527
0000c0 e6 4b 6f 3e f2 fc 13 c0 78 fe 94 3f 59 e0 9b 3f
       0.23368797 -2.3123136 1.1640158 1.217784
0000d0 6d b0 64 40 b5 4d a5 3d f8 b6 91 bf 67 8b 83 be
       3.5732682 0.08071462 -1.1383963 -0.25692293
0000e0 4a 9a 85 40 52 83 c2 3f 3a 34 c2 3f d8 20 cc 3e
       4.175084 1.5196326 1.5172188 0.39868808
0000f0 33 b6 6c c0 95 35 67 c0 f1 10 29 40 42 44 a4 3f
       -3.6986206 -3.6126454 2.641659 1.2833331
000100 31 bc f7 bd 2a 57 a1 bf 0e be dc be 90 a0 81 3e
       -0.120964415 -1.2604725 -0.4311375 0.25317812
000110 33 94 c0 bf e4 bb a9 c0 2c 09 d5 be 6a cd dd 3d
       -1.5045227 -5.304186 -0.4160856 0.10830195
000120 9b cd d9 bf 39 2e f9 bf 8a 3c 7b c0 91 ad 30 bf
       -1.7015871 -1.9467231 -3.92557 -0.6901484
000130 64 7a 7c 40 d1 74 17 c0 2e 36 a3 bf 7f f0 9f be
       3.9449701 -2.366505 -1.2750909 -0.3123817
000140 90 4f d7 3f 17 13 07 40 7c 20 fa 3e 78 fe 03 3e
       1.6821156 2.1105402 0.4885291 0.12890041
000150 45 49 8e bf 40 79 92 40 0e a1 0d c0 64 b9 6b bf
       -1.111611 4.577301 -2.212955 -0.9207976
000160 96 ed b4 40 4e 53 1f 3e 98 c0 7e 3e 7b 5c 45 bf
       5.654002 0.15559122 0.24878156 -0.7709424
000170 6a 30 73 3f a2 cb 64 be 72 e0 0c 3d 4e e3 05 3e
       0.9499575 -0.22343305 0.034393735 0.13074991
000180 6e 1d b3 3f ee 2d 2c 3f f7 b7 33 c0 85 bf 88 bf
       1.3993356 0.67257583 -2.8081033 -1.0683447
000190 03 b1 be 40 5c a1 09 bf 33 1d eb 3f 59 cd 95 3f
       5.959108 -0.5376184 1.8368286 1.1703292
0001a0 6f cf 85 c0 30 80 ab 3f e2 af 2e bf 8c 0c cb be
       -4.1815715 1.3398495 -0.68237126 -0.3965801
0001b0 82 b7 92 c0 f6 a5 2b 40 c4 e8 6e c0 26 9a f6 be
       -4.584901 2.6820045 -3.732957 -0.4816448
0001c0 06 f2 cc 3f 1b db c4 bf 8e a1 0e 40 6a f2 3c 3f
       1.601136 -1.5379366 2.2286105 0.73807395
0001d0 6e 8a 7a 40 5f 2c fd c0 fa 33 79 bf 12 5a 23 3e
       3.914699 -7.9116664 -0.97344935 0.15952328
0001e0 70 e4 77 c0 7c 97 9f 40 ac 9f 2b 3f 4e 86 32 3e
       -3.8733177 4.9872417 0.67040515 0.17434046
0001f0 59 8a 04 c0 e6 62 c3 bf 96 4f 8d bf e8 5d bd 3d
       -2.070944 -1.5264556 -1.1039913 0.09246427

fc1.bias f4 [32]
000000 b3 3d 25 3f b2 12 eb 3f 2e 41 6c 40 d4 d7 0c bf
       0.6454727 1.836508 3.6914783 -0.5501683
000010 7a 66 35 c0 93 1c 4d c0 c5 89 5e c0 63 c9 ba 3e
       -2.8343797 -3.204869 -3.4771588 0.3648177
000020 d5 54 37 bf f4 f1 26 3f 96 17 04 40 29 5e 9c bf
       -0.7161382 0.6521294 2.0639396 -1.2216235
000030 ca d5 6b c0 ec a4 ff 3e 3d e4 94 bf 5a 30 89 3f
       -3.6849236 0.49930513 -1.1632153 1.0717881
000040 5c 42 31 40 5b ef 3e 40 1b 8a d5 bd 0a 8d 0b c0
       2.7696753 2.983359 -0.10426732 -2.1804833
000050 74 32 18 c0 36 a5 3b 40 1a cc cc bf ba f3 92 bf
       -2.3780794 2.9319587 -1.5999787 -1.148063
000060 ff 67 2c 3f 1d 25 24 c0 ac 26 f4 40 de cc 23 40
       0.67346185 -2.5647652 7.6297207 2.559379
000070 1f 6d 97 3f ab 7a df bf ea 87 90 40 5c 45 89 c0
       1.1830176 -1.745931 4.516591 -4.2897167

fc2.weight f4 [32, 32]
000000 cc 04 49 3e db 9c 9f be 5c eb 19 be 19 23 5e 3e
       0.19630736 -0.3117436 -0.15031189 0.21693076
000010 17 df 0c 3f 06 01 1a bf 9a ef 94 be f0 76 7f 3d
       0.5502791 -0.6015781 -0.2908905 0.062369287
000020 66 41 53 bf 31 14 c8 3c 95 45 5c be 3e c0 53 3e
       -0.82521665 0.02442369 -0.21510918 0.20678803
000030 5c 67 e4 be e4 3a 48 3e 2a 76 e7 3e 43 30 07 3e
       -0.44610107 0.19553715 0.4520734 0.13202004
000040 55 c7 25 be 1c 71 13 3f 60 bf aa bf 9d 9f 94 bf
       -0.1618932 0.57594466 -1.3339653 -1.161121
000050 b4 37 2e 3e e7 c0 1b bf 68 68 f3 be b5 8a a2 3e
       0.17013437 -0.6084122 -0.47540593 0.3174645
000060 c2 e4 3c bd 9a fa 5b 3f ff fb 80 3f 6f ba 88 3e
       -0.046116598 0.8592926 1.0076903 0.26704738
000070 2f e9 be be 65 dd 0f c0 78 7c 8e bf da 8a 67 bf
       -0.3728728 -2.2478878 -1.1131735 -0.90446246
000080 45 58 c5 3e ee 9c cb be 19 38 a7 3b 33 df c8 3e
       0.38543907 -0.39768165 0.005103123 0.39232787
000090 20 8d f8 3e 6e 4d 04 bf ac d5 92 be 62 48 40 be
       0.4854517 -0.5168065 -0.28678644 -0.18777612
0000a0 e6 75 37 bf b3 ac 2b 3e bf e9 3a bd fc b4 93 3e
       -0.71664274 0.16765098 -0.045633074 0.28849018
0000b0 86 69 35 bf d1 62 a0 be 36 17 34 3f cc b3 f7 be
       -0.7086414 -0.3132539 0.7034792 -0.48379362
0000c0 05 0b 60 be bd d3 1b 3f ce 5b 80 3e 0e 11 a8 bf
       -0.21879204 0.6086996 0.2507004 -1.3130205
0000d0 22 c6 00 3f a5 ed 83 3e 90 38 b7 be 68 c7 14 3e
       0.50302327 0.25767246 -0.3578534 0.14529192
0000e0 01 bd 0d bf 46 e5 7f 3f 21 71 5a 3f dd e8 e6 3f
       -0.5536652 0.9995922 0.8532887 1.8039814
0000f0 7b 0b 88 be 06 85 c3 bf 0a 7c 46 bf f5 52 d0 be
       -0.2657126 -1.527497 -0.7753302 -0.4068829
000100 bb de c2 3e 7b 47 48 bf 30 d5 e7 3e 2a c5 2f 3e
       0.38060555 -0.7823407 0.45279837 0.17165056
000110 ae b1 86 3e 55 3d 80 bf ec ab d8 be 13 77 11 be
       0.26307434 -1.0018717 -0.42318666 -0.1420558
000120 5b 6c db be 5a 86 96 bf 1e 8b 5c be 3a ff de 3e
       -0.42856106 -1.1759751 -0.21537444 0.43554097
000130 19 eb 4c bf 4e 06 7c 3a 42 21 92 bf 8e 01 d3 3f
       -0.8004623 0.00096139766 -1.14164 1.648485
000140 92 27 0b 3f 8c 94 81 3f 4d 61 c7 bf bf a2 38 be
       0.54357255 1.0123458 -1.5576569 -0.18030833
000150 aa 81 a3 3e 12 df 19 bf ae 83 66 bf 9e 5d 06 3e
       0.31934863 -0.60106003 -0.9004468 0.1312165
000160 59 45 47 be 6f 87 18 bf 84 54 c1 3f 55 24 8d 3e
       -0.19460048 -0.59581655 1.5103917 0.27566782
000170 0a 86 06 bf 44 f0 1c 3f 60 c3 a5 be 4e 24 a2 bf
       -0.5254828 0.61304116 -0.32375622 -1.2667329
000180 f7 c3 82 3e a4 67 a6 be 6b e3 97 bd be 5a a1 3e
       0.25540134 -0.32500947 -0.074164234 0.31514543
000190 19 87 6a 3f 5a 8c 90 bf c6 85 e0 be f2 89 99 be
       0.9161239 -1.1292832 -0.4385206 -0.29988056
0001a0 0e c7 23 bf c9 98 76 be 00 5a 13 be 1a 7c 3f 3e
       -0.6397561 -0.2408172 -0.14389801 0.18699685
0001b0 77 07 2b bf 9c 32 d1 be b2 85 af 3f 3a de 7f be
       -0.66808265 -0.40858924 1.3712676 -0.24987116
0001c0 24 2a 28 be 84 35 00 3f 97 a0 a7 be ba aa 83 bf
       -0.16422325 0.5008166 -0.32739708 -1.0286477
0001d0 52 f5 5a 3f 0f 12 4c 3f 0f 36 6f bf 91 e0 90 3e
       0.8553058 0.79715055 -0.9344186 0.2829633
0001e0 32 78 44 be 88 45 40 3e ad 1b 46 3f 22 35 c4 3e
       -0.19186476 0.18776524 0.7738598 0.38321787
0001f0 b8 1d ba be e0 d7 e2 bf d6 59 eb bc b4 d3 6c bf
       -0.363508 -1.772213 -0.02872936 -0.92510533
000200 42 7d 62 be 7f ec 84 be 9b bf a9 bf b2 23 c9 bd
       -0.22118095 -0.25961682 -1.3261598 -0.098212615
000210 9e 0b a1 be 9f fd 33 3f aa 08 da 3f 01 a1 af be
       -0.31454176 0.7030887 1.7033894 -0.34302524
000220 60 90 38 3f a9 fb a1 3d bf ba 39 be 54 02 cc 3e
       0.720953 0.079093285 -0.18137644 0.39845526
000230 eb b7 ec be f8 c5 71 3f 76 34 27 3e af da b8 3e
       -0.46234068 0.944427 0.16328606 0.36104342
000240 9d ab a3 be e9 44 87 3e 1b 3b eb 3e dc c1 32 3f
       -0.31966868 0.26419762 0.4594353 0.69827056
000250 ba 49 21 bf b3 a4 c9 bf e3 46 40 3f 10 79 09 be
       -0.6300312 -1.5753387 0.75108165 -0.13425088
000260 4c 16 1f 3f f1 4d 1f bf b3 39 8f bf 2c 93 03 3e
       0.621434 -0.62228304 -1.1189483 0.1284911
000270 cc 91 51 be 0d f2 8c 3f 92 07 c1 bf 84 4c 93 bc
       -0.20465773 1.1011368 -1.5080435 -0.017980821
000280 f1 6f ac be 8d d2 57 3e 9a 4f f1 3e 4c 6e a0 be
       -0.33679155 0.21076412 0.47131044 -0.3133415
000290 c2 5b 81 be 41 9d 38 be f5 88 07 bf a8 99 1d bd
       -0.25265318 -0.18028738 -0.52943355 -0.038476616
0002a0 7e 51 89 be 40 3e 33 3f 3e b0 0f be 50 20 4d bd
       -0.26819986 0.7001686 -0.14032075 -0.050079644
0002b0 7c 4b 2e 3f 16 1e 11 3e 49 13 35 3f 57 d6 a8 3e
       0.6808393 0.14171633 0.7073255 0.32976028
0002c0 2e 88 b0 be f6 a0 5d bf 2b 51 fb be 40 6c 30 be
       -0.34478897 -0.8657373 -0.49085364 -0.17228794
0002d0 40 e0 85 be b9 a1 61 3e 84 56 b3 3e 4f 66 86 be
       -0.26147652 0.22034349 0.35026944 -0.2624993
0002e0 22 65 c4 be 22 47 23 bf 00 9d 2d 3f 21 82 0e bf
       -0.38358408 -0.63780415 0.6781769 -0.5566731
0002f0 ed a6 ce be 5c b1 92 3f a2 26 dc 3f e0 70 f8 be
       -0.4036173 1.1460376 1.719929 -0.48523617
000300 bd 22 b0 be 88 c1 c4 be 48 3c b0 bf 7d ce c1 be
       -0.34401503 -0.38428903 -1.3768396 -0.3785285
000310 b6 92 01 c0 91 47 87 bf ae 05 11 be 02 d5 c5 3e
       -2.0245795 -1.0568715 -0.14162323 0.38639075
000320 b6 70 d7 bf 3e 3a 60 3f 2e 65 18 bf d6 19 7d bf
       -1.6831272 0.8758887 -0.5952939 -0.9886755
000330 73 f5 c2 3f b4 35 5a be 15 1d f7 bd 97 d3 45 be
       1.5231155 -0.21309549 -0.12066094 -0.19318996
000340 f7 7d 40 3d 6f 39 36 c0 50 e7 3c c0 e8 fa b3 bf
       0.04699513 -2.8472555 -2.9516182 -1.4060946
000350 94 9a eb bf d0 c8 02 40 da 43 c5 3f 04 a5 61 bf
       -1.8406549 2.0435066 1.5411332 -0.8814242
000360 47 47 ac be 56 08 1d 40 c6 02 50 c0 fa a4 36 bf
       -0.3364813 2.4536338 -3.2501693 -0.71345484
000370 b8 1c ca bd 34 78 68 c0 7e 53 36 bf 56 c4 af bf
       -0.09868759 -3.6323366 -0.7122115 -1.3731792
000380 ce 5a 4d 3f 50 3c 74 3f 2c 4d 6f 3f 44 b8 48 be
       0.8021668 0.9540453 0.9347713 -0.19601542
000390 0a 39 cb bc 54 ab 9e be 2b c7 84 3f d1 d1 2d be
       -0.024807472 -0.30990088 1.0373281 -0.1697457
0003a0 14 76 36 be 9d e5 31 3f e6 ba b8 3d 71 40 72 3e
       -0.1781848 0.6949099 0.09020023 0.23657395
0003b0 f1 9d ca bf ea 57 ee bc 2a 12 89 c0 3e 5c 87 3e
       -1.582945 -0.029094655 -4.2834673 0.26437563
0003c0 dd ee 06 40 a9 9e 33 40 6e 81 8b 3e 85 79 bd 3e
       2.108329 2.8065588 0.27247185 0.37006775
0003d0 db 35 1b 3f 8c 1c 52 bf 6d 6e ee bf 46 0a 9e 3e
       0.6062905 -0.8207481 -1.8627449 0.30867213
0003e0 54 a6 e3 bf 28 11 fc bf 39 b6 94 3f 1c 7b 34 c0
       -1.7785134 -1.9692736 1.161811 -2.820014
0003f0 e6 6f 26 be 30 94 e1 bf 16 8c 93 bf 7e 44 c9 3e
       -0.16253623 -1.7623348 -1.1527126 0.39310068

fc2.bias f4 [32]
000000 4b 6d 45 3f 58 6f 08 3f c4 d0 4b 3f 14 e2 de 3e
       0.7711989 0.532949 0.79615426 0.4353186
000010 c7 b7 7b bd 97 2c d8 3c 40 aa 40 3e 93 09 12 3f
       -0.06145456 0.02638845 0.18814945 0.5704586
000020 86 85 53 3e 36 22 c9 3e 22 ce 3f 3e 9c c6 b3 3d
       0.20656404 0.39283913 0.18730977 0.08778116
000030 12 79 28 3f b9 0e cf bd da 94 d1 3e 49 69 a1 3c
       0.6580974 -0.1011023 0.40933877 0.019703524
000040 14 0d 84 3d 86 54 cb 3e 0c 11 41 3f a3 98 ce 3e
       0.06447807 0.39712924 0.75416636 0.40350828
000050 d0 72 2c 3e 85 d6 c4 bc 6e d5 c7 3d d7 6e ff bd
       0.16840672 -0.024028072 0.09757505 -0.12472313
000060 8c a7 b0 3e 72 5d 3b 3f d5 20 dc 3c 63 ea 68 3f
       0.34502828 0.7318946 0.026871124 0.90982646
000070 ea 1c c4 3f ce c8 47 3e d5 8c 85 3e 30 d8 91 3f
       1.5321324 0.19510195 0.2608401 1.13941

fc3.weight f4 [1, 32]
000000 c5 36 3a c0 54 7a 3c c0 6b 77 26 c0 a7 db 14 c0
       -2.9095929 -2.9449663 -2.6010387 -2.3259065
000010 b6 a7 3b c0 68 fe ab bf 05 01 01 c1 0f eb 5f 40
       -2.9321113 -1.3437014 -8.062749 3.4987218
000020 f1 22 77 40 84 b9 6a 40 fa 73 4b c0 b8 53 57 c0
       3.8615077 3.667573 -3.1789536 -3.3644848
000030 15 ba 80 c0 9b cd 37 3f a4 30 49 c0 e3 57 73 bf
       -4.022715 0.71798104 -3.1435938 -0.9505598
000040 f5 96 14 c0 82 e5 c1 bf 72 5f 1d c0 7c db a2 c0
       -2.3217137 -1.5148165 -2.4589505 -5.0892925
000050 13 07 03 c0 ce c7 44 c0 0c 97 18 c0 56 c4 7d c0
       -2.0473068 -3.074695 -2.3842192 -3.9651084
000060 d9 0c 32 c0 0e 63 1d c0 4b 40 57 40 97 9d 81 c0
       -2.7820342 -2.4591708 3.3632991 -4.050487
000070 cc 18 f5 bf 92 d5 55 c0 fc b0 c9 bf a9 d6 2e c0
       -1.9148192 -3.3411603 -1.5757136 -2.7318518
