Networks/7-DDPG-with-target-network-policy-network-theta=0.5.pt (torch, 7479 bytes, 5 tensors)

fc1.weight f4 [32, 3]
000000 e4 a6 27 3e 06 ad ce be cb 7a a3 3e 1e 90 31 3f
       0.16372257 -0.4036638 0.3192962 0.6936053
000010 9c a5 24 bf be a2 88 be 00 8d dc be 99 42 e8 be
       -0.643152 -0.26686662 -0.43076324 -0.4536331
000020 63 5c 0c bf 29 b3 7f 3e 1b 54 0a bf d6 ac e8 be
       -0.5482847 0.24970688 -0.54034585 -0.45444363
000030 51 cc 0b bf 29 67 0e be 49 32 a5 be 82 82 32 bf
       -0.5460864 -0.1390654 -0.32264927 -0.6973039
000040 87 54 35 bd 53 d6 1a 3f 2c a8 6e 3f eb 3f 8d 3e
       -0.044270065 0.6048328 0.9322536 0.27587828
000050 11 15 b4 3e 55 24 04 bf 5f b0 b0 3e f6 78 77 be
       0.35172322 -0.5161794 0.3450956 -0.24167237
000060 09 cd ab be 7a 1c 5c be fa 5f 05 bf fd e2 d1 bd
       -0.33554867 -0.21495238 -0.52099574 -0.10248373
000070 e0 0a f3 bb 7c 28 8f 3c c7 e0 04 bf c3 51 2c bf
       -0.007417068 0.01747536 -0.51905483 -0.6731226
000080 7c 80 81 3c cc fb 08 3f f9 f6 aa 3e f7 d2 84 be
       0.015808336 0.5350921 0.3339155 -0.25942203
000090 66 b7 1a bf 45 94 d0 be 48 56 aa 3e 08 77 a6 3e
       -0.60436094 -0.4073812 0.33268952 0.3251269
0000a0 09 3f 0c 3f 0a d5 b0 3e 36 82 03 bf 2a 48 e5 3e
       0.54783684 0.34537536 -0.5137056 0.4478162
0000b0 66 f9 ac be 63 3b ab bd 52 0e 87 3e 38 76 c1 be
       -0.33784026 -0.083609365 0.26378113 -0.37785506
0000c0 e2 64 b0 be 37 e9 94 3e bf 81 da be 6a 74 b1 3c
       -0.34451967 0.2908418 -0.42677113 0.021661956
0000d0 6c 92 e2 be 4f c8 9d 3e fa 60 4f bd a1 36 da be
       -0.44252336 0.30816886 -0.050629593 -0.42619804
0000e0 31 ba 5d be ce e6 4e bf 18 97 50 3f 13 08 55 bd
       -0.21653058 -0.8082093 0.8148055 -0.052009653
0000f0 3d 9c b5 3e ac 59 41 be 61 ed cf be 37 9d b7 3c
       0.35470763 -0.18881863 -0.40610793 0.022413833
000100 7a fc d2 be 69 67 e4 be 55 9c 2c bf 1d 25 01 bf
       -0.4120825 -0.44610146 -0.67426044 -0.50447255
000110 1f c8 08 bf f5 d2 33 3f 29 a6 23 bf 90 1b f2 be
       -0.5343036 0.7024377 -0.63925415 -0.47286654
000120 16 e4 49 3f 39 3e 68 bf b5 78 ca 3c 3c 0a af 3e
       0.78863657 -0.90719944 0.02471576 0.34187496
000130 d3 ca 87 be b8 c2 37 3f ff e0 e8 be 69 e5 f2 3d
       -0.2652193 0.7178149 -0.45484158 0.11860163
000140 91 ff 77 be 8f 05 01 3e eb a6 29 3e d3 3c 08 bf
       -0.24218585 0.12599777 0.1656758 -0.5321781
000150 da 32 8a 3e cc e9 1c 3f 99 45 bd be 5a 8f 45 3f
       0.26991922 0.61294246 -0.3696716 0.7717186
000160 4b 84 20 3f cd e2 c0 3b b0 6a 31 3f c5 72 14 bf
       0.62701863 0.0058864118 0.6930342 -0.57987624
000170 30 7c 12 bf e6 25 a0 be ff 5f 1b 3e dc 32 16 3c
       -0.57220745 -0.31278914 0.15173338 0.009167399

fc1.bias f4 [32]
000000 38 f6 bb be d0 93 c1 be eb b3 ce bd ae 11 a8 3e
       -0.36711287 -0.37808084 -0.100929104 0.3282599
000010 16 4c ec 3e ad 55 31 3f 87 e4 22 be 36 f2 63 bc
       0.461518 0.69271356 -0.15907489 -0.013912728
000020 47 c1 a3 bd 56 da 63 be 1d d5 4a be 17 8e 6b be
       -0.07995849 -0.22251257 -0.19807859 -0.23003422
000030 2f d3 d2 be d6 57 a0 bd 39 cb 65 bd 64 a2 03 bf
       -0.41176745 -0.078292534 -0.05610201 -0.51419663
000040 47 e0 13 3f 59 cb 29 3f f4 92 9e bc 6f 58 b2 3d
       0.57764095 0.6632591 -0.019357182 0.087082736
000050 cb ea e8 3d 41 55 6c 3e d5 4c f4 3e 71 86 e6 be
       0.11372908 0.23079397 0.47714868 -0.45024446
000060 40 c4 a3 be 04 6e 35 bf ac 92 6c 3e f2 de 9b 3d
       -0.31985664 -0.70870996 0.23102826 0.07610883
000070 d5 96 c0 bd 55 da 98 3e 6e 48 f3 be e4 8d 92 be
       -0.09403769 0.29854074 -0.47516197 -0.2862388

fc2.weight f4 [32, 32]
000000 12 18 81 3e c6 8f 7e be 91 64 3f bd 33 59 dd 3d
       0.25213677 -0.24859533 -0.046726767 0.10808029
000010 cc fc 9d 3e 3f a7 90 be ff 4e 10 3f 05 f2 4e bd
       0.3085693 -0.282526 0.5637054 -0.050523777
000020 1f 10 b2 bd 01 72 4e bd dc f2 bb 3e 3f 89 ae bd
       -0.08694481 -0.05040169 0.36708724 -0.08522271
000030 ed f3 aa bd 37 ef 87 3e d1 fd bc 3c d8 66 04 be
       -0.083473064 0.26549694 0.023070248 -0.12929857
000040 90 26 94 3e 40 44 ac bd 25 f8 06 be 62 78 25 bf
       0.2893567 -0.08411455 -0.13180597 -0.64636815
000050 41 0e 42 bd be 16 72 3d 7d 94 c3 3e 38 3b c4 be
       -0.047376875 0.05910372 0.38199225 -0.3832643
000060 8d 85 0d bf 03 bf 0b 3f 50 37 77 3e 06 5a 3f 3e
       -0.5528191 0.54588336 0.24142194 0.18686685
000070 15 dd ed 3d 3d 01 f3 3e 6b bb 9b be 60 29 d8 bd
       0.11614434 0.47461882 -0.30416426 -0.10554767
000080 36 29 07 3e 13 59 4c be 95 7d 90 bd bb de 22 3e
       0.13199314 -0.19955854 -0.07055203 0.15905277
000090 0f ee 0b 3e e5 ea 03 be 67 95 a1 3d 36 31 8a bd
       0.13665031 -0.12882574 0.07889824 -0.067476675
0000a0 a1 bb 2f bd 62 83 f1 3c 9b 0c 48 3d 33 bb 2a 3e
       -0.042903546 0.029481594 0.048840147 0.16672973
0000b0 22 1d 1c be ec 51 ab ba 8e 9f 81 bd b6 3b 16 be
       -0.15245488 -0.0013070679 -0.06329261 -0.14671215
0000c0 62 bf b2 3c 60 07 b4 3d d7 0b ee 3c 11 89 cc bc
       0.021819774 0.08790469 0.02905838 -0.024967702
0000d0 32 1d 25 3e 51 fc 27 3e 62 54 6b 3d 44 73 30 be
       0.16124418 0.16404845 0.05745352 -0.1723147
0000e0 1c 2e a0 bd a3 d1 10 be f0 8b 81 3a 4a 7a 02 3e
       -0.07821295 -0.1414247 0.0009883624 0.12741962
0000f0 5e 22 27 3e e4 7c f2 3d 25 a7 ed 3c 12 08 bb 3d
       0.16321704 0.11840227 0.029010365 0.09132399
000100 85 8d 80 3e 80 f3 8c be fa a1 28 3e 1c bf 66 3d
       0.2510797 -0.27529526 0.16468039 0.0563346
000110 27 14 38 3e 23 e4 ac be 7d 1b c8 3e 3d 0c f0 3d
       0.17976438 -0.33767805 0.39083472 0.11721084
000120 c5 14 62 3d 0b 61 b0 3d 47 9b bf 3c 23 b7 ae bb
       0.05519559 0.086122595 0.023389472 -0.00533189
000130 54 a4 15 3e bd 88 d7 3d 8e fd 8f 3d c5 97 50 bd
       0.14613467 0.10524128 0.070307836 -0.05092599
000140 0f 1f b4 3d 50 38 83 bc df f1 87 ba 9a 1e 95 be
       0.087949865 -0.016018063 -0.0010371766 -0.2912491
000150 92 47 be bd 28 7e d5 bb 3c a0 13 3e 55 6c 8e be
       -0.09290995 -0.006515283 0.14416593 -0.27817026
000160 37 cf a9 be d9 e7 a2 3e bf cf 0a bd b2 fb 84 bc
       -0.33165905 0.3181751 -0.03388953 -0.016233299
000170 6a e1 85 bd 1f d9 d5 3e 77 20 ed bd 13 1a 19 be
       -0.06537135 0.41767213 -0.11578458 -0.14951353
000180 ee d0 03 bd 67 b2 ce 3d ce fd 19 3d d0 94 cf bc
       -0.032181673 0.10092621 0.037595563 -0.025339514
000190 b6 bf ec bd 4b 4b 85 3e 2b b8 f8 bd 96 ef 92 3d
       -0.115600035 0.26034006 -0.12144502 0.07174604
0001a0 0c 1b ed bd 9d be 1f 3e d3 f3 f0 3c ba 65 24 bd
       -0.115774244 0.15600057 0.02941314 -0.040136077
0001b0 fd f5 2c 3d 36 91 3a 3c 00 32 36 3d 75 91 b9 bd
       0.04222678 0.01138716 0.044481277 -0.09060947
0001c0 93 8b ef 3d fd 08 7e 3d 4e d1 cd bc e8 04 20 3e
       0.116965435 0.06202029 -0.025124218 0.15626872
0001d0 d3 c7 41 bd be 51 25 3c 4f 9f 39 bb 0e 9a a7 bd
       -0.047309708 0.01009029 -0.0028323715 -0.081836805
0001e0 f1 8b f2 3d ca 28 e3 bd 80 71 7c 3d 80 62 21 be
       0.11843098 -0.11091764 0.06163168 -0.15760231
0001f0 b4 2b cc 3d ad 41 a6 3b 82 9f 7a bd 67 82 49 bd
       0.09969273 0.005073747 -0.061187275 -0.049196627
000200 00 00 12 be d2 6e 66 be ad 14 79 3a b7 e3 a9 bd
       -0.14257812 -0.22503212 0.0009501677 -0.08295386
000210 f8 9d 3e 3e db b9 d1 3b 27 d0 41 3d 80 e0 e9 3d
       0.18614948 0.0064003295 0.04731765 0.11419773
000220 20 c5 bc 3d 67 e4 e2 3b ba a5 77 3e 70 ab f4 bd
       0.09217286 0.0069242003 0.24184313 -0.119467616
000230 a4 46 36 be 02 a3 b3 bd ec 6d e3 bd 1b 23 78 3d
       -0.17800385 -0.08771326 -0.1110495 0.060580354
000240 4e 63 16 be d1 53 12 3e d4 3d 8c 3c 9d 67 1c bd
       -0.14686319 0.14289786 0.017119326 -0.03818475
000250 27 84 90 bd 01 15 f9 3c 14 4e 85 3e 88 90 65 be
       -0.07056456 0.030405523 0.2603613 -0.22418416
000260 1f 13 48 bd 73 35 36 be 02 2c 57 3e a9 02 3c be
       -0.04884636 -0.17793827 0.21012881 -0.1836039
000270 4d 0b ff bd 96 80 79 3d 97 b0 b4 bb 47 e9 37 3d
       -0.12453327 0.060913645 -0.005514215 0.044900205
000280 e3 99 b1 3d c1 99 f9 3d 32 d3 eb 3d ee 6e 0d 3d
       0.0867193 0.12187529 0.11514892 0.03452962
000290 e9 be 0f be 74 77 de bc 93 75 83 3c ac b1 c5 bd
       -0.1403767 -0.027156569 0.016047275 -0.09653029
0002a0 e1 5a 1d be a8 49 a9 3d ad b5 c2 3d c0 24 16 3e
       -0.15366699 0.08266002 0.09507308 0.14662457
0002b0 e1 66 0e 3e 41 64 cf bd ff a9 a9 bc 91 e9 30 be
       0.13906433 -0.10126544 -0.020710943 -0.17276599
0002c0 0b 3e c0 bd d8 55 dd 3d b1 6e 9f bd 2f 4e c7 3b
       -0.09386834 0.10807389 -0.077847846 0.0060823183
0002d0 2d 70 99 bd 59 a3 b0 3d 47 74 07 3c f4 55 09 be
       -0.07492099 0.08624906 0.008267469 -0.13411695
0002e0 55 1e 5b 3c 43 b1 0c be 80 2c 0f bd e5 33 47 bc
       0.013373931 -0.13739495 -0.034954548 -0.012158369
0002f0 a6 9f 32 bd 42 2b 80 bd 88 1b a1 3d 2c 38 20 be
       -0.043609284 -0.06258251 0.07866579 -0.15646428
000300 12 35 5c 3d d8 4f 83 3d 42 74 14 3e ff 71 03 be
       0.05376155 0.06411713 0.14497474 -0.12836455
000310 83 97 f8 bc f9 ab c2 bd 1b f2 d9 3c 11 af 26 3e
       -0.030345684 -0.095054574 0.026604703 0.1627772
000320 3e 44 31 be 98 a9 70 3c f0 ea 35 bd c3 3f 19 3e
       -0.17311189 0.014688872 -0.044413507 0.1496573
000330 fc 34 a0 3d 5f 01 de bd ce 46 17 be 94 9a a2 3d
       0.07822606 -0.10840105 -0.14773104 0.0793964
000340 f2 d1 ea 3d 2f c3 08 3e 36 2d 42 bd 05 61 ee bd
       0.11465825 0.13355707 -0.047406398 -0.11639599
000350 79 2b d4 bc cc 31 78 3d 2f b4 37 be 52 a3 85 3d
       -0.025899636 0.060594365 -0.17939828 0.065252915
000360 5d 71 f9 bd 99 d1 de bd 3d e8 cb bc 12 34 25 be
       -0.121798255 -0.10879821 -0.024891013 -0.16133144
000370 0e dd 85 bd a1 96 86 3d b4 f0 d6 3d 18 e2 d0 bd
       -0.065363035 0.06571699 0.10495129 -0.10199374
000380 e0 91 12 be 23 07 02 3e c7 fe ba bd d8 af d7 bd
       -0.1431346 0.12698035 -0.09130626 -0.105315864
000390 20 47 02 3d 84 18 cb 3d 4d 9b 7e bd 39 ef 23 3e
       0.03180611 0.09916785 -0.062159825 0.16009225
0003a0 85 99 f1 3d 72 c1 40 3d 88 6a ed 3d 2f 19 1f 3e
       0.1179686 0.047059484 0.11592585 0.1553695
0003b0 dd d0 10 be 3a e2 f7 bd 8d 38 7d bb 07 f1 05 3e
       -0.14142175 -0.12103696 -0.0038638443 0.13080226
0003c0 ed 08 b6 bd 92 69 07 3e 04 3a 82 3d 14 d6 23 bd
       -0.08888421 0.13223866 0.06358722 -0.039999083
0003d0 31 ae b9 bd da 4c c4 bd 89 24 b2 bd c1 47 c9 bc
       -0.090664275 -0.09584971 -0.08698375 -0.024570348
0003e0 ab e1 28 be 3e 53 a0 bd 5a 45 0d bd 02 73 ed 3d
       -0.16492335 -0.07828377 -0.034489967 0.115942016
0003f0 b5 d2 76 bd 4b 23 33 3d 61 ab c7 3c 4b c5 12 bd
       -0.06025954 0.04373483 0.024373712 -0.035832684

fc2.bias f4 [32]
000000 a2 0a 18 be 26 03 e1 bc b5 02 f6 3c 6a 64 b0 3d
       -0.14847806 -0.027467322 0.030030588 0.086129025
000010 5d ef 0b be cc 1b 0b be 31 07 0d bd f9 8b 8e bd
       -0.13665529 -0.13584822 -0.034430686 -0.069602914
000020 35 cf f1 3d ee 58 d4 3d 66 62 08 bd 3d 1f c4 3c
       0.118071 0.103685245 -0.033296965 0.023940677
000030 18 a2 71 bd a0 01 40 3e 69 b0 9d 3d cd ba 43 3e
       -0.058992475 0.1875062 0.07699663 0.19114228
000040 8d 99 5e 3e 95 aa 97 bb a6 3c 5f 3d 0d 3b a4 3d
       0.21738262 -0.0046284893 0.0545012 0.080190755
000050 b5 13 a1 3c a2 61 1f be 1b 11 6d 3e ba 5e 45 3e
       0.019662717 -0.15564588 0.23151056 0.19274417
000060 e7 e8 de bd 0e 12 32 3e b4 1d fd 3d 2c a9 94 3e
       -0.10884266 0.173897 0.12359181 0.29035318
000070 0c 63 2f 3e 97 05 4c be 9a 0c 93 3e ca 63 26 be
       0.17127627 -0.19924007 0.28720552 -0.16249004

fc3.weight f4 [1, 32]
000000 fb bb c3 bf 88 16 4b be c3 00 70 bf c8 8a 9d 3e
       -1.5291742 -0.19832814 -0.9375116 0.30769944
000010 e3 a7 f9 be c5 04 ac bd ba 8a cd bd 9b 6c 7f bd
       -0.487609 -0.08399347 -0.100362256 -0.062359434
000020 ba b0 55 3d da 72 93 3f 86 9f 84 3d 46 4f 16 3f
       0.052170493 1.1519425 0.06475739 0.5871471
000030 33 80 90 be 28 c5 21 3e 6b 99 f7 3e c6 75 80 be
       -0.28222808 0.15797865 0.48359236 -0.25089854
000040 d8 b5 43 bf 0c 73 0c 3e 86 06 13 3e 6a 3b e8 bd
       -0.76449347 0.13715762 0.14357957 -0.11339457
000050 c5 7d fa bd f6 4e 73 be 1f c6 7a 3f 2d e1 08 bf
       -0.1223102 -0.2376059 0.9795856 -0.5346859
000060 8a 0a 4c be d2 ff 81 3d 12 a3 04 3e 5b 51 2d bf
       -0.19925895 0.06347622 0.12952831 -0.67702264
000070 3c 63 c6 3d fe 47 13 3e 9b f1 5d 3f f3 8b 2c be
       0.09686896 0.14382932 0.86696786 -0.16850261
