Networks/7-DDPG-with-target-network-policy-network-theta=0.25.pt (torch, 7487 bytes, 5 tensors)

fc1.weight f4 [32, 3]
0	0xbecdf983	-0.40229425
1	0x3f038c3f	0.51385874
2	0x3e27fbd1	0.16404654
3	0x3e24e9ad	0.16104765
4	0xbe48c9cf	-0.19608234
5	0x3e9a9d1a	0.30197984
6	0x3e25172d	0.16122122
7	0x3e7043e9	0.23463406
8	0xbef2bc71	-0.47409394
9	0x3efba55b	0.49149594
10	0x3e439fba	0.191039
11	0x3f0b9aeb	0.5453326
12	0x3f4e1b28	0.8051019
13	0xbe93aa22	-0.2884074
14	0xbefaf206	-0.49012774
15	0xbef0e104	-0.47046673
16	0x3f1b2785	0.60607177
17	0xbd774257	-0.060366
18	0xbe9cc76c	-0.30620897
19	0xbeef5000	-0.46740723
20	0x3f02d71e	0.5110949
21	0xbed5911a	-0.41712266
22	0xbe8ec62e	-0.27885574
23	0x3e463602	0.1935654
24	0x3f257085	0.64624816
25	0xbe3f8774	-0.18704015
26	0xbe8348be	-0.25641435
27	0x3e21e5ab	0.15810268
28	0x3c418bc0	0.011813104
29	0x3f20d995	0.62832004
30	0x3e82fe77	0.25584766
31	0xbe637e5b	-0.2221617
32	0x3eb4109e	0.35168928
33	0xbeb74757	-0.35796615
34	0xbedfab35	-0.43685308
35	0x3ea9db46	0.33175105
36	0x3e09a3e4	0.13441426
37	0xbe3672d2	-0.17817238
38	0xbf13d0d6	-0.57740533
39	0xbdf689da	-0.12038012
40	0x3ef7149e	0.48257917
41	0xbe8e2629	-0.2776349
42	0x3e63c17c	0.22241777
43	0xbd3daf89	-0.04630998
44	0xbc03efbd	-0.0080527635
45	0x3f4f1ae4	0.80900407
46	0xbf5d65bd	-0.86483365
47	0xbec8680d	-0.39141884
48	0xbe0883ce	-0.1333153
49	0x3f1fe21f	0.6245441
50	0xbee739ed	-0.4516138
51	0xbe68ae31	-0.22722699
52	0xbe7666da	-0.24062672
53	0xbea3f60c	-0.32023656
54	0xbe94899f	-0.29011247
55	0x3e891d1f	0.2678003
56	0xbed740a6	-0.4204151
57	0xbf0ccc93	-0.54999655
58	0x3e818505	0.25296798
59	0x3e8317a7	0.25603983
60	0xbeba87d6	-0.3643176
61	0x3ea3365c	0.3187741
62	0x3ea88631	0.3291488
63	0x3e8439e4	0.25825417
64	0xbd7188ec	-0.05896847
65	0x3e2dfa0c	0.16989917
66	0xbf4c69d5	-0.79848987
67	0xbf28d2a8	-0.65946436
68	0xbe8c26be	-0.27373308
69	0x3eec7413	0.46182308
70	0x3e8b58a8	0.27216077
71	0x3ea7ad9b	0.32749638
72	0x3f0c5ba2	0.5482732
73	0x3ebfbe68	0.37449956
74	0x3f2d2e98	0.6764922
75	0x3ebafedb	0.36522564
76	0xbdf216c8	-0.118207514
77	0xbf0bea01	-0.54653937
78	0xbe3bdef6	-0.18346772
79	0x3e1cf71f	0.15328644
80	0xbec0ad5f	-0.37632272
81	0xbf096c86	-0.5368122
82	0xbed0357d	-0.40665808
83	0x3db0f81d	0.08641074
84	0xbe6daef8	-0.23211277
85	0x3f675b08	0.9037328
86	0x3e8867b6	0.26641625
87	0xbe6e59cc	-0.23276442
88	0x3e812d5d	0.25229922
89	0x3e0367a6	0.12832507
90	0xbe062e35	-0.13103564
91	0xbe167e2f	-0.14696573
92	0x3f2da78a	0.6783377
93	0x3f221ae0	0.6332226
94	0x3f68f961	0.9100552
95	0x3ea94f91	0.33068517

fc1.bias f4 [32]
0	0x3e24850e	0.16066381
1	0xbf2fe0d2	-0.68702424
2	0xbf28cfd3	-0.65942115
3	0xbf1fcaed	-0.62419015
4	0xbeff5af3	-0.49874076
5	0x3e320d31	0.17387845
6	0xbdab7bbc	-0.0837321
7	0x3e4a7c63	0.19774012
8	0xbeef4103	-0.46729288
9	0xbefb525f	-0.49086282
10	0xbf29a592	-0.66268265
11	0x3f0b49b0	0.54409313
12	0x3f166efc	0.587631
13	0xbf07b410	-0.5300913
14	0x3f058e7a	0.52170527
15	0xbecae673	-0.39628944
16	0x3f3b4da2	0.73165333
17	0xbd224810	-0.039619505
18	0xbe0f1468	-0.13972628
19	0x3e92aea5	0.28648868
20	0x3ec5d89a	0.38641816
21	0x3eff92e0	0.49916744
22	0x3ed465ac	0.4148382
23	0xbe917d79	-0.2841604
24	0x3e9dae2f	0.30796954
25	0x3af614fd	0.0018774566
26	0x3ea1c6d8	0.31597018
27	0xbea0edac	-0.3143133
28	0x3f1d8be9	0.6154161
29	0x3d2297e2	0.039695628
30	0x3f38e068	0.72217417
31	0x3e7dc788	0.24783146

fc2.weight f4 [32, 32]
0	0x3d73931e	0.059466474
1	0x3d73a0c4	0.05947949
2	0xbded475f	-0.115858786
3	0xbd8fbd2b	-0.07018503
4	0x3d470d0d	0.04859643
5	0x3e4eeff1	0.20208718
6	0x3de37561	0.111063726
7	0x3e32dc68	0.17466891
8	0xbd877c7f	-0.066155426
9	0xbcfc0f7c	-0.030769102
10	0x3db45698	0.08805579
11	0x3e2340a9	0.15942635
12	0xbdc1fd36	-0.09472124
13	0xbe2a6447	-0.16639815
14	0xbdcc35b7	-0.09971183
15	0xbc1a49cb	-0.009417008
16	0xbca62828	-0.02028282
17	0xbc856eaf	-0.01628813
18	0xbe38bfe7	-0.18041955
19	0x3e31713b	0.1732835
20	0x3e07cca4	0.13261658
21	0xbde72230	-0.112858176
22	0x3d804321	0.06262804
23	0xbddaf8ac	-0.10691962
24	0x3e022663	0.12709956
25	0xbe5497bb	-0.20761006
26	0x3dc49264	0.09598234
27	0x3be8bee5	0.0071028345
28	0x3e7f6e20	0.24944353
29	0x3e154080	0.14575386
30	0x3dfb1792	0.12260355
31	0xbdd441bc	-0.103641
32	0xbe072a08	-0.13199627
33	0x3d97e8a8	0.074174225
34	0x3c80b36b	0.015710553
35	0x3e92f655	0.2870356
36	0xbe20861b	-0.15676157
37	0x3d032fdb	0.03202806
38	0x3d8f784c	0.07005367
39	0x3dd143bf	0.10218
40	0xbe2a63e0	-0.16639662
41	0x3e80f8a4	0.25189698
42	0xbc209799	-0.009801769
43	0xbe1b66d6	-0.15175948
44	0xbdec54b9	-0.11539597
45	0x3b457bdc	0.003013364
46	0xbda6d445	-0.08145956
47	0xbdc11398	-0.09427565
48	0xbd8c2b63	-0.06844213
49	0x3e1e09a3	0.15433364
50	0xbda7f3c7	-0.08200794
51	0xbe3a8c1b	-0.18217508
52	0x3d47592f	0.048669036
53	0xbcaba332	-0.020951841
54	0x3d342bfa	0.04398725
55	0xbd6d3f22	-0.057921536
56	0x3e6d8074	0.23193532
57	0x3d9d9f86	0.07696442
58	0x3e03b94f	0.12863658
59	0xbe10b2bb	-0.1413068
60	0xbe030742	-0.12795737
61	0x3c4fe1b0	0.012688085
62	0x3d9013cb	0.07035025
63	0x3e94f345	0.2909185
64	0xbba41a34	-0.0050080065
65	0x3de7e5e1	0.11323143
66	0x3d4d0f14	0.050063208
67	0xbdc9f76d	-0.09861646
68	0xbd0b33bb	-0.03398488
69	0x3dd11836	0.10209696
70	0x3e1d8cca	0.15385738
71	0xbcf13c0c	-0.029447578
72	0x3dbd7a14	0.092518
73	0x3de7661a	0.11298771
74	0xbd8cc5b2	-0.06873645
75	0x3e0c2d71	0.1368921
76	0xbc88dae8	-0.016705945
77	0xbd9eb4da	-0.077493384
78	0x3dc8dba1	0.09807516
79	0x3e074017	0.13208042
80	0x3d3617c3	0.044456255
81	0x3e1b6a60	0.15177298
82	0xbdb9ae9d	-0.09066508
83	0x3d94a147	0.07257324
84	0xbe232060	-0.15930319
85	0xbc1a8a9d	-0.009432462
86	0x3d997fc0	0.074950695
87	0x3e0b81c9	0.13623728
88	0xbda133fd	-0.07871244
89	0xbe333df1	-0.17504098
90	0x3dd65346	0.10465102
91	0xbcadec4d	-0.021230841
92	0xbe22faf6	-0.15916047
93	0xbddbfc33	-0.107414626
94	0xbe27dbdb	-0.16392462
95	0xbc614c3c	-0.013751086
96	0xbe01cb65	-0.12675245
97	0xbe14ee97	-0.1454414
98	0xbdd365e7	-0.10322171
99	0x3d80b03c	0.06283614
100	0xb9b5da09	-0.0003468546
101	0xbdd3391d	-0.10313628
102	0x3da2e02f	0.07952916
103	0xbe28f828	-0.16500914
104	0x3cd6f914	0.026241817
105	0x3db370ea	0.08761771
106	0x3cb66f57	0.022269888
107	0xbe208ccc	-0.1567871
108	0xbd014fff	-0.03157043
109	0x3b37e3fd	0.0028059476
110	0x3e1a5609	0.15071882
111	0xbba6787c	-0.005080281
112	0xbdfdba9f	-0.12389111
113	0xbd396b88	-0.045268565
114	0xbd313bfa	-0.04327009
115	0x3e05d207	0.130684
116	0xbcf4726a	-0.029839713
117	0xbd5707f6	-0.052497827
118	0xbe1d7228	-0.15375578
119	0x3da84bb7	0.082175665
120	0xbc7e2183	-0.0155109195
121	0xbd98c300	-0.07459068
122	0xbdc93c88	-0.098259985
123	0xbd4f37cc	-0.05059032
124	0xbe1890c1	-0.14898969
125	0x3e2d3dca	0.16918102
126	0x3e0cd7c3	0.13754182
127	0xbdfba821	-0.122879274
128	0xbdba9a98	-0.09111518
129	0xbbe27152	-0.0069104815
130	0x3d3362bd	0.043795336
131	0xbd26659d	-0.04062425
132	0xbe094a0f	-0.13407157
133	0xbd92096b	-0.071307026
134	0xbe3337be	-0.17501733
135	0xbe176d88	-0.14787877
136	0xbd7688fe	-0.06018924
137	0xbdf71157	-0.12063854
138	0xbdd9817a	-0.10620399
139	0x3dc11ead	0.09429679
140	0xbdd82317	-0.10553568
141	0xbe1b7ce4	-0.1518436
142	0xbe2b43a2	-0.16725019
143	0xbe178047	-0.14795028
144	0x3e0a3596	0.13497004
145	0xbe1e3002	-0.15448001
146	0xbdb35480	-0.087563515
147	0x3e1d5ee9	0.15368237
148	0x3d7505f1	0.05982012
149	0xbdeae170	-0.1146878
150	0x3d22fa64	0.039789572
151	0xbc161cde	-0.009162156
152	0x3cfa8c30	0.030584425
153	0x3d6e2358	0.058139175
154	0xbc16ad49	-0.009196588
155	0x3da9fd9f	0.083003275
156	0xbdbce0d7	-0.09222572
157	0x3dfb66aa	0.12275441
158	0x3e12bb24	0.14329201
159	0xbe2e037c	-0.16993517
160	0xbd67e149	-0.056611333
161	0x3db2fa00	0.0873909
162	0x3b1ba1b0	0.0023747496
163	0x3e7b8b70	0.2456491
164	0xbcbee8da	-0.023304392
165	0xbd8502ca	-0.064946726
166	0xbd4bb8bc	-0.049736723
167	0x3d9078bd	0.07054279
168	0x3ca96724	0.020679064
169	0x3e2a21b2	0.16614416
170	0x3e7bce37	0.24590383
171	0xbe171fc7	-0.14758216
172	0xbdd42151	-0.10357917
173	0xbc2e43d1	-0.010636286
174	0x3db20470	0.08692253
175	0xbd1f7fdd	-0.0389403
176	0x3e1d4f21	0.15362217
177	0x3e09f357	0.13471733
178	0xbc3a8f89	-0.0113867605
179	0x3d316519	0.043309305
180	0x3910117d	0.00013739425
181	0xbd5691f7	-0.052385297
182	0xbe01954d	-0.1265461
183	0x3d9e409f	0.07727169
184	0x3e4e2897	0.20132671
185	0xbd666113	-0.05624492
186	0xbd3f2abd	-0.046671618
187	0xbc00c726	-0.007859981
188	0x3dee2bae	0.11629425
189	0xbdaf3b84	-0.085562736
190	0xbd115087	-0.035477187
191	0x3e53edc9	0.20696177
192	0xbe83dd39	-0.25754717
193	0x3c4600eb	0.01208518
194	0xbe2b4958	-0.16727197
195	0x3db8ae66	0.09017639
196	0xbeeb5dac	-0.45969903
197	0xbe701411	-0.23445155
198	0xbcdad2b4	-0.0267118
199	0x3d981a39	0.074268766
200	0xbec5fe73	-0.38670692
201	0x3d4b6706	0.049658798
202	0x3dab107c	0.083527535
203	0xbdbe2c4a	-0.09285791
204	0x3e88f4d8	0.267493
205	0xbc090ba0	-0.008364588
206	0x3e41d98a	0.18930641
207	0xbedb2fa1	-0.42809775
208	0x3edfef46	0.4373724
209	0xbcbc14c3	-0.022959119
210	0x3cd35913	0.02579931
211	0xbdb907d5	-0.09034697
212	0xbca1b194	-0.019737996
213	0x3ddba981	0.1072569
214	0x3eb64329	0.35598114
215	0x3d71f735	0.059073646
216	0xbdd5c954	-0.10438791
217	0xbdf1c157	-0.11804455
218	0x3e560e64	0.20903927
219	0x3e029cca	0.12755123
220	0x3f068832	0.5255157
221	0xbe733c6b	-0.23753516
222	0xbe5399f1	-0.20664193
223	0x3e7c9ed6	0.24669966
224	0x3dc74ad5	0.0973107
225	0xbca4fe1c	-0.0201407
226	0x3cb5b737	0.02218209
227	0x3d316ad9	0.04331479
228	0x3e913e09	0.28367642
229	0xbe016709	-0.12636961
230	0x3db352b0	0.08756006
231	0x3db19b23	0.08672168
232	0x3db5b608	0.0887261
233	0x3d4b078a	0.049567737
234	0xbd463540	-0.048390627
235	0xbccdbfed	-0.025115931
236	0x3dc7d56f	0.09757506
237	0xbdcfd9bf	-0.10148954
238	0x3d94040a	0.07227333
239	0x3e0b05e5	0.13576467
240	0xbd21bc78	-0.03948638
241	0xbd9ab040	-0.07553148
242	0x3d94c024	0.072632104
243	0xbd86155f	-0.06547045
244	0x3cf9ce12	0.03049377
245	0xbe1302fc	-0.14356607
246	0xbe0222fc	-0.12708658
247	0xbdd243e4	-0.10266855
248	0x3d48ff29	0.049071465
249	0x3e74b673	0.23897724
250	0xbe01afaf	-0.12664674
251	0xbd7b3f11	-0.06133944
252	0x3c17972c	0.009252351
253	0x3dbcd795	0.092208065
254	0xbe10ac1d	-0.14128156
255	0x3d92ad03	0.071619056

fc2.bias f4 [32]
0	0x3e57a413	0.21058683
1	0xbe291411	-0.16511561
2	0xbdb1b377	-0.08676808
3	0x3e08f57d	0.13374896
4	0xbdc35660	-0.09537959
5	0xbd41b586	-0.047292255
6	0x3ee499e8	0.4464867
7	0xbe2f2aae	-0.17106125
8	0x3e9a6a10	0.30159044
9	0x3d6b927c	0.057512745
10	0x3898c8da	7.285336e-05
11	0xbbf06a6a	-0.0073369043
12	0x3dd5d1e5	0.10440425
13	0x3da64100	0.081178665
14	0xbe448b4d	-0.19193764
15	0x3e2679e1	0.1625743
16	0x3d22763e	0.039663546
17	0x3d2d7a2c	0.04235284
18	0xbaf99a19	-0.0019043117
19	0x3e81c34c	0.25344312
20	0x3e1c798b	0.1528074
21	0x3d71e5c4	0.059057012
22	0x3e4137b5	0.18868907
23	0xbe1968b4	-0.14981347
24	0x3e40a6aa	0.18813577
25	0xbdb2eec6	-0.08736949
26	0xbe1b1198	-0.1514343
27	0xbe172627	-0.14760648
28	0x39b0430a	0.00033619284
29	0x3de11599	0.109904476
30	0x3ca01211	0.019539865
31	0x3d136d33	0.035992812

fc3.weight f4 [1, 32]
0	0x3ec4ce47	0.38438627
1	0xbedb9ef0	-0.42894697
2	0xbe0f2f66	-0.13982925
3	0x3bc260d0	0.005931951
4	0x3e12c90f	0.1433451
5	0xbedd6c00	-0.4324646
6	0xbf9fe1a4	-1.2490735
7	0x3e902267	0.28151247
8	0x3fb0e3dc	1.3819537
9	0xbfc31054	-1.5239358
10	0x3f284e26	0.65744245
11	0xbe1946dc	-0.14968437
12	0x3edc224d	0.4299492
13	0x3e2a3bca	0.1662437
14	0xbd8397b7	-0.06425422
15	0x3ebc0bf7	0.36727878
16	0x3e5ed7b0	0.21761966
17	0x3eda0666	0.42583007
18	0x3e8e28df	0.27765557
19	0x3f25295e	0.64516246
20	0xbf158df1	-0.5841971
21	0x3eb65683	0.35612878
22	0xbf07ef27	-0.5309929
23	0xbe050424	-0.12989861
24	0x3e274cca	0.16337886
25	0x3e29ae79	0.16570462
26	0x3bbd7258	0.005781453
27	0xbe2df855	-0.16989262
28	0xbf61d192	-0.88210404
29	0x3e4f1d97	0.20226131
30	0xbecc7335	-0.39931646
31	0x3f3e8bc4	0.74432015
