Networks/7-DDPG-with-target-network-policy-network-theta=0.75.pt (torch, 7487 bytes, 5 tensors)

fc1.weight f4 [32, 3]
0.25114736 -0.55605775 -0.12598133 -0.43051037 0.008116194 -0.07698148 -0.5281962 -0.3181788
0.21468818 0.2614985 0.03733908 -0.6004727 0.5055781 0.37175056 0.44454443 -0.13955547
-0.5115493 -0.5299114 0.727102 -0.2401632 0.6200924 -0.06087743 -0.52431196 0.019056775
0.4108312 -0.3064951 0.16314036 -0.7280346 -0.42129436 -0.49779242 -0.10743272 0.5089518
0.19304805 -0.090128034 0.114891246 0.24733703 -0.23706004 0.48110515 0.17280644 0.078345664
-0.17114654 -0.38735873 0.16601798 -0.15826854 0.18839025 0.1633264 0.1695757 0.21234183
0.2814227 0.16870342 0.62445956 0.41926286 -0.30966958 0.2521315 -0.8096543 0.06318022
-0.60572803 0.5751941 -0.15804857 0.37092948 0.027551828 -0.0512317 -0.310891 -0.14774622
-0.474218 0.47270322 -0.40181345 -0.25004873 0.11032546 0.41517666 0.20617953 -0.31637597
0.048314635 -0.40778467 -0.090549655 0.51879597 -0.35929394 -0.35137886 -0.436251 -0.28799474
0.26840097 -0.8545953 -0.47186342 0.6024922 0.26276127 -0.44678083 0.48722085 0.5186831
0.28581384 -0.37144992 0.21662353 -0.5468036 -0.14127165 -0.7552812 0.2625169 0.11209317
00000000: 6396 803e cd59 0ebf 4001 01be db6b dcbe
00000010: c9f9 043c 77a8 9dbd de37 07bf 55e8 a2be
00000020: 38d7 5b3e 22e3 853e ddf0 183d 94b8 19bf
00000030: 916d 013f 1756 be3e 549b e33e a1e7 0ebe
00000040: e5f4 02bf 46a8 07bf 5b23 3a3f 58ed 75be
00000050: 60be 1e3f 9d5a 79bd 4f39 06bf f41c 9c3c
00000060: 7858 d23e edec 9cbe 440e 273e 7a60 3abf
00000070: e5b3 d7be a6de febe b005 dcbd aa4a 023f
00000080: 63ae 453e 0c95 b8bd 1a4c eb3d eb45 7d3e
00000090: debf 72be 6a53 f63e 2cf4 303e b173 a03d
000000a0: 0a41 2fbe e253 c6be 9e00 2a3e 2611 22be
000000b0: 60e9 403e 093f 273e 41a5 2d3e 2370 593e
000000c0: a316 903e 97c0 2c3e 95dc 1f3f 9fa9 d63e
000000d0: 038d 9ebe 6117 813e 8145 4fbf a264 813d
000000e0: fe10 1bbf ec3f 133f 7cd7 21be 78ea bd3e
000000f0: 5fb4 e13c 55d8 51bd 1b2d 9fbe c94a 17be
00000100: b4cc f2be 2806 f23e 7eba cdbe 6306 80be
00000110: 51f2 e13d 0992 d43e ba20 533e 08fc a1be
00000120: 91e5 453d 27c9 d0be 1972 b9bd d0cf 043f
00000130: 60f5 b7be eee7 b3be 4b5c dfbe 0c74 93be
00000140: da6b 893e c2c6 5abf 1598 f1be ee3c 1a3f
00000150: a588 863e 75c0 e4be 0375 f93e 6ac8 043f
00000160: 3156 923e af2e bebe 8fd2 5d3e 52fb 0bbf
00000170: 84a9 10be 1c5a 41bf 9d68 863e 1b91 e53d

fc1.bias f4 [32]
-0.28458282 -0.45135093 0.19328357 0.41175038 0.009464934 -0.15930358 0.33634743 -0.5480281
0.58108497 0.41331756 0.17081481 0.11239978 0.0042980495 0.039851084 0.60097724 -0.15426302
-0.47399136 -0.23052254 0.2570765 -0.47704175 0.23417504 0.32468015 -0.40717313 0.21180189
-0.32839158 -0.5627879 -0.07798752 0.1963204 -0.40365136 -0.08235476 0.64074266 0.56278604
00000000: d7b4 91be 7817 e7be 21ec 453e f2d0 d23e
00000010: cf12 1b3c 7a20 23be bb35 ac3e 924b 0cbf
00000020: fcc1 143f 5c9e d33e 14ea 2e3e db31 e63d
00000030: a7d6 8c3b e43a 233d a5d9 193f 20f7 1dbe
00000040: ffae f2be 1a0e 6cbe 889f 833e d13e f4be
00000050: 95cb 6f3e 7a3c a63e ff78 d0be 98e2 583e
00000060: f122 a8be de12 10bf ecb7 9fbd 3708 493e
00000070: 64ab cebe 9da9 a8bd b607 243f bf12 103f

fc2.weight f4 [32, 32]
0.002123781 -0.0909441 0.092292726 -0.055464067 -0.12606667 0.15303932 -0.06058584 -0.02701314
-0.045182418 -0.0052224565 0.045617055 0.067005225 0.03043027 -0.12995407 -0.08791703 -0.1321575
0.14289692 0.12351883 0.24504852 -0.1487157 -0.0004831778 0.052644435 -0.072652124 0.07655096
-0.043840658 -0.033996165 0.12028353 -0.07540925 -0.11634545 -0.1498639 -0.04726179 0.012580974
-0.07744777 -0.1250169 0.08053601 0.19734812 -0.1738444 -0.08774006 -0.013321208 0.11348288
0.04693976 -0.06817914 -0.04200007 0.016926084 -0.16409524 -0.15679653 0.01047459 -0.074731275
-0.15405075 0.067913346 0.20864059 -0.025572838 0.1726465 0.15387863 -0.003573784 0.0038540522
-0.15475398 0.12246978 0.03214457 -0.12601024 0.034356806 0.026745902 -0.15712868 0.13974187
0.0996471 0.06525069 0.04394044 -0.12822548 -0.13109013 -0.16602862 -0.081927665 -0.12481709
-0.099265955 0.061329443 0.08649023 0.043503936 -0.0012859065 -0.099095486 0.0007753355 -0.09834618
-0.04868886 -0.13816282 -0.013213006 0.019226212 0.034176342 -0.030696236 0.088605136 0.16892502
-0.057613097 -0.15151764 -0.0796771 -0.116760895 0.09650924 -0.10493664 0.031681374 0.09438037
-0.012924348 -0.07601328 0.18949433 0.1725375 -0.18072768 -0.11568874 0.15571827 0.091980726
0.14729576 -0.12820727 -0.10619925 -0.035569385 0.13770658 -0.12038659 0.09131734 -0.043078195
-0.040279284 -0.1629885 -0.24857308 -0.19766295 0.07420029 0.21880719 -0.035642643 0.19112636
-0.10961553 -0.10814775 0.17265233 0.38836116 -0.25244427 0.15342854 0.16910242 0.2777684
0.03356342 0.026516778 -0.0820745 -0.031130493 0.30496675 0.13937612 0.2897317 -0.12756546
0.021829171 0.231743 -0.03418039 -0.11108361 -0.033238027 0.066756755 -0.12015422 -0.07695615
0.28301623 0.15566216 0.16709322 0.16588055 -0.045903366 -0.11007024 0.102287196 0.12928
-0.08376051 0.0067404783 -0.20204811 -0.2646069 0.22656362 -0.16600427 -0.22766441 -0.18373232
-0.099571615 -0.1344777 0.038579464 0.12194971 0.018502977 0.02739392 0.2053907 -0.015792921
-0.017432293 0.20095982 -0.06965987 0.010037242 0.03302707 0.084432594 -0.18187599 0.09463041
0.1289937 0.13470526 0.1992456 0.20663822 -0.10524696 -0.058339257 0.023182098 -0.042398527
-0.1443903 -0.028708072 0.08399586 -0.12149742 0.12279108 -0.066184916 -0.22055769 -0.1180812
0.07626603 0.10940034 0.24350482 -0.0742077 0.11175557 -0.07638945 0.114560746 -0.056476332
0.068419866 0.09283002 0.07003067 -0.05458621 -0.038416404 0.011131926 0.19701062 -0.07177346
-0.027791716 -0.047195505 -0.19316922 -0.119299084 -0.046008833 0.2102382 0.02200007 -0.13125421
-0.09555894 0.100741796 -0.11350035 0.14272368 0.058391258 -0.081870586 -0.06319761 0.11036268
-0.14574486 0.15172301 0.079002984 0.052218065 -0.12609991 -0.13865341 -0.00568062 0.1664551
-0.07626363 -0.072956994 -0.019512065 -0.017900378 0.17444803 0.06441437 -0.12296632 0.08106508
0.07307351 -0.07136624 0.019144133 -0.0061536506 0.1540846 -0.0033997332 -0.1127648 0.10347869
0.028612481 0.16511554 -0.035077874 -0.014110195 0.01352231 0.01650327 -0.08388282 -0.119933024
00000000: 222f 0b3b e640 babd f803 bd3d 4a2e 63bd
00000010: 9f17 01be 57b6 1c3e dc28 78bd a94a ddbc
00000020: 3311 39bd 2421 abbb f3d8 3a3d 093a 893d
00000030: e748 f93c ae12 05be d80d b4bd 4c54 07be
00000040: 9253 123e 71f7 fc3d 00ee 7a3e ee48 18be
00000050: 0753 fdb9 b1a1 573d a3ca 94bd c0c6 9c3d
00000060: 4392 33bd 903f 0bbd 3657 f63d 2a70 9abd
00000070: 8646 eebd ec75 19be 9495 41bd 6e20 4e3c
00000080: f09c 9ebd 6e04 00be 10f0 a43d a015 4a3e
00000090: 4404 32be 10b1 b3bd 3241 5abc b669 e83d
000000a0: e843 403d 81a1 8bbd 4408 2cbd 92a8 8a3c
000000b0: 9508 28be 458f 20be 9d9d 2b3c b60c 99bd
000000c0: 7bbf 1dbe 2716 8b3d e1a5 553e 217e d1bc
000000d0: 3eca 303e 5c92 1d3e 2536 6abb 4494 7c3b
000000e0: d477 1ebe 70d1 fa3d 06aa 033d d408 01be
000000f0: b9b9 0c3d 391a db3c 57e6 20be 7e18 0f3e
00000100: c713 cc3d 27a2 853d e4fa 333d 8a4d 03be
00000110: 7e3c 06be 6803 2abe b1c9 a7bd 1aa0 ffbd
00000120: f34b cbbd 9534 7b3d ca21 b13d 2f31 323d
00000130: dd8b a8ba 93f2 cabd e23f 4b3a b969 c9bd
00000140: f86d 47bd 8e7a 0dbe 5d7b 58bc 4a80 9d3c
00000150: 7efc 0b3d ac76 fbbc 9c76 b53d aefa 2c3e
00000160: b6fb 6bbd 7127 1bbe bf2d a3bd 5620 efbd
00000170: a3a6 c53d 05e9 d6bd 54c4 013d 7f4a c13d
00000180: a5c0 53bc daac 9bbd cd0a 423e acad 303e
00000190: ad10 39be 38ee ecbd 9c74 1f3e 6460 bc3d
000001a0: b3d4 163e c448 03be fe7e d9bd 34b1 11bd
000001b0: f402 0d3e 3f8d f6bd 9604 bb3d c372 30bd
000001c0: e4fb 24bd 75e6 26be f189 7ebe 2868 4abe
000001d0: 52f6 973d fe0e 603e 05fe 11bd a1b6 433e
000001e0: 1b7e e0bd 917c ddbd c6cb 303e 46d7 c63e
000001f0: 6040 81be 5f1c 1d3e 2f29 2d3e a937 8e3e
00000200: cc79 093d b739 d93c ad16 a8bd 6005 ffbc
00000210: 9a24 9c3e 9db8 0e3e b757 943e 85a0 02be
00000220: 17d3 b23c 094e 6d3e bd00 0cbd ce7f e3bd
00000230: 9924 08bd c4b7 883d 6a13 f6bd 309b 9dbd
00000240: 81e7 903e e765 1f3e 7c1a 2b3e 97dc 293e
00000250: 2b05 3cbd 826c e1bd f37b d13d fa61 043e
00000260: a18a abbd 3bdf dc3b b3e5 4ebe 8e7a 87be
00000270: 4b00 683e 06fd 29be dc20 69be 5324 3cbe
00000280: 34ec cbbd 86b4 09be 8005 1e3d c5c0 f93d
00000290: 8e93 973c 3769 e03c f151 523e 2860 81bc
000002a0: 2bce 8ebc 69c8 4d3e d5a9 8ebd 3f73 243c
000002b0: 6547 073d ffea ac3d b33d 3abe 97cd c13d
000002c0: ed16 043e 2df0 093e 0a07 4c3e f898 533e
000002d0: b88b d7bd 25f5 6ebd 62e8 bd3c 14aa 2dbd
000002e0: 0ddb 13be 312d ebbc 0506 ac3d a4d3 f8bd
000002f0: e479 fb3d f58b 87bd e0d9 61be 8ed4 f1bd
00000300: 5d31 9c3d 490d e03d 5459 793e 35fa 97bd
00000310: 1be0 e43d 1272 9cbd d39e ea3d ba53 67bd
00000320: b71f 8c3d aa1d be3d 3d6c 8f3d ca95 5fbd
00000330: 855a 1dbd af62 363c 27bd 493e f7fd 92bd
00000340: 74ab e3bc 1350 41bd 27ce 45be 1453 f4bd
00000350: c273 3cbd af48 573e 7e39 b43c 8167 06be
00000360: 68b4 c3bd b751 ce3d df72 e8bd 2826 123e
00000370: ac2b 6f3d c4ab a7bd c06d 81bd d405 e23d
00000380: 243e 15be 475d 1b3e 51cc a13d 9ce2 553d
00000390: 5620 01be 29fb 0dbe 7f24 babb 3573 2a3e
000003a0: 1b30 9cbd 7a6a 95bd c4d7 9fbc d0a3 92bc
000003b0: 81a2 323e aeeb 833d c4d5 fbbd 7305 a63d
000003c0: 90a7 953d 7728 92bd 28d4 9c3c 90a4 c9bb
000003d0: 5ac8 1d3e 0fce 5ebb 3bf1 e6bd a3ec d33d
000003e0: b964 ea3c 0c14 293e d1ad 0fbd 732e 67bc
000003f0: ae8c 5d3c de31 873c c2ca abbd 729f f5bd

fc2.bias f4 [32]
0.21709317 -0.09225284 -0.006639878 0.43074247 -0.19797356 0.07327513 0.17563157 -0.117657974
0.07910708 0.09668935 -0.033164196 0.03306866 -0.043592487 0.12762222 0.26981196 -0.045441963
-0.17769085 0.15545398 0.046468392 -0.15232505 0.06042073 -0.02995025 -0.010718032 -0.026552945
-0.058766164 0.01263497 -0.20165522 -0.20904568 -0.08410665 0.004069433 -0.04270082 -0.08948015
00000000: ac4d 5e3e 0fef bcbd 5593 d9bb 478a dc3e
00000010: 95b9 4abe 4511 963d c3d8 333e aaf6 f0bd
00000020: e502 a23d 1105 c63d 2ed7 07bd 0173 073d
00000030: 098e 32bd 66af 023e cb24 8a3e 5a21 3abd
00000040: 97f4 35be 542f 1f3e a455 3e3d 19fb 1bbe
00000050: ba7b 773d 3a5a f5bc af9a 2fbc 9085 d9bc
00000060: cab4 70bd e802 4f3c b57e 4ebe 1210 56be
00000070: 1b40 acbd e158 853b 0ee7 2ebd 5e41 b7bd

fc3.weight f4 [1, 32]
-0.26223093 -0.15560335 -0.09435645 0.86230993 -0.74659157 -0.4620256 0.3563199 0.07168848
-0.22469011 0.20656547 -0.023006774 0.17249463 -0.11975764 -0.15236795 0.67223823 -0.037072882
0.072687365 0.2033527 0.09727601 -0.2758308 0.030276882 -0.038146187 0.4278074 -0.17344354
-0.78875613 -0.73779047 -0.46288207 -0.64399266 0.1738067 0.24187937 -0.5034022 -0.23129083
00000000: 2243 86be 7c56 1fbe f43d c1bd 58c0 5c3f
00000010: a020 3fbf 9f8e ecbe 906f b63e 69d1 923d
00000020: 2a15 66be e685 533e b478 bcbc 6fa2 303e
00000030: 7e43 f5bd 5806 1cbe ce17 2c3f bcd9 17bd
00000040: 1ddd 943d b13b 503e a538 c73d b239 8dbe
00000050: 3907 f83c 2d3f 1cbd 9209 db3e 2f9b 31be
00000060: eceb 49bf d6df 3cbf e1fe ecbe b4dc 24bf
00000070: 62fa 313e 3aaf 773e f7de 00bf 81d7 6cbe
