Networks/7-DDPG-with-target-network-policy-network-theta=0.pt (torch, 7463 bytes, 5 tensors)

fc1.weight f4 [32, 3]
000000 a7 a3 07 be 53 67 04 be 6e d5 15 bf cc c4 4f be
       -0.13246022 -0.1293004 -0.5852879 -0.20289916
000010 44 89 83 be 60 1a 90 bd 76 08 23 3f 4c 19 13 be
       -0.25690663 -0.07036281 0.63684785 -0.14365119
000020 12 44 3b 3e 75 47 17 3e cc 23 01 bf f9 3e 02 3e
       0.18287686 0.14773352 -0.50445247 0.12719335
000030 aa c7 47 3f 0c ad fa be 00 db 8b be 60 3a 19 3f
       0.7803904 -0.4896015 -0.2731552 0.598547
000040 3a 17 e9 3e 18 a0 a4 be 30 d0 d4 3e 80 30 58 be
       0.45525533 -0.32153392 0.41565084 -0.21112251
000050 3f ae 20 bf 3b 9e 1e bd c5 ea 2a 3e a3 0b 8d be
       -0.6276588 -0.03872512 0.1669112 -0.2754794
000060 e7 1c 98 3e 18 74 03 bf e0 6e af 3e 99 d7 2b 3f
       0.2970955 -0.5134902 0.34264278 0.6712585
000070 d8 1a 22 3f 73 ef 93 be d9 0c 0c 3f 74 e5 b8 be
       0.6332221 -0.28893623 0.54707104 -0.3611256
000080 c0 54 49 be 43 86 09 be 8e ec 3d bf 93 a5 1a be
       -0.19661236 -0.13430123 -0.7418908 -0.15102224
000090 5b de d6 3e ed 6f bb 3e 8e 2b 06 bf 6e 07 0a 3f
       0.4196652 0.3660883 -0.5241021 0.53917587
0000a0 ef 54 c8 3e 3f 9c 78 3e dc 76 85 3e 53 03 1b 3f
       0.391273 0.24278353 0.26067245 0.6055195
0000b0 85 61 81 be 0a a1 f3 3e 5e 32 bb 3e 77 38 08 bf
       -0.25269714 0.475838 0.36561865 -0.5321116
0000c0 b2 f2 37 bf 4b 2d 0b 3f d9 2c 84 3e 0e dc 92 be
       -0.718547 0.54365987 0.25815466 -0.28683513
0000d0 78 39 82 3d c6 b7 5b ba 1c 97 71 3e 5b 2c d5 be
       0.063586175 -0.00083815714 0.235928 -0.41635403
0000e0 95 fb 95 3e 96 5e 39 3f ec 28 af be f3 72 19 be
       0.29293504 0.7240995 -0.34210908 -0.14985256
0000f0 f6 24 20 3e 73 39 5c 3e a0 b7 c2 3e 36 80 9c 3e
       0.156391 0.2150629 0.3803072 0.30566567
000100 46 7e 89 bd ca 40 be 3e e9 b2 6e be 01 66 1a be
       -0.06713538 0.37158805 -0.23310436 -0.15077974
000110 73 40 a7 3d 79 72 8e bf 9f 4d 2a bf a8 70 26 bd
       0.081665896 -1.1128684 -0.6652469 -0.04063478
000120 1f 80 85 3c 13 f2 05 3e 8d 21 35 bd a6 6b 57 bf
       0.016296444 0.13080625 -0.04422145 -0.84148633
000130 bc 51 6e 3e 03 17 36 3e d5 c8 4a 3f c3 44 31 bf
       0.23273367 0.17782216 0.79212695 -0.6924555
000140 12 9b af bd e6 f2 4b be 50 fd 08 3f ae 95 10 3f
       -0.08574499 -0.19916877 0.53511524 0.56478393
000150 fe c1 13 3f 7d 64 8b be 3e c2 67 3e 7c 38 cd 3e
       0.57717884 -0.27225104 0.22632691 0.40082157
000160 6c af d2 3c 70 a4 0e 3f 55 b6 9d be 5f 93 10 be
       0.025718413 0.5571966 -0.3080317 -0.14118718
000170 06 e8 c7 be e9 7c 71 3d ed 92 5e 3e f3 32 ee 3d
       -0.39044207 0.058957014 0.21735735 0.116308115

fc1.bias f4 [32]
000000 76 ff c6 be 08 90 ce be ae e1 39 3e 65 34 0e bf
       -0.38866776 -0.40344262 0.18152496 -0.555487
000010 37 a9 da be 22 2d 62 bd ce 63 71 be c1 fa 8f 3e
       -0.42707226 -0.055218823 -0.23573229 0.28120998
000020 8b 6d ef bd 07 c0 62 3d c7 9f 9a be 6e b0 11 bf
       -0.116908155 0.055358913 -0.30200025 -0.56909835
000030 de 8f 9c 3e 54 6c 24 3e c5 ed 03 be f2 d0 01 bf
       0.30578512 0.16056949 -0.1288367 -0.5070945
000040 53 94 bb 3e 5a f7 0c bf 00 f2 17 bd 3d 32 e8 bd
       0.366366 -0.5506493 -0.037096024 -0.11337707
000050 03 79 19 bf 53 41 ef be e9 4c db be 77 f0 e1 3e
       -0.59950274 -0.46729526 -0.42832115 0.44128773
000060 91 94 0c 3f d1 87 ad 3e af 17 a2 3e e1 f6 55 be
       0.54914194 0.33892682 0.31658694 -0.20894958
000070 a6 b3 26 bf 81 2a 84 3e eb a3 4f 3e e9 5f 25 3f
       -0.6511787 0.25813678 0.20277373 0.6459947

fc2.weight f4 [32, 32]
000000 5e 9b 56 b8 87 bb 0a 3e a6 ea dd 3d 22 04 03 3e
       -5.1166273e-05 0.13548099 0.10835771 0.12794545
000010 9d a1 33 be d3 0f 15 3e 7a 4f 1a be 2d 49 22 3e
       -0.1754212 0.14556818 -0.1506938 0.15848227
000020 b4 0c f0 bb 24 6c 20 be 54 5c 49 3d 33 62 13 bd
       -0.007325733 -0.15666252 0.049160317 -0.035982322
000030 22 97 22 be bb 40 83 bd f0 4f 95 3c 7e fc 0c 3e
       -0.15877965 -0.06408831 0.018226594 0.13768193
000040 55 9a 5e bd 13 0a d7 3d ab 59 b5 3c bb 41 c3 3b
       -0.0543464 0.104999684 0.022137484 0.0059587634
000050 6e 8c 0a 3d 3b 98 ed bd 84 76 16 be 75 83 63 bd
       0.03382533 -0.11601301 -0.14693648 -0.05554529
000060 00 af 28 be 41 d6 a8 bd 46 3f 05 3c 28 71 ee bd
       -0.16473007 -0.08243991 0.008132761 -0.116426766
000070 15 2c 96 bd 5c 1b 02 bd 12 d5 a6 bc c3 d9 c7 bd
       -0.07332627 -0.031764373 -0.020365272 -0.097583316
000080 bb 7b b7 3d ac f9 10 3d 18 e8 4a 3d 07 d6 01 3c
       0.089591466 0.035394356 0.049537748 0.007924563
000090 aa 71 08 be 69 22 05 be 4a 5e d6 3c 3d cc f0 bd
       -0.1332461 -0.13001408 0.026168007 -0.11757705
0000a0 5f 77 65 3c 8f 5c 9d bd 94 e2 22 3d 9c 36 1e 3e
       0.014005511 -0.0768367 0.039766863 0.1545052
0000b0 e2 0c b8 3d 24 09 a6 bb aa 12 31 be 6f 27 a1 3d
       0.08986832 -0.0050670076 -0.17292276 0.078688495
0000c0 99 d3 2b be 62 0d c7 bc a0 39 6b bd d8 70 01 be
       -0.16779937 -0.024298374 -0.057428002 -0.12640703
0000d0 90 03 85 bd 1f c1 26 3e 63 40 cf 3d 79 24 2a 3e
       -0.0649482 0.16284607 0.10119703 0.16615476
0000e0 63 50 f7 3d 40 2d 57 be f6 18 5c 3c 6e ed e8 3d
       0.120758794 -0.21013355 0.0134336855 0.11373411
0000f0 ea de f0 3d 5d 8b 0f be 5c 13 de 3d 8d 76 06 be
       0.117612675 -0.14018007 0.10843536 -0.13131161
000100 81 dc 0e bd 01 0f 3b bd 4e 95 11 be c7 8d 2e be
       -0.034878258 -0.045668606 -0.14217111 -0.17046271
000110 29 b2 d6 bd 67 8e ad 3d 74 95 85 3d f4 fa 3b be
       -0.104832 0.08474427 0.065226465 -0.1835745
000120 6e af 98 bd 1c ae 45 bc 8e c4 16 be 35 b3 ab 3d
       -0.074553356 -0.012065437 -0.14723417 0.083837904
000130 81 5e 01 3e 9d e4 54 3d 7d 91 03 be 7e 37 e5 3c
       0.12633707 0.051975835 -0.12848468 0.027980562
000140 db 02 67 3d c2 56 0f 3e 53 3e cc bd fc 6a 1f be
       0.056399208 0.13997939 -0.09972825 -0.15568155
000150 7c b4 9c 3d 8d a8 c1 3a 81 1f 68 bd 07 a4 43 be
       0.07651612 0.0014774963 -0.05667067 -0.1910554
000160 02 be e7 bd 8a 80 00 3e b2 44 4e bd 45 6c 13 3e
       -0.11315538 0.12549034 -0.05035848 0.1439677
000170 0e d7 18 3e 09 5d 45 3d 9b aa 95 bc e2 01 a2 bc
       0.14925787 0.04818443 -0.018269828 -0.019776288
000180 da fe f7 3d 45 1d 23 be 13 a7 92 3d 07 4d 98 bb
       0.12109156 -0.15929134 0.07160773 -0.0046478542
000190 46 4f ab 3d 2f 99 78 3c ee a7 8c bd ee a1 86 bc
       0.083647296 0.015173241 -0.068679675 -0.016434636
0001a0 d1 35 d7 3d 6c 54 1f be 2b b5 e1 bd 72 25 25 bd
       0.105083115 -0.15559548 -0.11020883 -0.040318914
0001b0 d8 83 3a bd ff f4 04 3e 08 64 0d 3e 46 9d 8b bc
       -0.045535892 0.12984084 0.1380769 -0.017042767
0001c0 a0 6b 64 3e 59 44 97 bd 7c 17 d7 bd 1f ea a8 bd
       0.2230668 -0.07386083 -0.10502526 -0.0824778
0001d0 bf c4 da bd fa 43 ee bd 6e 48 0e be 93 69 b9 be
       -0.106820576 -0.11634059 -0.13894817 -0.3621336
0001e0 21 ce bd 3c 61 02 e4 3d 85 09 c2 3d cb 59 7d 3e
       0.023169579 0.11133266 0.09474472 0.24741285
0001f0 ec 59 f8 bc 7b f5 97 3d 00 e8 19 be 7d 98 45 3d
       -0.030316316 0.074198686 -0.15029907 0.048241127
000200 03 d7 22 be 2a bb 48 bd 61 fa 90 bd 82 53 de 3d
       -0.15902333 -0.04900662 -0.07079006 0.108557716
000210 cd 8a bf 3e c8 ae 7a 3d d6 7c ab 3e ad dd c2 3c
       0.37410584 0.06120184 0.3349368 0.023787344
000220 9a 5e 39 3e cb 60 22 be 49 38 96 3e a1 b2 82 bd
       0.18102494 -0.15857236 0.29339817 -0.06381727
000230 7d 2c 25 3e 07 48 ad bd b0 cd fa 38 3d f7 7a 3e
       0.16130252 -0.08461004 0.00011959241 0.24508376
000240 65 04 30 bc 54 d6 d9 3d 55 2b 54 3e 5d 56 91 3e
       -0.010743235 0.10636583 0.20719655 0.28386202
000250 2f 1f c0 bd f3 29 c3 bc fe 69 bc 3d 39 aa f9 be
       -0.09380948 -0.023823714 0.09199904 -0.48762682
000260 8e 5a 51 be 0e 9e 54 3e 20 91 7a 3e a1 e2 a1 bd
       -0.204447 0.20763418 0.24469423 -0.07904554
000270 35 c9 3a bd 09 db 14 be c0 00 64 be 1f 48 6d be
       -0.045602042 -0.1453668 -0.22265911 -0.23172043
000280 fe e8 54 bd a9 bd 7b be 32 bc f6 bd 51 14 90 bd
       -0.05198001 -0.24584068 -0.12047614 -0.07035125
000290 d9 11 ee 3e e2 fd e1 3d 6c 56 68 3e c7 08 f2 3d
       0.46497992 0.110347524 0.22689217 0.118180804
0002a0 04 73 30 3d 4c 77 14 be 99 e2 69 3e 3b 0d cb be
       0.043078437 -0.14498633 0.22840346 -0.39658532
0002b0 12 b4 0e bd b8 d6 d2 bc 06 c9 c1 bc 0b b9 31 3d
       -0.034839697 -0.025737152 -0.023655426 0.04338936
0002c0 f9 1d e0 3e e5 9a 0f 3e a4 f8 b6 ba 50 1c 10 3e
       0.43772867 0.14023931 -0.0013959599 0.140733
0002d0 05 45 ca bd a5 74 01 be ff 30 95 bd 97 81 81 be
       -0.09876446 -0.12642153 -0.07284736 -0.25294182
0002e0 79 2e 06 3e f8 d3 8d 3e 3d 97 79 be b6 53 36 3e
       0.13103665 0.27700782 -0.24374099 0.1780537
0002f0 d1 87 32 be f0 17 dd 3c 42 2e 9f 3d b1 5a 95 bd
       -0.17434622 0.026988953 0.07772495 -0.07292689
000300 0b aa 9d 3b a0 07 b7 3c 6f d4 86 3d a0 af 5b bd
       0.0048115305 0.022342503 0.06583487 -0.053634286
000310 ff e1 d7 bd 95 74 28 3d 22 38 ba bc 40 94 ac bd
       -0.10541152 0.041126806 -0.022731844 -0.08426714
000320 f8 0a 98 3d 84 d2 00 3b c3 a7 d2 bc 06 78 af bd
       0.07423967 0.0019656727 -0.02571476 -0.085678145
000330 08 69 e2 bc df ec 19 be d8 73 20 3d 8a c2 f3 3a
       -0.027637973 -0.15031765 0.039172977 0.0018597406
000340 4c 6f d1 3d 14 04 3b 3c 01 91 67 3c 83 3f 45 3d
       0.10226306 0.0114145465 0.014133693 0.048156273
000350 92 be 09 3e 8b 15 ab bd 92 23 d8 3d 24 9b 0a 3d
       0.13451603 -0.08353718 0.105536595 0.03383936
000360 cd 70 f8 bd a2 30 67 3d 76 20 d9 bd 97 ee 63 bd
       -0.1213089 0.056442864 -0.106018946 -0.05564746
000370 93 92 ac bd cf 4c f6 bd b4 ce 08 3e b8 b2 24 be
       -0.08426394 -0.12026369 0.13360101 -0.16083801
000380 83 02 81 3e e9 a9 7b bd 2c ed 3d 3c cf f5 30 3b
       0.2519723 -0.061441336 0.011592191 0.0027001982
000390 d7 ef 0a 3e 2f 9b 17 be 51 39 20 3e d9 e7 83 3c
       0.13568054 -0.14805292 0.15646864 0.016101765
0003a0 32 95 5b 3d 28 bb 54 bc 44 12 8b 3d f9 90 de 3d
       0.05360908 -0.012984075 0.06790593 0.10867495
0003b0 4a 0e 1e be 8a ab 3a 3e 9b ad 4d be f5 36 d4 bb
       -0.15435138 0.182295 -0.20085756 -0.006476278
0003c0 c9 e1 39 be e5 03 31 3e 93 c4 a6 bd 0e 39 3b be
       -0.18152536 0.17286642 -0.08142962 -0.18283483
0003d0 2e e4 b0 bc 89 52 de 3d 28 c9 54 3d 55 2a ab 3e
       -0.02159318 0.10855586 0.05194965 0.33430734
0003e0 42 26 01 be d2 1f 30 be 9a d8 28 be 70 5d 59 bc
       -0.1261225 -0.17199638 -0.16488877 -0.013266906
0003f0 bf f5 06 3e 67 cc d0 3d 0f 28 a0 bc 87 8d e7 bd
       0.13179682 0.10195237 -0.019550351 -0.11306291

fc2.bias f4 [32]
000000 a6 ca d5 bd 2a 27 09 be 0c e6 67 3d ce 0f d0 bc
       -0.10439043 -0.13393846 0.056615874 -0.025398161
000010 40 1c a0 be 6b 70 fe 3d f8 0b ed bd 49 85 8f be
       -0.31271553 0.12423786 -0.115745485 -0.28031376
000020 a2 c9 77 3c 01 7e 15 be 2c be 7d 3e 1f 31 ec 3d
       0.015123757 -0.14598848 0.24779576 0.115328066
000030 b6 4c 36 bd 5f c1 1a be 0e 7e 02 3e 03 21 46 be
       -0.04450675 -0.15112828 0.12743399 -0.1934853
000040 0a 06 95 3e c3 1b 97 bd 21 f3 fc 3d 03 f1 0f be
       0.2910617 -0.07378342 0.12351061 -0.14056782
000050 67 2f fc bd 57 d7 30 bc 4f dd a9 3d af 0c f7 3d
       -0.12313729 -0.0107935285 0.082941644 0.12062966
000060 c2 aa 06 3e 86 61 d0 3c c8 61 00 bd 09 ec 2a 3e
       0.13151076 0.025437128 -0.03134325 0.16691603
000070 57 32 28 bd ce 1e 02 bd 04 17 36 be a2 99 14 be
       -0.041063633 -0.03176766 -0.17782217 -0.14511731

fc3.weight f4 [1, 32]
000000 6d 17 f8 3d 3d c6 c9 be c8 6e 4b 3e 5a fd d6 3e
       0.12113843 -0.39409056 0.19866478 0.41990167
000010 5f dd 81 3f 2b f5 77 3f ba e9 c8 bd e4 60 17 bf
       1.0145682 0.9685847 -0.09810205 -0.5913222
000020 63 c8 ed bd c8 56 8e be 45 70 9a bf 51 6b 00 3f
       -0.11610486 -0.27800584 -1.2065512 0.5016375
000030 24 15 57 be 52 69 cd 3d 41 98 ea 3e 8e 00 10 3e
       -0.21004158 0.10029854 0.45819286 0.14062712
000040 90 ea 49 bf d3 65 63 bd ee 48 4a 3f da c1 cd 3d
       -0.7887354 -0.05551703 0.7901753 0.1004674
000050 5d 93 d8 3c 76 72 a9 be e8 10 ea bc e6 b3 93 3d
       0.026437456 -0.3309514 -0.028572515 0.07212047
000060 87 75 c7 3e 4b d6 a0 3e 40 4f 0a be 89 f8 1e 3f
       0.38956854 0.31413493 -0.13506794 0.62097985
000070 8e 6e 8a bc 6c b0 9e 3e f8 6f ed 3d d6 bb 9e 3c
       -0.01689842 0.30993974 0.11593622 0.019376677
