Networks/7-DDPG-with-target-network-policy-network-theta=1.pt (torch, 7463 bytes, 5 tensors)

fc1.weight f4 [32, 3]
-0.441859 -0.96131563 -0.055858623 -0.16582508 -0.14031826 0.3377998 -0.30712855 -0.013754937
0.66507936 0.37961385 -0.45413038 0.47178552 -0.7016083 0.44706577 0.23815699 -0.426153
-0.58793455 -0.15418255 0.15184137 -0.35004094 -0.2504335 -0.49743366 0.07965531 -0.6094979
-0.10558848 -0.32683244 0.30504063 -0.0881531 0.20613703 0.31117678 0.13322423 0.5951643
0.13174655 0.77149236 -0.6184473 -0.5469557 0.53371835 -0.042401925 0.3956449 0.0030920862
-0.39884484 0.35668653 0.3700715 -0.50142175 -0.27993232 0.5115608 -0.8750126 -0.2573944
0.322896 0.39363772 -0.25379068 -0.25885814 0.2574861 0.36765584 -0.45085192 -0.18177147
-0.58365464 -0.49881068 0.83865315 0.23073424 0.25805238 0.17739852 0.14927942 -0.6578327
-0.25204143 0.5175772 -0.4491765 0.5766839 -0.46366116 0.21416879 0.17403078 0.38269502
-0.33874613 0.40241852 0.44231212 0.27301732 0.3413372 -0.26616377 0.24732287 0.5807629
0.5749706 0.4174074 0.6272327 0.03581852 -0.58788455 0.8802864 0.25827336 -0.41961113
0.36890313 -0.35898468 0.54085386 0.5732989 0.35866657 0.106694885 -0.030001635 -0.16802621
00000000: 583b e2be c818 76bf 03cc 64bd 0dce 29be
00000010: 97af 0fbe 18f4 ac3e f43f 9dbe 635c 61bc
00000020: a442 2a3f bf5c c23e c783 e8be df8d f13e
00000030: 9a9c 33bf cee5 e43e 6ddf 733e ba30 dabe
00000040: e182 16bf 08e2 1dbe 4e7c 1b3e 9138 b3be
00000050: d238 80be a0af febe 5322 a33d 0e08 1cbf
00000060: c63e d8bd 9556 a7be 492e 9c3e 9d89 b4bd
00000070: 9615 533e 9052 9f3e ef6b 083e b05c 183f
00000080: 91e8 063e 8680 453f 9052 1ebf 4a05 0cbf
00000090: c4a1 083f a4ad 2dbd f891 ca3e 99a4 4a3b
000000a0: 6435 ccbe 9e9f b63e 037a bd3e 2d5d 00bf
000000b0: 4a53 8fbe a6f5 023f d300 60bf 33c9 83be
000000c0: a052 a53e e28a c93e daf0 81be 0e89 84be
000000d0: 38d5 833e 633d bc3e 10d6 e6be 4d22 3abe
000000e0: 646a 15bf 1d64 ffbe f9b1 563f 9945 6c3e
000000f0: 711f 843e f5a7 353e b4dc 183e b967 28bf
00000100: 930b 81be f07f 043f 76fa e5be 8ea1 133f
00000110: ff64 edbe 104f 5b3e 2035 323e 9af0 c33e
00000120: 2270 adbe cd09 ce3e bc76 e23e edc8 8b3e
00000130: c0c3 ae3e 9e46 88be 3542 7d3e e1ac 143f
00000140: 4631 133f 6cb6 d53e 5292 203f 71b6 123d
00000150: 9a7f 16bf 735a 613f 683c 843e 45d7 d6be
00000160: dfe0 bc3e d7cc b7be 6675 0a3f b7c3 123f
00000170: 25a3 b73e d982 da3d fdc5 f5bc 100f 2cbe

fc1.bias f4 [32]
0.09262759 0.663614 -0.45495883 -0.5691089 0.4733604 0.2645559 0.4184235 -0.28895575
-0.35317835 -0.027849117 0.5463653 -0.47453174 0.25459173 -0.45944297 -0.16512518 -0.139505
0.21358594 0.7634191 0.43045747 0.14361456 -0.084714465 -0.4056602 0.6034129 -0.57003856
-0.3674299 0.3003021 0.13797121 -0.17806204 0.20807382 -0.28732115 -0.5860858 -0.49298757
00000000: 89b3 bd3d 9be2 293f 5df0 e8be 1fb1 11bf
00000010: 4b5c f23e df73 873e 9b3b d63e 02f2 93be
00000020: cbd3 b4be d523 e4bc 99de 0b3f d3f5 f2be
00000030: d959 823e 1c3c ebbe 9316 29be 66da 0ebe
00000040: 46b6 5a3e 6f6f 433f ec64 dc3e b20f 133e
00000050: c77e adbd b2b2 cfbe 4579 1a3f 0cee 11bf
00000060: c61f bcbe 32c1 993e 5348 0d3e e555 36be
00000070: 4e11 553e c21b 93be b809 16bf de68 fcbe

fc2.weight f4 [32, 32]
-0.146468 0.09336016 0.061047528 0.121939056 -0.21790075 -0.12277637 0.071807034 -0.071933925
-0.13331833 -0.14592752 0.13968736 -0.08174352 0.08536039 0.17894727 -0.0050708395 -0.19663483
0.04561741 -0.09129626 0.013626125 -0.06154496 0.004106402 -0.14674452 0.038816668 0.05151038
-0.11260535 -0.118139185 0.13680775 -0.034600455 0.03269246 0.16490673 0.047953445 0.05241188
-0.1211589 0.085986026 0.14114176 -0.120776564 -0.08234096 -0.16793208 0.1545546 0.051582944
0.07609627 0.012389399 -0.08616907 -0.05180336 -0.15706596 -0.03041224 -0.09086461 -0.06812359
-0.121413715 0.06030587 0.11582899 -0.051437553 -0.010583265 -0.1366015 -0.013306122 -0.113444604
-0.14514856 -0.15911114 0.14991942 0.06426067 -0.03704167 0.16939543 -0.14260614 0.07171907
0.27771842 -0.21532422 0.1905667 0.11070115 -0.32045928 0.26126546 0.13914855 0.08796374
-0.08830079 0.10605383 0.009312271 -0.21028683 0.13405085 0.120387584 -0.20224802 -0.07091814
-0.03349146 -0.03225137 0.2742593 -0.2187207 0.14566116 0.19214447 0.25749543 -0.0076046744
-0.13357426 0.058808625 0.13500145 0.15569545 -0.29381263 -0.0011644115 0.2983884 0.016723694
-0.38344625 0.17633964 0.055321474 -0.2651365 0.45907032 -0.10028322 0.24676841 0.25248092
-0.19802308 -0.02822801 0.02808875 0.5026121 0.11052244 -0.21994217 0.1594803 0.35896516
0.13621697 0.42974794 0.00747806 0.23893142 -0.029372735 0.18147992 -0.17736559 -0.11385142
-0.051707428 0.054716643 0.06863781 -0.020022646 0.42358473 0.26189128 -0.21626921 0.11215453
0.019099336 -0.00022173797 -0.08259154 -0.13162507 0.013459053 0.019003017 -0.16791616 -0.0042406796
-0.081608206 0.13561365 0.024738908 -0.017365603 0.007248672 0.058157276 0.1384669 -0.00042290942
-0.04761913 -0.06744298 -0.0023337344 0.10727483 -0.073786676 -0.15107173 0.013072833 -0.08923026
-0.1581036 -0.17204008 -0.09986959 -0.03746266 0.035167303 0.14011823 -0.10534731 -0.02811454
-0.024658177 0.14861296 -0.037738748 0.12589027 0.08544064 -0.2046213 0.18062763 0.13860714
-0.051554058 -0.02780379 -0.028509246 0.06664168 0.026755419 0.080238074 0.09368376 -0.028954817
-0.14849526 -0.062012836 0.054922402 0.14221267 0.16311826 -0.04720137 -0.0403815 0.032131366
-0.10134404 0.061891288 0.15686505 -0.10859758 0.15607245 0.1604926 0.04954743 -0.11385147
0.1976089 0.032358278 0.04911485 0.1611524 0.04851497 0.06848365 -0.08923116 0.1043355
0.16969457 -0.02722398 -0.13232715 -0.036381096 0.03510444 0.116303846 0.02899183 0.17203672
-0.2137977 0.018695895 0.21294783 -0.093544886 -0.12528443 -0.12225267 -0.07464872 0.07456738
-0.02706683 -0.20988029 -0.14763021 0.047189835 0.062108602 -0.04617013 0.17796844 -0.035418913
0.22390242 -0.023635877 -0.2232688 0.08988843 -0.042126853 0.17195657 0.09150203 -0.031183641
0.042369258 0.008275039 0.11944711 0.0073267636 -0.049715206 0.11321291 -0.18622604 -0.20752636
0.05907984 0.057471685 0.19976503 -0.2222893 -0.044460114 -0.2014688 -0.08655422 -0.0540009
-0.069167666 -0.062134523 -0.044462796 0.20420545 0.039622713 -0.11943423 0.041030347 -0.03381752
00000000: b5fb 15be 9d33 bf3d f90c 7a3d 2fbb f93d
00000010: 6021 5fbe 2d72 fbbd 910f 933d 1852 93bd
00000020: 9a84 08be 066e 15be 340a 0f3e 2669 a7bd
00000030: 6ed1 ae3d f43d 373e 4929 a6bb a45a 49be
00000040: 52d9 3a3d 89f9 babd 1c40 5f3c 9116 7cbd
00000050: ff8e 863b 3244 16be 3afe 1e3d 8cfc 523d
00000060: a29d e6bd f5f2 f1bd 5517 0c3e 35b9 0dbd
00000070: 87e8 053d 4fdd 283e d56a 443d d7ad 563d
00000080: 2822 f8bd 7119 b03d 7787 103e b459 f7bd
00000090: 61a2 a8bd 63f6 2bbe 9043 1e3e a348 533d
000000a0: 5cd8 9b3d e8fc 4a3c 6979 b0bd c32f 54bd
000000b0: e6d5 20be 1723 f9bc 3a17 babd 6184 8bbd
000000c0: c1a7 f8bd 4a03 773d c037 ed3d 2fb0 52bd
000000d0: 6e65 2dbc 43e1 0bbe ec01 5abc a555 e8bd
000000e0: d3a1 14be 08ee 22be 7a84 193e 199b 833d
000000f0: 02b9 17bd ff75 2d3e 5807 12be 73e1 923d
00000100: 1c31 8e3e f47d 5cbe eb23 433e 49b7 e23d
00000110: 3d13 a4be 96c4 853e f57c 0e3e 5526 b43d
00000120: 0bd7 b4bd c032 d93d 7f92 183c 6e55 57be
00000130: a044 093e c48d f63d 1b1a 4fbe 883d 91bd
00000140: 572e 09bd 031a 04bd b76b 8c3e 52f8 5fbe
00000150: 3328 153e 85c1 443e 71d6 833e a230 f9bb
00000160: b1c7 08be 50e1 703d d23d 0a3e a16e 1f3e
00000170: 9c6e 96be 2b9f 98ba 5dc6 983e 2100 893c
00000180: 1153 c4be 6192 343e c598 623d f9bf 87be
00000190: 440b eb3e 4a61 cdbd dcb0 7c3e 2e45 813e
000001a0: 90c6 4abe 6d3e e7bc 611a e63c 30ab 003f
000001b0: 9759 e23d 8538 61be ce4e 233e 48ca b73e
000001c0: 767c 0b3e ec07 dc3e 840a f53b 70aa 743e
000001d0: 179f f0bc dfd5 393e 539f 35be ef2a e9bd
000001e0: 2bcb 53bd 8f1e 603d fb91 8c3d 8806 a4bc
000001f0: 19e0 d83e 9d16 863e ad75 5dbe 46b1 e53d
00000200: 3676 9c3c 5582 68b9 c125 a9bd b9c8 06be
00000210: 5c83 5c3c 37ac 9b3c 37f2 2bbe 66f5 8abb
00000220: 3422 a7bd 4ede 0a3e 40a9 ca3c 4f42 8ebc
00000230: 4586 ed3b 5336 6e3d 44ca 0d3e f1b9 ddb9
00000240: 470c 43bd 8c1f 8abd 91f1 18bb e8b2 db3d
00000250: 781d 97bd 8cb2 1abe 702f 563c 5bbe b6bd
00000260: e9e5 21be 462b 30be 6d88 ccbd 7272 19bd
00000270: 970b 103d 277b 0f3e 55c0 d7bd 7750 e6bc
00000280: f2ff c9bc ff2d 183e f293 1abd 61e9 003e
00000290: 81fb ae3d 3f88 51be 73f6 383e 08ef 0d3e
000002a0: 592a 53bd c6c4 e3bc 398c e9bc 6f7b 883d
000002b0: 2e2e db3c dc53 a43d 45dd bf3d a732 edbc
000002c0: 240f 18be 2c01 7ebd 50f6 603d 33a0 113e
000002d0: 7908 273e 3956 41bd 1267 25bd 2e9c 033d
000002e0: 778d cfbd b881 7d3d 3ba1 203e 6868 debd
000002f0: 75d1 1f3e 2c58 243e 3ff2 4a3d f62a e9bd
00000300: fd59 4a3e 1d8a 043d a72c 493d 2205 253e
00000310: a2b7 463d 2841 8c3d d4be b6bd daad d53d
00000320: 6ac4 2d3e d304 dfbc c580 07be 5804 15bd
00000330: acc9 0f3d b630 ee3d 4680 ed3c 652a 303e
00000340: c9ed 5abe 2228 993c ff0e 5a3e 7694 bfbd
00000350: 904a 00be 9c5f fabd 6ee1 98bd c8b6 983d
00000360: 42bb ddbc dcea 56be 602c 17be 214a 413d
00000370: 9765 7e3d e41c 3dbd 5c3d 363e 6c13 11bd
00000380: ad46 653e 07a0 c1bc 94a0 64be 6d17 b83d
00000390: 358d 2cbd 6215 303e 6b65 bb3d d674 ffbc
000003a0: 638b 2d3d 0794 073c b0a0 f43d 5915 f03b
000003b0: 2ca2 4bbd 2cdc e73d 0ab2 3ebe ca81 54be
000003c0: b4fd 713d 6e67 6b3d 348f 4c3e ce9f 63be
000003d0: cf1b 36bd d64d 4ebe 5743 b1bd 0c30 5dbd
000003e0: c7a7 8dbd c580 7ebd 9f1e 36bd 3c1b 513e
000003f0: 6d4b 223d ef99 f4bd 700f 283d 3d84 0abd

fc2.bias f4 [32]
0.11376449 0.06306994 -0.028021872 0.00062647654 -0.04802356 0.16834411 0.07658353 0.033621207
-0.11280597 0.04644618 -0.16927774 0.19395113 0.10731806 0.012814138 0.13422102 0.03941825
0.08465666 0.17591761 0.17163429 -0.12296877 0.030979201 0.102632895 0.11194408 0.020115228
0.28534234 0.058450885 0.058562353 0.006186515 -0.17676179 0.159989 -0.073196016 -0.03949013
00000000: 5bfd e83d d02a 813d 208e e5bc 213a 243a
00000010: 5ab4 44bd 6662 2c3e d3d7 9c3d 64b6 093d
00000020: d106 e7bd 5a3e 3e3d 2557 2dbe 209b 463e
00000030: 92c9 db3d 64f2 513c 3c71 093e 0875 213d
00000040: 7960 ad3d bf23 343e e6c0 2f3e 0dd7 fbbd
00000050: 18c8 fd3c 3231 d23d f042 e53d b1c8 a43c
00000060: 6418 923e 326a 6f3d 14df 6f3d 40b8 ca3b
00000070: 0b01 35be 28d4 233e cbe7 95bd 67c0 21bd

fc3.weight f4 [1, 32]
-0.22136997 -0.023062445 -0.8094637 1.2051123 -0.14135684 0.2004451 -0.33387288 -0.46327206
-0.51631457 -0.9971525 -0.015011084 -0.2752759 -0.92394155 0.21020572 -0.9751635 -0.20431246
-0.26711503 0.30292353 -0.0038594455 0.05480725 -0.2462837 -0.4311833 0.037356116 0.40850535
1.2645838 -0.20424686 -0.053160224 -0.28197113 0.0005619439 -1.2240007 -0.082552604 0.048676714
00000000: cfae 62be 74ed bcbc 0339 4fbf 1f41 9a3f
00000010: d9bf 10be 7b41 4d3e 63f1 aabe ff31 edbe
00000020: 312d 04bf 6345 7fbf 0df1 75bc f6f0 8cbe
00000030: 6f87 6cbf 2b40 573e 51a4 79bf 4937 51be
00000040: 4dc3 88be cb18 9b3e c0ee 7cbb 917d 603d
00000050: cb31 7cbe 0fc4 dcbe ba02 193d 9d27 d13e
00000060: e2dd a13f 1726 51be 89be 59bd 855e 90be
00000070: 6b4f 133a 0eac 9cbf 5711 a9bd 3c61 473d
