Networks/7-DDPG-with-target-network-policy-network-theta=0.75.pt (torch, 7487 bytes, 5 tensors)

fc1.weight f4 [32, 3]
0	0xbe65d7ad	-0.22445555
1	0x3e3fde33	0.18737106
2	0x3e46c16a	0.19409719
3	0xbde114e9	-0.109903164
4	0xbf49f7f0	-0.7889395
5	0xbe6a897b	-0.22904007
6	0x3ec7775b	0.38958248
7	0xbe08872c	-0.13332814
8	0x3b375e53	0.0027979806
9	0xbf3f1e28	-0.7465539
10	0x3f3459fc	0.70449805
11	0x3ecd2a6b	0.40071425
12	0x3f13c101	0.57716376
13	0x3de66587	0.112498336
14	0x3f1b4361	0.6064969
15	0xbd4b8bac	-0.04969375
16	0x3dbb1761	0.091353185
17	0x3f0f6c6c	0.56024814
18	0xbdcc1888	-0.099656165
19	0xbea01452	-0.31265503
20	0xbc20c71d	-0.009813097
21	0xbf1aa832	-0.60412896
22	0x3f0727ad	0.52794915
23	0x3eade32e	0.33962387
24	0xbf3d7ea7	-0.7402138
25	0x3db462f4	0.08807936
26	0xbf001cab	-0.50043744
27	0x3d86231a	0.06549664
28	0x3f1b0054	0.60547376
29	0x3dbf8a78	0.09352583
30	0x3f367d9b	0.7128541
31	0x3fb558a5	1.4167677
32	0x3e48e28e	0.19617674
33	0x3e790718	0.24319112
34	0xbf45b6d7	-0.77232116
35	0x3e7b7fde	0.24560496
36	0xbe7e5fa9	-0.24841179
37	0x3dc8dd6b	0.09807857
38	0x3f286d53	0.65791816
39	0x3f2cfd32	0.67573845
40	0xbe20eeb9	-0.15716065
41	0xbe90f6dd	-0.28313342
42	0x3ec7ac11	0.38998464
43	0x3edbc427	0.4292309
44	0x3f1a0c2e	0.60174835
45	0xbefdfe4f	-0.49608085
46	0x3f04f220	0.51931953
47	0x3e68c22c	0.2273032
48	0x3e05b634	0.13057786
49	0x3eeb6d43	0.45981798
50	0xbee0b906	-0.43891162
51	0x3f554591	0.83309275
52	0x3ef331c5	0.4749891
53	0x3f0822b0	0.5317793
54	0x3ce48b64	0.027898498
55	0xb942c432	-0.0001857437
56	0xbf054659	-0.52060467
57	0x3e64354f	0.2228596
58	0xbf305d6d	-0.68892556
59	0x3ee70094	0.4511763
60	0xbf22e77f	-0.63634485
61	0x3eaec1b9	0.34132174
62	0x3f37fb09	0.71867424
63	0xbefaabee	-0.48959297
64	0xbe9fab51	-0.31185392
65	0x3d35682c	0.0442888
66	0xbe3834a1	-0.17988826
67	0x3e5ce101	0.21570207
68	0x3e9db330	0.30800772
69	0x3d812100	0.063051224
70	0x3f166d21	0.5876027
71	0xbedd01a1	-0.43165305
72	0x3ea76067	0.32690737
73	0x3e578455	0.21046574
74	0x3f17d2f3	0.5930626
75	0x3e9f70d6	0.31140774
76	0xbed089e2	-0.40730196
77	0x3e87e702	0.26543432
78	0x3cc63329	0.024194317
79	0x3d8d5ed8	0.06902856
80	0xbe746cbf	-0.23869608
81	0x3f04c028	0.5185571
82	0xbed7a538	-0.4211824
83	0xbf159967	-0.584372
84	0xbf2efcbf	-0.6835441
85	0x3ebf8824	0.37408555
86	0xbed84ace	-0.4224457
87	0x3f5191b0	0.81862926
88	0x3d4706cb	0.048590463
89	0xbe6d9cd7	-0.23204361
90	0x3e565a73	0.20932941
91	0x3e70e271	0.2352388
92	0x3eadb397	0.3392608
93	0xbf3c8890	-0.7364588
94	0xbe6edda7	-0.23326741
95	0xbe47af97	-0.19500576

fc1.bias f4 [32]
0	0x3e40fc88	0.18846333
1	0x3efac340	0.4897709
2	0xbedb76b3	-0.42863998
3	0x3e9411f2	0.2891994
4	0x3e61a0ef	0.22034048
5	0xbf06fe3a	-0.5273167
6	0xbec02b46	-0.37533015
7	0x3e4d7a39	0.20066155
8	0x3e4196aa	0.1890513
9	0xbe3339ad	-0.1750247
10	0x3e7287b8	0.23684585
11	0x3daf0e71	0.08547676
12	0x3e975b7d	0.29561988
13	0x3f074ac1	0.5284844
14	0xbd828f32	-0.063749686
15	0xbf09011e	-0.5351733
16	0xbf1c9ffc	-0.61181617
17	0xbee92fcd	-0.45544282
18	0xbf1c66fa	-0.6109463
19	0x3f02d253	0.5110218
20	0x3eff8926	0.49909323
21	0xbebe36f0	-0.3715129
22	0xbe90f30f	-0.2831044
23	0xbe8b621f	-0.27223298
24	0x3db8f9af	0.09031998
25	0xbe4dd7eb	-0.20101897
26	0xbe9bfdfe	-0.30467218
27	0x3e9c94cd	0.30582276
28	0x3e4bae46	0.19890699
29	0x3eee0de8	0.46494985
30	0x3d000f92	0.03126485
31	0x3e3a801c	0.18212932

fc2.weight f4 [32, 32]
0	0xbd6fc5b6	-0.05853816
1	0xbed9bec0	-0.42528343
2	0xbe2672fd	-0.16254802
3	0xbdc42610	-0.09577572
4	0x3eb26b15	0.34847322
5	0x3e6aabc0	0.2291708
6	0x3d5a9dfd	0.053373326
7	0xbe835bf6	-0.25656098
8	0xbd108998	-0.03528747
9	0xbdf153b1	-0.11783541
10	0x3ee18606	0.44047564
11	0xbe91aab0	-0.28450537
12	0x3e677928	0.22604811
13	0x3de28a10	0.110614896
14	0x3e028d46	0.12749204
15	0xbe0ad8ad	-0.13559218
16	0xbd13083e	-0.035896532
17	0x3ea8cb10	0.32967424
18	0xbcf55bef	-0.029951064
19	0xbe56856a	-0.20949331
20	0xbcf9b6d0	-0.03048268
21	0xbe1561e3	-0.14588122
22	0x3d46977e	0.048484318
23	0x3d25d43b	0.040485602
24	0x3e9880a5	0.29785648
25	0x3d9f9007	0.07791143
26	0x3dcca18d	0.09991751
27	0xbdd439a6	-0.10362558
28	0xbe3b6678	-0.18300807
29	0xbda3aeba	-0.07992311
30	0x3e7001bd	0.23438163
31	0xbdbfe22b	-0.0936931
32	0x3d26a392	0.040683337
33	0x3c4d8eed	0.012546283
34	0xbba19ca4	-0.004932003
35	0x3e257d42	0.16161063
36	0xbd3084a9	-0.043095265
37	0xbb5caede	-0.0033673565
38	0xbdc0850d	-0.094003774
39	0x3e2c13fb	0.16804497
40	0x3dc68cc7	0.0969482
41	0x3ce778c4	0.028255828
42	0xbd7428c4	-0.05960919
43	0xbe1003c2	-0.14063933
44	0xbdd91c52	-0.10601105
45	0xbe1828d0	-0.14859319
46	0x3c88c543	0.016695624
47	0xbddedef0	-0.10882366
48	0xbde5aef9	-0.11215014
49	0xbe38710a	-0.18011871
50	0x3e232e9b	0.15935747
51	0xbd7fd8cf	-0.062462624
52	0xbd22cbc4	-0.039745107
53	0x3e07fbc7	0.13279639
54	0xbdf5cb8f	-0.12001716
55	0xbe2151c3	-0.15753846
56	0x3cb4e31d	0.022080952
57	0xbb067e1b	-0.0020521942
58	0xbd92b76e	-0.07163893
59	0xbdf06e1e	-0.11739753
60	0xbdeaadf8	-0.11458963
61	0x3d9ff802	0.078109756
62	0x3e154c92	0.1457999
63	0x3c79d3be	0.015248237
64	0xbde64d51	-0.11245216
65	0x3b99bae4	0.0046914686
66	0xbdd32d98	-0.10311431
67	0xbd8bede7	-0.06832486
68	0x3dd82790	0.10554421
69	0x3d68b372	0.056811757
70	0x3d93c44e	0.072151765
71	0xbd85b7b7	-0.065291815
72	0x3e06f222	0.13178304
73	0xbd169e95	-0.03677233
74	0xbc9a4c14	-0.018835105
75	0x3d607865	0.054802317
76	0xbd522033	-0.05130024
77	0x3baec7a8	0.0053338595
78	0xbe21a434	-0.15785295
79	0x3d68e598	0.056859583
80	0x3d5e660a	0.05429653
81	0xbde4e9bf	-0.11177396
82	0x3d9f2bd1	0.07772029
83	0xbdf99db2	-0.12188281
84	0x3cb13aa2	0.021634404
85	0x3d0574d8	0.032582134
86	0x3d6d7db4	0.057981208
87	0xbe3e51b7	-0.18585859
88	0xbd398124	-0.045289174
89	0x3e1ef87d	0.15524478
90	0x3d9c0aa2	0.076192155
91	0x3df61828	0.12016326
92	0x3e5b5091	0.21417452
93	0xbe4a990a	-0.19784942
94	0x3e0f4a5c	0.1399321
95	0xbd16803f	-0.0367434
96	0xbd3f66e1	-0.046728972
97	0x3c0adbdd	0.008475271
98	0x3cad8dd7	0.021185799
99	0x3dab3e8e	0.08361541
100	0xbd75a2cc	-0.05996971
101	0x3c97a7e3	0.018512672
102	0x3db1ee19	0.08687992
103	0x3dbe013d	0.0927758
104	0x3d74fdae	0.05981224
105	0x3dc41016	0.09573381
106	0xbc11e187	-0.008903868
107	0xbc34f01e	-0.0110435765
108	0x3d696988	0.056985408
109	0x3bf71c10	0.007541187
110	0xbd65dccf	-0.056118783
111	0x3e124c0f	0.14286827
112	0x3d87e54a	0.0663553
113	0x3dad8c82	0.08474065
114	0x3ddcbcd1	0.10778201
115	0x3bc49448	0.005999122
116	0xbcef1e0d	-0.029189134
117	0xbdafd354	-0.085852295
118	0xbdd6201c	-0.10455343
119	0x3e05a5f5	0.13051589
120	0x3d722140	0.05911374
121	0x3d89a1f3	0.067203425
122	0xbcb46525	-0.022020886
123	0xbdbfd599	-0.093669124
124	0xbe4d51c6	-0.20050725
125	0xbc37f2ca	-0.011227319
126	0x3e2074b7	0.15669523
127	0x3d9a4e0c	0.075344175
128	0xbde4c319	-0.111700244
129	0x3c8bdab1	0.017072054
130	0x3dd5f434	0.10446969
131	0xbe011adf	-0.12607907
132	0x3d6e5e13	0.058195185
133	0x3dd3e0d4	0.10345617
134	0xbe0bdda9	-0.13658775
135	0x3d11618f	0.03549343
136	0x3e3e8310	0.18604684
137	0xbd7892f0	-0.060687006
138	0x3e2ab3f1	0.16670205
139	0x3db0f2f0	0.08640087
140	0x3d830d7d	0.06399057
141	0xbe145736	-0.14486393
142	0x3d2cc507	0.042180087
143	0xbd8c8a5b	-0.06862327
144	0x3dd45ead	0.103696205
145	0xbdc93b03	-0.09825709
146	0xbb887a0f	-0.004164941
147	0xbdb27021	-0.08712793
148	0x3e4732af	0.19452928
149	0x3d8ca39f	0.06867146
150	0x3d5b0f9b	0.05348168
151	0xbd09a4b1	-0.033604328
152	0x3e0cb3bd	0.1374044
153	0xb9cf35a5	-0.00039522085
154	0xbe2ce20f	-0.1688311
155	0x3dc88daf	0.09792649
156	0x3d53680e	0.051612906
157	0x3e050957	0.12991844
158	0x3d652661	0.055944804
159	0x3c4d7618	0.012540363
160	0xbdb2ef78	-0.08737081
161	0xbd4703b1	-0.048587505
162	0x3cab6bf9	0.020925509
163	0xbe080de7	-0.13286553
164	0xbdf796e2	-0.120893255
165	0x3c5880e2	0.013214322
166	0xbdb87a42	-0.09007694
167	0xbd035a00	-0.032068253
168	0x3c910b26	0.017705511
169	0xbde56ab5	-0.112019934
170	0xbdf1275c	-0.11775085
171	0xbd8bc8a8	-0.068253815
172	0x3c351fe8	0.01105497
173	0xbd955f85	-0.072936095
174	0x3df3714f	0.11886846
175	0xbdb0a8bd	-0.08625934
176	0xbda79f2b	-0.08184656
177	0xbcfbfb68	-0.030759528
178	0x3b002853	0.0019555285
179	0x3c267c1c	0.010161426
180	0xbe0fd7d8	-0.14047182
181	0x3df85b40	0.121267796
182	0xbdb52f33	-0.08846893
183	0xbd68e3ca	-0.05685786
184	0xbcc1a331	-0.023637386
185	0xbd626909	-0.05527595
186	0xbdd50eb0	-0.10403192
187	0x3d923c32	0.071403876
188	0xbdf5cba2	-0.120017305
189	0x3e0f2e56	0.1398252
190	0x3d9823c3	0.07428696
191	0x3e19eb93	0.1503127
192	0x3d17a4e5	0.03702249
193	0xbdd2588c	-0.10270795
194	0xbe103964	-0.14084393
195	0x3ded32d0	0.11581957
196	0x3e49d9e2	0.19712022
197	0x3d359e26	0.044340275
198	0x3aa02d4f	0.0012220534
199	0x3c3cd7db	0.011526073
200	0x3e0f247a	0.13978758
201	0xbe2057f6	-0.15658554
202	0x3e6fe00e	0.23425314
203	0x3c15ffff	0.0091552725
204	0x3e31a9db	0.17349951
205	0xbd037ab2	-0.032099433
206	0x3c2b7ab4	0.010466266
207	0x3dfc8de7	0.12331753
208	0xbd7d0d22	-0.061780103
209	0x3e44bb61	0.19212104
210	0xbe2a4b56	-0.16630301
211	0xbd5fc02f	-0.05462664
212	0xbca8c9cb	-0.020604035
213	0x3e02c2c3	0.12769608
214	0x3dd3e737	0.10346835
215	0xbd114467	-0.035465624
216	0x3e3408a7	0.17581426
217	0xbe1e9c3e	-0.15489289
218	0x3d01151e	0.03151428
219	0xbd8ee2eb	-0.06976875
220	0x3d03ebe5	0.03220739
221	0x3da0a5b3	0.078441046
222	0xbd67a3c3	-0.05655266
223	0xbdeaad94	-0.11458889
224	0x3d0fdde1	0.03512371
225	0xbda99fce	-0.082824335
226	0xbdeb5d3b	-0.11492392
227	0x3afcce86	0.0019287623
228	0x3da5fa8d	0.081044294
229	0x3e016794	0.12637168
230	0xbe1eb50f	-0.15498756
231	0x3c19f81e	0.009397535
232	0x3da4bcd1	0.08043826
233	0xbe19721a	-0.14984933
234	0xbda2fd57	-0.07958477
235	0xbd9e5446	-0.07730918
236	0xbdfb4f4e	-0.122709855
237	0xbd33c76d	-0.04389136
238	0xbdd9bf2a	-0.10632165
239	0xbe06fe65	-0.13182981
240	0xbe194f35	-0.14971621
241	0x3e29ffa5	0.16601427
242	0x3d158dec	0.0365123
243	0xbdcdc0fa	-0.10046573
244	0x3d503f5e	0.05084168
245	0xbd922797	-0.071364574
246	0xbdb5d2ff	-0.08878135
247	0xbbbffa5a	-0.0058587017
248	0x3d03a89c	0.03214322
249	0xbc9d6891	-0.0192149
250	0xbbe9df7d	-0.0071372376
251	0xbd830bac	-0.063987106
252	0xbdcf558e	-0.1012374
253	0x3e2d9d0c	0.1695444
254	0x3e0fc25f	0.1403899
255	0x3d18163c	0.03713058

fc2.bias f4 [32]
0	0x3d8aae50	0.06771529
1	0x3c1c51b5	0.009540965
2	0x3e145eb7	0.14489256
3	0xbe45fb0b	-0.19334047
4	0x3de45e0f	0.11150753
5	0xbe1b3cb6	-0.15159878
6	0xbe1bd232	-0.15216902
7	0xbdf19ddf	-0.1179769
8	0xbdcbf011	-0.099578984
9	0xbcbe8abc	-0.023259513
10	0x3e866ca7	0.2625477
11	0xbcd99648	-0.026560917
12	0x3d5db2be	0.05412554
13	0xbdde6b66	-0.108603284
14	0x3d5f590d	0.054528285
15	0x3dce7550	0.10080969
16	0x3d2bee7b	0.04197548
17	0xbc807ccf	-0.015684513
18	0x3dd1f649	0.10252053
19	0xbd7e287a	-0.06205032
20	0xbd8a9440	-0.06766558
21	0x3e3bfa58	0.18357217
22	0x3d81feab	0.06347402
23	0x3dbb1ddc	0.091365546
24	0x3e5dbb5b	0.21653502
25	0x3d502a6e	0.050821714
26	0x3e9d7fb6	0.30761498
27	0x3d8a1f85	0.06744293
28	0x3d4a6c2d	0.04941957
29	0x3e686fce	0.226989
30	0x3cd571c4	0.026055224
31	0x3d02d4e4	0.03194131

fc3.weight f4 [1, 32]
0	0xbf71962b	-0.94369763
1	0xbd777429	-0.060413513
2	0xbe67ae1a	-0.22625008
3	0xbd29d869	-0.04146615
4	0xbe4c01a6	-0.19922504
5	0xbc3724c9	-0.011178204
6	0xbe82716b	-0.25477156
7	0x3d9699f4	0.07353583
8	0xbe762852	-0.24038818
9	0x3e529d7c	0.20567888
10	0xbf01b158	-0.5066123
11	0xbe8bf572	-0.27335697
12	0x3f74accf	0.95576185
13	0xbedcc29c	-0.43117225
14	0x3d1d28d7	0.038369026
15	0xbe51afb8	-0.20477188
16	0x3f319391	0.69365793
17	0x3f86d3a3	1.0533336
18	0xbe8dfb36	-0.2773072
19	0x3d736061	0.059418086
20	0xbece2b08	-0.40267205
21	0xbedca1b9	-0.43092135
22	0x3d06f0b9	0.032944415
23	0xbc93f4b7	-0.018061025
24	0xbf3e3a0c	-0.7430732
25	0xbea7622b	-0.32692084
26	0xbef277fe	-0.47357172
27	0x3d7738b6	0.06035682
28	0x3f8bacbf	1.0912093
29	0xbebbb6e0	-0.3666296
30	0x3fb6fad8	1.4295301
31	0x3e0bcf85	0.13653381
