Networks/7-DDPG-with-target-network-policy-network-theta=0.pt (torch, 7463 bytes, 5 tensors)

fc1.weight f4 [32, 3]
0	0xbe8127c1	-0.25225642
1	0xbe218ba6	-0.15775928
2	0xbd684c31	-0.056713287
3	0xbeeaeff2	-0.4588619
4	0xbeab905d	-0.33508578
5	0xbe090363	-0.13380198
6	0xbf1df07d	-0.6169508
7	0xbed60907	-0.41803762
8	0xbd78907c	-0.060684666
9	0x3e543ef7	0.20727144
10	0xbee4da55	-0.44697824
11	0x3f05b564	0.52229905
12	0x3ef52d30	0.47886038
13	0x3de7c07a	0.11316009
14	0xbef916ab	-0.48650107
15	0x3f11e8b5	0.5699571
16	0x3f1f1090	0.6213465
17	0x3d57eb86	0.052714847
18	0x3ec251ed	0.3795313
19	0x3f08cb79	0.53435475
20	0xbec140ef	-0.37744853
21	0xbeceb705	-0.40374008
22	0x3ee9ced2	0.45665604
23	0xbead56bb	-0.33855233
24	0xbdeabc48	-0.11461693
25	0x3eac8871	0.33697847
26	0xbebf6f76	-0.37389725
27	0x3cf8c27d	0.030366177
28	0xbd88ee97	-0.066861324
29	0xbea7fa48	-0.32808137
30	0x3e1b0c0c	0.15141314
31	0xbd8666c5	-0.065625705
32	0x3dde036b	0.10840496
33	0x3f2c3868	0.6727357
34	0x3ea7889e	0.32721418
35	0xbf1d5c78	-0.6146922
36	0x3eb9f506	0.3631975
37	0xbe16ff5b	-0.14745848
38	0xbebd36c3	-0.36955842
39	0xbf028d5f	-0.50996965
40	0xbdda85bf	-0.10670041
41	0x3f27ec00	0.6559448
42	0xbdf9f740	-0.12205362
43	0x3cf5ed8e	0.030020501
44	0x3e1ce577	0.15321909
45	0x3eadf5f7	0.3397672
46	0xbe88222b	-0.26588568
47	0x3e8c8b0b	0.2744983
48	0xbde875fe	-0.1135063
49	0xbf003ec3	-0.50095767
50	0xbf0086b3	-0.50205535
51	0x3ee40013	0.44531307
52	0x3b4dfbe2	0.0031430651
53	0xbe25f9af	-0.16208528
54	0x3ee04863	0.43805227
55	0xbd9b11f8	-0.07571787
56	0xbe76b402	-0.24092105
57	0xbf050195	-0.5195554
58	0x3ef5578a	0.4791835
59	0xbee907b7	-0.45513698
60	0x3f1e6d7f	0.6188583
61	0x3e94af56	0.2904002
62	0xbf18745b	-0.59552544
63	0x3f1fade6	0.6237472
64	0x3ee26b92	0.44222695
65	0xbead9728	-0.33904386
66	0x3de06fcc	0.109588236
67	0x3d354d2e	0.044263057
68	0x3ef86677	0.48515674
69	0x3db1682c	0.08662447
70	0x3edebbde	0.43502706
71	0x3ef19849	0.47186497
72	0x3efd9bee	0.49533027
73	0xbe83e55a	-0.2576092
74	0xbe999db1	-0.30003121
75	0xbe8ba007	-0.2727053
76	0xbeb873c8	-0.36025834
77	0x3f118121	0.5683766
78	0xbce8f2f3	-0.02843616
79	0x3e0bac09	0.13639845
80	0xbf02f39c	-0.5115297
81	0x3ed81aba	0.4220789
82	0xbcc3a27a	-0.023881186
83	0x3e4f49c8	0.20242989
84	0x3ec54a3c	0.385332
85	0xbda346b8	-0.07972473
86	0x3ed8b799	0.42327574
87	0xbce60635	-0.028079132
88	0xbf042bc2	-0.5162927
89	0xbed553dd	-0.41665545
90	0x3ee0257d	0.437786
91	0x3e1b930e	0.15192816
92	0x3e78660a	0.24257675
93	0xbeb9a287	-0.3625681
94	0x3e3e31d6	0.18573698
95	0x3ea28ea7	0.3174946

fc1.bias f4 [32]
0	0x3eae32be	0.34023088
1	0xbe8c8aa8	-0.27449536
2	0x3e6740c5	0.22583301
3	0x3ec25d3d	0.3796176
4	0x3e703e9e	0.23461387
5	0xbdbef3b3	-0.09323826
6	0xbe34f0db	-0.17670004
7	0xbef09a3f	-0.4699268
8	0x3cbb6b67	0.022878362
9	0xbeb46316	-0.35231847
10	0x3e20d164	0.15704876
11	0x3e79e96d	0.24405451
12	0x3d3304a7	0.04370561
13	0xbd8c8e3f	-0.06863069
14	0x3eb766b4	0.35820544
15	0xbef133a5	-0.47109714
16	0x3ec69fe4	0.38793862
17	0xbe0fd344	-0.14045435
18	0x3e17bbbd	0.1481771
19	0x3e813b6c	0.25240648
20	0x3e7fe74b	0.24990575
21	0xbd06aa85	-0.032877464
22	0xbe799b61	-0.24375679
23	0xbeba220f	-0.3635411
24	0x3e3d4738	0.18484199
25	0x3e5edc49	0.2176372
26	0xbf0483de	-0.51763713
27	0x3f23700f	0.6384286
28	0x3eb92bfb	0.36166367
29	0x3d4024eb	0.046910208
30	0xbee8c87f	-0.45465466
31	0x3ec15196	0.37757558

fc2.weight f4 [32, 32]
0	0x3cb123c1	0.021623494
1	0xbdfd0faa	-0.12356503
2	0x3e21ef04	0.15813833
3	0xbc5df1d4	-0.013546426
4	0x3d88ca83	0.06679251
5	0x3db268fa	0.08711429
6	0x39eec64d	0.00045542643
7	0xbd875309	-0.066076346
8	0xbd4868fd	-0.04892825
9	0x3d97f3a3	0.07419517
10	0xbdb0e33b	-0.08637091
11	0x3e102b79	0.14079084
12	0xbda2206d	-0.07916341
13	0xbd5df016	-0.054184042
14	0x3e209cd8	0.15684831
15	0x3d3b5ba8	0.045741707
16	0x3e088a60	0.13334036
17	0xbdfe566f	-0.1241883
18	0x3d785214	0.06062515
19	0xbe2b3cc7	-0.16722403
20	0xbdecb6a6	-0.11558275
21	0x3deabbfd	0.11461637
22	0xbda3fa77	-0.08006757
23	0xbddff3f6	-0.10935204
24	0xbdec2015	-0.11529557
25	0x3c47b267	0.0121885305
26	0x3dad4378	0.08460134
27	0x3d83a7e2	0.064285055
28	0x3e2ee5e7	0.17079888
29	0x3e2eb37f	0.1706066
30	0xbdb4f193	-0.08835139
31	0x3cc796d7	0.024363918
32	0xbe0eb7ab	-0.13937251
33	0x3e0d3dff	0.13793181
34	0x3be8fd0c	0.0071102437
35	0x3d8965d4	0.06708875
36	0xbe396140	-0.18103504
37	0x3c874383	0.016511684
38	0x3d93f00a	0.07223518
39	0xbda0fa42	-0.07860233
40	0xbe3fba30	-0.18723369
41	0xbe2feef9	-0.17181005
42	0x3e11b761	0.1423011
43	0xbddd0fb0	-0.10794008
44	0x3dd01d0e	0.10161792
45	0x3e64bced	0.22337694
46	0x3c7426da	0.014901841
47	0xbca323f7	-0.01991461
48	0x3e04a02e	0.12951729
49	0x3d965ccd	0.07341919
50	0x3c2b7d2b	0.010466854
51	0x3d209c19	0.039211366
52	0xbe5678f4	-0.20944577
53	0x3d6d1523	0.057881486
54	0x3de9bcae	0.11412941
55	0xbe158be6	-0.14604148
56	0xbe2103d7	-0.15724121
57	0xbdbfbe9c	-0.09362528
58	0xbc1fdd3f	-0.009757339
59	0x3dfb4667	0.122692876
60	0x3d5d646d	0.05405085
61	0xbd9b40d3	-0.075807236
62	0x3e0b8826	0.13626155
63	0x3dd52fc1	0.10409499
64	0x3e0461e3	0.12927966
65	0x3ddba96d	0.10725675
66	0x3e75e655	0.24013646
67	0x3b0a16da	0.002107075
68	0x399d7436	0.00030031957
69	0xbd8ddc39	-0.0692677
70	0xbd1607d7	-0.03662857
71	0xbe2491f2	-0.16071299
72	0x3df50de4	0.1196554
73	0xbc1f24ef	-0.0097133955
74	0x3d8cad36	0.06868975
75	0x3dbb4cc0	0.09145498
76	0x3ce87e78	0.028380617
77	0xbd8c11cd	-0.06839333
78	0xbd7db2e8	-0.061938196
79	0xbdcfb339	-0.10141606
80	0x3e523b04	0.20530325
81	0x3a9d1246	0.0011983595
82	0x3bec0c7a	0.0072036358
83	0xbe426785	-0.18984802
84	0x3e5c9d49	0.21544375
85	0x3e331bb8	0.17491043
86	0x3df5ff2d	0.120115615
87	0x3dc29a4b	0.09502085
88	0xbd1bcd07	-0.038037326
89	0x3d802c02	0.06258394
90	0x3c8c4852	0.017124329
91	0x3e014988	0.12625706
92	0x3de7e476	0.11322872
93	0xbc958a8b	-0.018254539
94	0x3bb77bf7	0.0055994946
95	0x3d33e5b8	0.04392025
96	0x3aa8fd9b	0.0012892963
97	0xbdead4b8	-0.11466354
98	0x3e05f401	0.13081361
99	0x3cf0af2f	0.029380409
100	0x3e14d22f	0.14533304
101	0xbe32d54d	-0.1746418
102	0x3e23a842	0.15982154
103	0x3e153af7	0.14573275
104	0xbd941819	-0.07231159
105	0xbd7acfdc	-0.061233386
106	0x3e13ddba	0.1444005
107	0xbd76b3be	-0.06023001
108	0xbd5b27cb	-0.053504746
109	0x3da4a288	0.08038813
110	0xbe1c54a8	-0.15266669
111	0x3da81867	0.082077794
112	0xbe0cda91	-0.13755251
113	0x3e03994b	0.12851445
114	0xbdef7eed	-0.11694131
115	0xbca6bd96	-0.020354073
116	0x3c2b13d5	0.01044174
117	0xbdf76117	-0.12079065
118	0xbd1e506a	-0.038650908
119	0xbe0a40cf	-0.13501285
120	0x3dccc256	0.09998004
121	0xbdf2f9b2	-0.11864032
122	0x3d9c39c6	0.07628207
123	0x3df38902	0.118913665
124	0x3c9c2a45	0.019063124
125	0x3dccf25b	0.10007163
126	0xbdacd0ef	-0.084382884
127	0x3dfa335d	0.12216828
128	0xbe097d05	-0.13426597
129	0x3e18a1dc	0.14905494
130	0x3cc2534f	0.023721365
131	0x3dacb596	0.08433072
132	0xbe0c8827	-0.13723813
133	0xbc8177c5	-0.01580418
134	0xbd342f95	-0.04399069
135	0x3e25b6d1	0.1618302
136	0x3db58d34	0.08864823
137	0x3de77e84	0.11303428
138	0xbd49eec9	-0.04929999
139	0x3ce95394	0.028482236
140	0x3c967b82	0.01836944
141	0xbe275c34	-0.16343766
142	0xbe24b63d	-0.16085143
143	0x3d583c79	0.052792046
144	0xbd912d7e	-0.07088755
145	0xbddea913	-0.10872092
146	0x3b3b117c	0.0028544357
147	0xbc8f8234	-0.01751814
148	0x3ce8e00e	0.02842715
149	0xbdb6e7f3	-0.089309596
150	0xbc63db45	-0.013907258
151	0xbe2f0d6c	-0.17094964
152	0x3d10f992	0.03539426
153	0xbd6467fd	-0.055763233
154	0xbc99cf4a	-0.018775601
155	0xbdb0175c	-0.085982054
156	0x3dd69b50	0.10478842
157	0xbe30f5c8	-0.17281258
158	0x3c1cf90e	0.009580864
159	0x3d835432	0.06412543
160	0x3d0d837f	0.034549233
161	0x3e1ecec5	0.15508564
162	0x3dfdcd75	0.123927034
163	0x3e109a78	0.14121425
164	0x3c1fc490	0.009751454
165	0xbdb6e665	-0.08930663
166	0x3e28a667	0.16469727
167	0xbd4a253f	-0.049351927
168	0xbdb669af	-0.08906876
169	0xbe333a06	-0.17502603
170	0xbe155aa9	-0.14585365
171	0xbd2b4e0e	-0.041822486
172	0xbe1b8ac8	-0.1518966
173	0xbe1e6f0c	-0.15472049
174	0x3d354ffe	0.04426574
175	0xbd4d10ab	-0.050064724
176	0xbdbfb2ce	-0.09360276
177	0x3e2481af	0.16065095
178	0xbe256699	-0.16152419
179	0x3cdfa7e0	0.027301729
180	0x3c025e37	0.007957033
181	0x3d9c9c84	0.076470405
182	0xbd5e1641	-0.05422044
183	0x3cfae337	0.030625923
184	0xbd0c4a7a	-0.034250714
185	0xbd0a212c	-0.03372304
186	0x3db4b0c9	0.088227816
187	0xbe0cdc53	-0.13755922
188	0xbde4bd0e	-0.11168872
189	0xbd32d726	-0.043662213
190	0xbd03f650	-0.032217324
191	0x3db3a4c9	0.08771665
192	0x3e125d65	0.1429344
193	0xbe1a2c46	-0.15055951
194	0x3e16483a	0.1467599
195	0x3d3a0df5	0.045423467
196	0x3d190fb2	0.037368484
197	0x3dfa8c4f	0.12233793
198	0xbccfc830	-0.025364012
199	0x3c276cad	0.010218781
200	0x3e06c328	0.13160384
201	0x3e2b99c6	0.16757879
202	0x3e2cf401	0.16889955
203	0xbd8b02c6	-0.06787638
204	0x3d5287e0	0.05139911
205	0xbe19aa01	-0.15006258
206	0x3de3586e	0.11100851
207	0x3e012327	0.12611066
208	0xbe130bf1	-0.14360024
209	0xbd98bfa9	-0.07458431
210	0x3d95329d	0.07285044
211	0xbe166230	-0.14685893
212	0xbc37139d	-0.01117411
213	0xbe16cde5	-0.1472698
214	0xbd3593c3	-0.04433037
215	0x3dd40807	0.103530936
216	0x3d850979	0.064959474
217	0x3d6b284f	0.05741149
218	0xbdf04326	-0.117315575
219	0xbdbcd245	-0.09219793
220	0xbd5640f1	-0.052308027
221	0x3d27ffc1	0.04101539
222	0xbda587a3	-0.08082511
223	0xbca4747f	-0.02007508
224	0x3aeacb0e	0.0017913298
225	0x3d9965f7	0.074901514
226	0x3e1391d9	0.14411105
227	0x3db90c01	0.09035493
228	0x3e51ab3d	0.20475478
229	0x3e32291d	0.17398496
230	0x3e2b15a2	0.16707471
231	0x3d64b210	0.055833876
232	0x3e033151	0.12811781
233	0xbdc9d48b	-0.098549925
234	0xbd83dd29	-0.06438667
235	0x3e917cd2	0.28415543
236	0xbdfd600f	-0.12371837
237	0xbd71b93a	-0.059014536
238	0x3e3bd909	0.18344511
239	0xbd4c2a73	-0.04984517
240	0x3de5f9c4	0.1122928
241	0xbd8bb7c0	-0.06822157
242	0xbb2fd5bc	-0.0026830276
243	0x3db26fe3	0.08712747
244	0x3dd79896	0.1052715
245	0x3e1d24bd	0.15346046
246	0xbd0e0ce1	-0.03468025
247	0x3e3834e0	0.1798892
248	0xbdf91215	-0.12161652
249	0x3dea42f8	0.114385545
250	0x3d8007ce	0.062514886
251	0x3e00237b	0.12513535
252	0x3d839691	0.06425203
253	0xbde0f237	-0.10983699
254	0xbe3301df	-0.17481183
255	0x3e2ea147	0.1705371

fc2.bias f4 [32]
0	0x3e5375d3	0.20650415
1	0x3e16241e	0.14662215
2	0x3e27be16	0.16381106
3	0x3ccd03ef	0.02502629
4	0x3c2753fa	0.010212893
5	0xbd37ca26	-0.04487052
6	0x3e00b443	0.12568764
7	0xbdf785bc	-0.12086055
8	0xbdece087	-0.11566263
9	0xbde9f4f5	-0.11423675
10	0x3e1a04f4	0.15040952
11	0x3dff48bc	0.12465045
12	0x3da542f2	0.080694094
13	0x3d88961a	0.066692546
14	0xbd91f4b3	-0.07126751
15	0x3ddde037	0.10833781
16	0xbe3586d7	-0.17727219
17	0x3e488411	0.1958163
18	0x3d9971e4	0.07492426
19	0x3ce35327	0.027749611
20	0xbd85a99b	-0.0652649
21	0xbe426664	-0.18984371
22	0xbd37a35c	-0.044833526
23	0x3e270226	0.16309413
24	0x3dedcfae	0.116118774
25	0x3df4c2a1	0.11951185
26	0x3e28cc99	0.16484298
27	0x3e2f01af	0.17090486
28	0x3e61721d	0.22016187
29	0x3e2461bd	0.16052909
30	0xbd116cb0	-0.035504043
31	0x3e10d931	0.14145352

fc3.weight f4 [1, 32]
0	0xbe84c3be	-0.2593059
1	0x3e44ab27	0.19205914
2	0xbeb8bb52	-0.36080414
3	0xbdcb8569	-0.09937555
4	0x3e0127b9	0.12612809
5	0xbd8a758e	-0.06760703
6	0xbc0a16b1	-0.008428262
7	0xbedc34af	-0.43008944
8	0x3ee61ca0	0.44943714
9	0xbe05117f	-0.12994955
10	0x3ef22d0b	0.4729999
11	0xbd93bab0	-0.07213342
12	0x3d2384a5	0.03992142
13	0x3de32532	0.11091079
14	0xbe933127	-0.28748438
15	0x3efa808c	0.48926198
16	0x3de5c43c	0.11219069
17	0xbf04ee65	-0.5192626
18	0xbebb1315	-0.36537996
19	0xbe7ae226	-0.24500331
20	0xbdb804eb	-0.08985313
21	0x3ea5500f	0.32287642
22	0xbdc557a7	-0.09635859
23	0xbe124ae3	-0.1428638
24	0xbe91f73b	-0.28508934
25	0x3edc51f7	0.43031284
26	0xbc7252a7	-0.014790214
27	0x3e04fa51	0.12986113
28	0xbeb935db	-0.361739
29	0x3e2c8f4f	0.16851543
30	0x3e76148f	0.2403128
31	0x3f0002d2	0.50004303
