Networks/7-DDPG-with-target-network-policy-network-theta=0.5.pt (torch, 7479 bytes, 5 tensors)

fc1.weight f4 [32, 3]
-0.25070873 -0.66566724 0.21055898 -0.57698965 -0.14410691 0.21507838 0.33267915 0.20645721
0.32065794 0.82132876 -0.51876915 -0.5128031 0.13356017 0.40666923 -0.34166574 -0.037744027
0.031632006 0.2112947 -0.41988823 -0.43121406 -0.38857904 -0.21800739 -0.50105053 -0.47510195
0.43558556 -0.47642973 0.19811796 -0.7340371 -0.5253367 -0.58684164 0.22511606 -0.03424389
0.37780067 0.2558369 0.6632105 -0.2125176 0.6397234 0.17478704 -0.74078834 -0.2569313
0.29673526 -0.27574548 -0.31360197 0.7665523 0.09137332 -0.47232395 0.1070574 -0.25009274
0.10996259 0.19824137 0.46192744 -0.76121324 0.6887088 0.067214675 -0.55169505 0.2150224
0.45151547 -0.45021266 0.14371164 0.12848696 -0.50138265 0.18810073 -0.31193814 -0.4204903
-0.34012327 0.109698266 0.78746265 0.6946473 0.680812 -0.39792687 -0.12248844 -0.40897536
0.8247321 0.73271036 -0.3129203 0.40083185 -0.86726624 -0.009971839 -0.08211462 0.019177102
-0.5528376 -0.6011248 -0.12217434 -0.3375963 0.36162883 0.53911537 0.26788923 -0.34047544
0.05687345 -0.13455212 0.34501848 0.90524334 0.234072 0.40842366 -0.53971785 -0.6219137
00000000: e55c 80be 2b69 2abf c69c 573e 98b5 13bf
00000010: c390 13be 823d 5c3e ec54 aa3e 8569 533e
00000020: 472d a43e 9a42 523f 0ece 04bf 1047 03bf
00000030: ffc3 083e f336 d03e d0ee aebe 7b99 1abd
00000040: 9090 013d a35d 583e 97fb d6be 17c8 dcbe
00000050: d5f3 c6be 543d 5fbe d944 00bf 9040 f3be
00000060: 1205 df3e 99ee f3be 6fdf 4a3e dbe9 3bbf
00000070: 777c 06bf 413b 16bf d384 663e 5243 0cbd
00000080: 176f c13e 0efd 823e 2ac8 293f 379e 59be
00000090: eac4 233f 60fb 323e 4ea4 3dbf 808c 83be
000000a0: afed 973e 832e 8dbe 7090 a0be c63c 443f
000000b0: ef21 bb3d 72d4 f1be e940 db3d 280c 80be
000000c0: 1134 e13d c9ff 4a3e c181 ec3e dfde 42bf
000000d0: 384f 303f d9a7 893d e33b 0dbf d52e 5c3e
000000e0: 092d e73e 4682 e6be 2529 133e 1692 033e
000000f0: 9d5a 00bf 7a9d 403e 5bb6 9fbe 814a d7be
00000100: a324 aebe 7ca9 e03d 2797 493f 68d4 313f
00000110: b249 2e3f 12bd cbbe 38db fabd 3865 d1be
00000120: a521 533f e892 3b3f 1737 a0be d539 cd3e
00000130: 2905 5ebf ed60 23bc b62b a8bd 4c19 9d3c
00000140: c486 0dbf 51e3 19bf 8a36 fabd 6cd9 acbe
00000150: 6a27 b93e 7703 0a3f c728 893e cc52 aebe
00000160: 22f4 683d 08c8 09be 43a6 b03e 07be 673f
00000170: 92b0 6f3e e81c d13e f32a 0abf bc35 1fbf

fc1.bias f4 [32]
-0.0073531 0.16289596 0.12714633 -0.45178306 -0.5689886 0.2774124 -0.09696701 -0.048576556
0.4002529 0.771061 -0.0005566097 -0.042152867 -0.084648356 -0.45003846 -0.33634666 -0.219229
0.6151872 -0.0036570192 -0.2179381 0.34720302 -0.16621496 0.69963044 -0.6347219 -0.12607619
-0.16130745 0.106808655 -0.32331166 0.6103269 0.5888358 0.1275151 0.07228304 0.2459971
00000000: 46f2 f0bb 33ce 263e a632 023e 1c50 e7be
00000010: 3da9 11bf 0009 8e3e a496 c6bd 36f8 46bd
00000020: f3ed cc3e 4164 453f 72e9 11ba 7ca8 2cbd
00000030: 1e5c adbd 716b e6be a135 acbe 917d 60be
00000040: e97c 1d3f 9aaa 6fbb 2a2b 5fbe 98c4 b13e
00000050: 4134 2abe fb1a 333f 227d 22bf 1e1a 01be
00000060: c82d 25be 7fbe da3d 1b89 a5be 623e 1c3f
00000070: f1bd 163f 5293 023e 2109 943d aae6 7b3e

fc2.weight f4 [32, 32]
0.16006151 -0.07909425 0.16708894 0.09711964 0.1685302 0.14796618 0.017492553 -0.15891515
0.025378754 0.11890644 0.17736997 0.14898586 -0.0015530355 -0.17088714 -0.024965327 -0.1472931
0.16302414 -0.12514769 -0.092491604 -0.16754611 -0.14588182 0.1657949 0.08694195 -0.09624462
-0.09343277 -0.03688191 0.114093825 0.13057661 -0.12663707 0.05249934 -0.060100563 0.17043507
-0.019729147 0.091574356 -0.15914056 -0.24545635 0.10541984 0.05652545 0.19873956 -0.12597378
-0.0023869202 0.15891649 0.06546773 -0.05470481 -0.08710485 -0.07199103 -0.15139702 0.046735093
-0.1918077 -0.028878124 -0.0039273193 0.104209475 -0.0635844 -0.00038772222 0.14237891 -0.13698517
0.16659924 -0.06032286 0.11946788 0.27504206 -0.16428143 0.15127333 0.10092267 0.08120395
-0.040499855 -0.1492 0.02262119 0.06604777 -0.12958927 -0.10943432 -0.11842235 -0.05561559
-0.1156436 -0.1508139 0.10904412 -0.12305905 0.16497877 0.04880083 -0.1653241 -0.15759394
-0.11764447 -0.085341565 -0.12798364 -0.10190634 -0.08797007 0.032022815 -0.027607448 0.025580462
0.15081775 -0.04737996 0.03168851 -0.1293434 0.018654117 0.1550222 0.07203903 0.075085096
-0.028556377 -0.00014773924 -0.13546257 0.07195922 -0.1396058 -0.09898829 -0.09019808 -0.1557995
-0.11745252 -0.03542642 -0.10161905 -0.04178089 -0.17180784 -0.092796564 -0.011907612 -0.024350861
0.16680586 -0.12502086 -0.12700957 0.02821558 0.11111984 0.14673513 -0.15605809 -0.10310171
0.09822436 -0.04564243 0.10643441 -0.14222002 0.021683076 0.118741326 0.13071583 -0.009740433
0.07933434 0.09485429 0.13658929 -0.06571666 -0.10157694 -0.025580605 0.114258446 -0.14871046
-0.01794034 -0.08939367 0.10266374 -0.06845425 -0.03987443 0.09376723 -0.03807571 -0.0012141492
0.15327194 0.1583811 0.032711547 -0.013651494 -0.16491313 0.07521541 -0.22213475 0.04733339
-0.036445163 0.15475003 -0.080576904 0.16395997 -0.014269232 0.15878697 0.16549267 -0.05948316
0.07976956 0.058073185 -0.055197023 0.2879305 -0.018081795 0.12941861 0.100501075 0.04734668
0.3343854 -0.10659356 0.1958474 -0.22366075 0.08744291 0.031198116 0.060455278 0.06914583
0.007038962 -0.09923029 -0.14061368 -0.11439106 0.16829056 0.027251825 -0.2720765 -0.1007335
-0.14178422 0.10106823 0.14626086 -0.29642 0.015451507 -0.005021801 -0.31981263 0.2715063
0.11728208 0.104590505 0.1389996 0.096025296 0.013581576 0.11007153 0.15711324 -0.12656905
0.0077104606 0.06841616 -0.018030658 0.0675922 0.19659124 0.17487186 -0.014968854 0.023941671
-0.13871436 0.16695914 -0.13638636 -0.039280802 -0.118698694 -0.11099743 -0.060880188 0.022474885
-0.04219519 0.11291152 0.049867697 0.09600657 -0.085288584 -0.079187185 -0.047040235 0.13245782
0.14622317 -0.058182564 0.13090004 -0.15962562 -0.16955902 0.15594561 -0.10604514 0.12716958
-0.113930546 0.13507734 -0.15975629 -0.03685105 0.011300669 0.05580017 0.013077128 0.027858196
-0.15340194 0.12785047 -0.0070453575 0.17616129 -0.071239136 -0.1393845 -0.024951138 -0.1742893
-0.024676751 0.0051383246 -0.15798819 0.04507001 -0.038679525 0.07306059 0.14905328 0.0865767
00000000: 2ae7 233e 2bfc a1bd 5d19 2b3e a9e6 c63d
00000010: 2e93 2c3e 7284 173e 8b4c 8f3c a7ba 22be
00000020: 1be7 cf3c 3885 f33d 79a0 353e c08f 183e
00000030: 398f cbba 0afd 2ebe 1684 ccbc 01d4 16be
00000040: cdef 263e b726 00be 3d6c bdbd 3591 2bbe
00000050: 0b62 15be 23c6 293e 9f0e b23d e61b c5bd
00000060: ae59 bfbd 7c11 17bd 06aa e93d e0b5 053e
00000070: 26ad 01be 8c09 573d 022c 76bd 8886 2e3e
00000080: 059f a1bc 568b bb3d bef5 22be e958 7bbe
00000090: 5be6 d73d 3b87 673d 6282 4b3e 45ff 00be
000000a0: e06d 1cbb 01bb 223e f213 863d 2712 60bd
000000b0: 0764 b2bd 0870 93bd d207 1bbe 4c6d 3f3d
000000c0: 3d69 44be d191 ecbc beb0 80bb c76b d53d
000000d0: 8a38 82bd 3247 cbb9 c7cb 113e d745 0cbe
000000e0: fe98 2a3e 1a15 77bd 93ab f43d 50d2 8c3e
000000f0: 6439 28be 65e7 1a3e 8bb0 ce3d 424e a63d
00000100: 2de3 25bd e3c7 18be 1350 b93c 0e44 873d
00000110: 0db3 04be 1a1f e0bd 6b87 f2bd 2ccd 63bd
00000120: 8dd6 ecbd f66e 1abe 8652 df3d 6206 fcbd
00000130: 32f0 283e 61e3 473d b94a 29be 4e60 21be
00000140: 95ef f0bd 8fc7 aebd 250e 03be 45b4 d0bd
00000150: a729 b4bd 5b2a 033d 0429 e2bc 1e8e d13c
00000160: f86f 1a3e 7d11 42bd d0cb 013d 9972 04be
00000170: 85d0 983c 24be 1e3e 3389 933d 37c6 993d
00000180: 10ef e9bc 73ea 1ab9 b3b6 0abe 5b5f 933d
00000190: d3f4 0ebe 5fba cabd c5b9 b8bd e789 1fbe
000001a0: f28a f0bd 4b1b 11bd a61d d0bd 7022 2bbd
000001b0: 65ee 2fbe 200c bebd 2518 43bc 757b c7bc
000001c0: 28cf 2a3e 7805 00be cc0e 02be 5c24 e73c
000001d0: cc92 e33d bc41 163e b1cd 1fbe fd26 d3bd
000001e0: da29 c93d 8ff3 3abd 49fa d93d 20a2 11be
000001f0: b5a0 b13c a72e f33d 5fda 053e 5696 1fbc
00000200: 0b7a a23d f742 c23d 10de 0b3e 7596 86bd
00000210: 9207 d0bd 6b8e d1bc 5500 ea3d 8e47 18be
00000220: 9ff7 92bc 0714 b7bd 5e41 d23d be31 8cbd
00000230: 5f53 23bd 0909 c03d 47f5 1bbd 1624 9fba
00000240: 52f3 1c3e a82e 223e 8bfc 053d 84aa 5fbc
00000250: fdde 28be 890a 9a3d 4b77 63be a8e0 413d
00000260: 8647 15bd cb76 1e3e 8105 a5bd 1fe5 273e
00000270: 7fc9 69bc 0d99 223e e976 293e 9da4 73bd
00000280: 395e a33d 26de 6d3d 4616 62bd a06b 933e
00000290: 4620 94bc 5086 043e 82d3 cd3d 98ee 413d
000002a0: 9034 ab3e b94d dabd 398c 483e 5307 65be
000002b0: 4515 b33d 3193 ff3c f49f 773d 549c 8d3d
000002c0: 18a7 e63b 4039 cbbd 08fd 0fbe dc45 eabd
000002d0: 5c54 2c3e 383f df3c 9c4d 8bbe 5e4d cebd
000002e0: e22f 11be dcfc ce3d 68c5 153e 5dc4 97be
000002f0: 5128 7d3c ec8d a4bb 7bbe a3be e002 8b3e
00000300: 9631 f03d 8c33 d63d e955 0e3e e9a8 c43d
00000310: 4285 5e3c 2f6d e13d 4be2 203e 519b 01be
00000320: 08a8 fc3b c61d 8c3d 08b5 93bc c86d 8a3d
00000330: 374f 493e 9c11 333e ed3f 75bc 5321 c43c
00000340: 230b 0ebe 56f7 2a3e dea8 0bbe e8e4 20bd
00000350: 4d18 f3bd 9f52 e3bd 815d 79bd 401d b83c
00000360: ddd4 2cbd 283e e73d 1242 4c3d 189f c43d
00000370: c8ab aebd e42c a2bd 43ad 40bd 06a3 073e
00000380: 87bb 153e d750 6ebd a90a 063e e674 23be
00000390: e1a0 2dbe 35b0 1f3e 322e d9bd be38 023e
000003a0: 6b54 e9bd b751 0a3e 2797 23be 20f1 16bd
000003b0: 7126 393c b88e 643d 7341 563c df36 e43c
000003c0: 6615 1dbe 3ceb 023e bedc e6bb a063 343e
000003d0: d3e5 91bd cfba 0ebe 5466 ccbc e578 32be
000003e0: e626 cabc 645f a83b a8c7 21be 559b 383d
000003f0: 6c6e 1ebd caa0 953d 6ca1 183e 204f b13d

fc2.bias f4 [32]
-0.068546034 0.25994346 -0.15095308 0.018453384 0.02011355 0.062333204 0.03276879 -0.17466727
-0.004808587 -0.06321597 0.021811893 0.24884045 -0.11103429 0.08662193 0.33254206 0.09805615
0.5131431 -0.1481679 -0.02812026 -0.072184704 0.1854921 -0.049051493 -0.07717567 0.013807491
-0.10871444 -0.1733645 0.18280073 -0.049658015 0.09513561 0.040043656 0.20277388 -0.02134183
00000000: dd61 8cbd 4f17 853e 7293 1abe 8d2b 973c
00000010: 2cc5 a43c 1a51 7f3d 9138 063d fadb 32be
00000020: 5a91 9dbb 6077 81bd dbae b23c 08d0 7e3e
00000030: f265 e3bd d766 b13d f442 aa3e aad1 c83d
00000040: 595d 033f 53b9 17be 765c e6bc 93d5 93bd
00000050: a4f1 3d3e 38ea 48bd 470e 9ebd d138 623c
00000060: ada5 debd 7786 31be 1d30 3b3e 3466 4bbd
00000070: 75d6 c23d d104 243d f5a3 4f3e 10d5 aebc

fc3.weight f4 [1, 32]
-0.06378603 -0.47199154 -0.18506797 0.09197627 0.2549571 0.7436761 0.1852212 -0.0047403653
-1.6396173 -0.15983294 -0.31070367 0.5752626 0.14886478 0.53400314 1.2944098 0.07742647
1.2681196 -0.07867805 -0.07835394 -0.87119496 -0.38899076 0.47304255 -0.5671452 0.52668566
0.4180361 -0.050561957 -0.33208394 -0.5686011 -0.6095979 0.4303167 0.22457667 -0.07285757
00000000: 40a2 82bd e0a8 f1be 7582 3dbe 0e5e bc3d
00000010: bd89 823e 8f61 3e3f a0aa 3d3e 1155 9bbb
00000020: fbde d1bf 3fab 23be 8d14 9fbe 6944 133f
00000030: 0270 183e 6eb4 083f 38af a53f c591 9e3d
00000040: be51 a23f f521 a1bd 0878 a0bd a206 5fbf
00000050: cc29 c7be a232 f23e 6e30 11bf dfd4 063f
00000060: d408 d63e 0e1a 4fbd e806 aabe d78f 11bf
00000070: 9c0e 1cbf 7852 dc3e 6df7 653e 5a36 95bd
