Networks/7-DDPG-with-target-network-policy-network-theta=1.pt (torch, 7463 bytes, 5 tensors)

fc1.weight f4 [32, 3]
00000000: b1d4 053f 12db d7bd 272a 2f3f 0eb0 bbbe
00000010: 62b6 05bf 0dd2 503e 34c5 eebe 77bb 083f
00000020: 40be 823e 52d2 a73d 4c88 12be 7af3 583e
00000030: ba57 d5be 9f8a fcbe d84b 9c3e 0af8 1dba
00000040: c44a e3be b4bc 023f abc4 c93d ac2b 8ebe
00000050: a625 e53e 1896 54be 132b 8c3e dca3 0f3f
00000060: 1308 bfbe 5d27 0f3f 5038 3c3f 4da7 4bbf
00000070: b22c 31be c714 c5be 6caf 36be 1d75 fd3e
00000080: 92d8 cc3d abe0 5ebe e537 df3e 3559 bd3e
00000090: fb22 fa3e 22d0 8cbf 05eb 61be 77cf d53e
000000a0: a834 533f 87ee 4c3d 9f10 dfbd 8793 0cbf
000000b0: a8fa 13bf 1467 fabe e19e 4c3d 9620 f43e
000000c0: 62e0 2abf e695 133c 59ed f93d b697 1a3f
000000d0: b82e 393d 854a 1fbe 98db 073f 0cb4 443f
000000e0: 0ffe d7be 31d8 22bf 9c8e 30bf e40a 40be
000000f0: db4a 95be 94dd f43d 9593 d0be 4056 2d3c
00000100: 9036 ec3e cb8a 0ebf 5a29 f5be 5349 57bf
00000110: a037 5ebe 209d 873e 8c18 a4be 62af d83e
00000120: 6856 cbbe 2a3e b3be 57de 723e 3354 08bf
00000130: c99c 34bf 9ade 42be c27a eebd b94c f3be
00000140: 0f29 85be 4124 64bd ffa6 353f 4eac 113e
00000150: acfe 0c3f d7b7 e1be 22a3 b43e 88ea 913e
00000160: a5eb 593f 99e0 4d3d 3076 163f 65e3 473f
00000170: 8890 3b3e 7d17 04bf eca0 ae3d cab8 413e
0.52277666 -0.10539831 0.68423694 -0.36657757 -0.5223142 0.20392628 -0.4663483 0.5341105
0.25535774 0.08194412 -0.14309806 0.21186629 -0.41668493 -0.4932451 0.30526614 -0.00060260354
-0.4439298 0.5106919 0.098519646 -0.27767694 0.44755286 -0.20760381 0.27376613 0.56109405
-0.37310848 0.5591944 0.73523426 -0.79552156 -0.17302206 -0.38492414 -0.17840356 0.49503413
0.10002245 -0.21765392 0.43597332 0.36982122 0.48854813 -1.1001017 -0.22062309 0.41759846
0.8250222 0.050032165 -0.10891842 -0.5491261 -0.57804346 -0.48906767 0.049956206 0.4768111
-0.6674863 0.009007907 0.122034736 0.6038774 0.04521057 -0.1555577 0.5306945 0.7683723
-0.4218602 -0.6361113 -0.68967605 -0.18754154 -0.29158673 0.11956325 -0.40737596 0.010579646
0.46135378 -0.5568053 -0.4788311 -0.8409626 -0.21700907 0.26487064 -0.32049978 0.42321306
-0.3971436 -0.35008365 0.23717628 -0.5325348 -0.70551735 -0.19030228 -0.11644508 -0.47519472
-0.26007888 -0.055698637 0.7095794 0.14225885 0.550761 -0.4408557 0.3528071 0.28499246
0.8512519 0.05026302 0.5877409 0.7808135 0.18316853 -0.5159834 0.08526787 0.18918148

fc1.bias f4 [32]
00000000: 0660 033c 8828 80be 792d 633e 8fe8 a3be
00000010: 980f 8ebd b679 8fbd a352 0fbf f259 df3d
00000020: 5cca c23e 7924 233f 1bba dfbd a126 dbbc
00000030: 5767 9d3e 6831 d4bd 727e e33e 72ff 8a3e
00000040: 0289 353f 8317 1bbd b420 ddba 88d3 73bd
00000050: 46f1 d3be 1f01 93be 4a9f 403f 8fb0 dc3e
00000060: 7a4e 6c3e b6b5 463f f3b1 c83e f20d c33e
00000070: e089 c93e df30 093d acf7 8bbd cb8d e63e
0.008018499 -0.25030923 0.22185315 -0.32013366 -0.06936568 -0.070056364 -0.5598547 0.109058276
0.38045013 0.6372753 -0.10924169 -0.026751818 0.30742905 -0.10360986 0.44432408 0.27148014
0.7091218 -0.03786422 -0.0016870708 -0.059527904 -0.41395015 -0.28711793 0.75243056 0.43103454
0.23076811 0.7762102 0.39198264 0.38096577 0.39363003 0.033493873 -0.06834349 0.45030054

fc2.weight f4 [32, 32]
00000000: 2165 c3bc 1fba 4fbd 0c19 26be 607d 81bd
00000010: b523 8b3c 2ea5 d63d 6133 133d 2a55 86bc
00000020: 3d4e 083d 552e 13be 0f7d a6bd d8dd a23d
00000030: d154 6abc d7f5 1bbe bfcf f8bd 1f61 c1bc
00000040: 0e59 c9bd 3d1b f13d 9b5a 00be 17f6 be3c
00000050: 600e b53d 4ae4 b03d 03f2 313e 8a1a b5bd
00000060: f849 b7bc a876 0cbe 786d b7bd 7eab 26be
00000070: d1e7 e8bd 5368 fc3d 3156 04bc 9b34 02be
00000080: ad99 753e 3e2f b8bd 9136 60bd e750 a8bb
00000090: 0c7e 78bd 1e8b 5b3e 32f4 493e c65f a5bd
000000a0: 962e 0d3e ec1e 633e 92a3 e13c 865d 86bd
000000b0: 4523 2ebe 6bda 5ebd ce23 3f3c 9af8 bdbd
000000c0: 9fb9 893e 41de 323e 28d9 983d 30c8 fc3d
000000d0: 7c34 1dbc 9f4b 573d 8bff 793e 3b7e 983d
000000e0: a987 93bd 8596 72bd 2f3c 0f3d 8d87 993c
000000f0: ff2c 0dbe 97af fcbc 0b7f 013e fa9d 8a3d
00000100: 7e97 08be b90d c0bd 81d5 2abd d733 4c3c
00000110: 08d5 0ebe 6e82 033d 2b00 16bd 3001 663d
00000120: ba19 c2bd 3350 8bbd 808c f1bd 0c8b 03be
00000130: cc58 043d 2a97 fd3c a058 a5bc 5a58 1ebe
00000140: fc5a 1ebe 8f13 b13d 9619 3abe b3b8 d5bd
00000150: e499 0ebc 388d b3bd e9d9 18be d889 a33c
00000160: 8334 f03d 4795 55bd dd84 9b3d b34e 33bd
00000170: 077d 143e 8487 bdba e882 e33d aea7 463c
00000180: 3cce 2dbe 7577 d1bd 7b6b 9dbc c01d e8bd
00000190: e16b b2bd d178 4cbe bbf6 9cbd 72c3 6bbd
000001a0: 41be 1bbe f7f3 f63e 20b5 27be 87a7 68bd
000001b0: db32 733d 1a14 38bd 456e c13d 9691 bb3d
000001c0: 834d b53e 57f5 87be 6c50 22bf fe38 e43e
000001d0: dbe4 91be c01f 9abe 2398 253f 4468 36bd
000001e0: 709a 293e 33e9 273f 9ac0 833e 1239 e2bd
000001f0: f2cf 1abe 792b d43c fafd 21bd 3d12 223e
00000200: 6572 ff3d 09e0 473d 5d41 2e3d ca5b eb3d
00000210: f2f7 93bd 16f0 24be 0956 68bd c903 cfbd
00000220: 399a 0bbe 5f9e 41bd cf64 f7bd fcba 39bd
00000230: 8dcb e63d 2af3 84bd 25a0 9fbc 9e2d aabb
00000240: f09a d93d 8be3 f33d 2c97 b1bc 03dd 9fbc
00000250: a114 ff3c 8b38 a2bd 487c b1bc 2835 c13c
00000260: 20ad 1dbc efba 25bd 8485 3abd d2a0 6c3c
00000270: bf50 d13d 38a2 08bd 5dd0 1dbe ce77 373d
00000280: ba37 c93d 2ba2 273e 3536 8cbe 97a6 b9bc
00000290: 50ac 873d 944d 38bb bc2d 393d 069b 0fbe
000002a0: 541e 033e b4e9 c53d 1412 36be 1ac9 163d
000002b0: afdd 8dbe ef2f b83d ebe2 45be 29b4 8d3d
000002c0: 20dd 15bc d069 973d 958b 4c3e 7942 043e
000002d0: ce50 0abe 2da4 1ebe fb23 a1be 3e18 5c3e
000002e0: 0af6 da3d c871 87be 0123 95bd 3460 9439
000002f0: ec20 353e 3d9e 813d 81e7 423e 392f 7cbe
00000300: da33 dd3b e476 9f3d edef b4bd 92ae 063d
00000310: 8038 ae3c d87e a2bd cae5 833d c99f aebd
00000320: 9801 cc3d 003e 073e ebae 053e d97f 8abc
00000330: 4a24 883c bc02 aabd 6f9d 96bd 8263 f2bd
00000340: bda4 9fbc 9c6e 1abe 25e2 8b3d 97a1 f4bd
00000350: cdb0 dbbd 00b8 37bd 1344 da3d 1cb6 8ebc
00000360: 7025 983c dad0 96bb 3ab7 13bd 9871 f8bd
00000370: 0b82 cebd 042a 2a3e 8d57 9ebd 548a 043d
00000380: 0e53 9e3c 8da8 d1bd f7e2 ce3d 8abd 0f3d
00000390: b7aa 11bd 66a9 03bd 6908 ec3d 70b8 1b3e
000003a0: e190 7d3d dd0f 153e 59be b5bd df1f d43d
000003b0: 0030 31bd df11 69bb 5552 f53d 1423 5d3d
000003c0: 3860 f63b ae62 133d 672c 02bc d3c9 c0bd
000003d0: b29d ab3d 0165 fbbd a3e9 9b3d 0660 733d
000003e0: 4c43 0dbd ea13 39be beab b2bd b483 2e3e
000003f0: a686 8ebd 6198 083c 72ec aebd 06e9 61bd
-0.023851933 -0.05071461 -0.16220492 -0.063227415 0.0169848 0.10480724 0.03593767 -0.016398031
0.03327774 -0.14373143 -0.08129322 0.079524696 -0.014302448 -0.15230499 -0.121489994 -0.023605881
-0.09831439 0.117727734 -0.12534563 0.023310704 0.088406324 0.08637293 0.17377476 -0.088429525
-0.022374138 -0.13717139 -0.089564264 -0.16276357 -0.113723405 0.12324586 -0.00807719 -0.1271538
0.23984404 -0.08993386 -0.05473954 -0.0051365974 -0.060667083 0.21439788 0.1972206 -0.08074908
0.13787302 0.22179765 0.027543817 -0.06560807 -0.17005642 -0.05440752 0.011666251 -0.092759326
0.2689943 0.17467596 0.07463294 0.1234287 -0.009595033 0.052562352 0.24413888 0.074459516
-0.072036095 -0.059225578 0.034969505 0.018741393 -0.13786696 -0.030845447 0.1264612 0.06768413
-0.1333904 -0.093776174 -0.04170752 0.012463531 -0.13948452 0.03210681 -0.036621254 0.056153476
-0.09477563 -0.06802406 -0.117943764 -0.12846011 0.032311246 0.03095587 -0.020183861 -0.15463391
-0.15464395 0.08646309 -0.18173823 -0.10435619 -0.008703683 -0.0876717 -0.14926876 0.01996319
0.11728766 -0.052144315 0.07593701 -0.043776225 0.14500819 -0.0014459942 0.11108953 0.012124939
-0.16973203 -0.10227863 -0.01921629 -0.11333799 -0.087119825 -0.19967963 -0.076642476 -0.057559438
-0.15209295 0.48233005 -0.16377687 -0.05680039 0.05937467 -0.044941045 0.0944486 0.09158628
0.354107 -0.26554367 -0.63403964 0.44574732 -0.28494915 -0.30102348 0.6468527 -0.04453303
0.1656282 0.6559021 0.2573288 -0.110460415 -0.15118387 0.025899636 -0.03954885 0.1582727
0.12472991 0.04879764 0.042542804 0.11492117 -0.07225026 -0.1610721 -0.056722675 -0.10108144
-0.1363305 -0.047270175 -0.120797746 -0.045344338 0.11269293 -0.06491692 -0.019485543 -0.0051934263
0.10625255 0.11908635 -0.02167853 -0.019514566 0.031137766 -0.07920941 -0.021665707 0.023584917
-0.009623796 -0.040461477 -0.045537487 0.014442639 0.10220479 -0.03335783 -0.15411516 0.04479199
0.09825082 0.16370456 -0.27385107 -0.022662444 0.06624663 -0.0028122412 0.04520963 -0.1402398
0.12804538 0.09663716 -0.17780334 0.03681288 -0.27708194 0.089935176 -0.19324844 0.069191284
-0.009146959 0.07393229 0.19975121 0.12915982 -0.13507387 -0.15492316 -0.31472763 0.21493623
0.106914595 -0.26453996 -0.07282067 0.00028300437 0.1768834 0.0632901 0.19033624 -0.24627389
0.006750566 0.077863485 -0.08834825 0.032881327 0.021267176 -0.0793435 0.06440313 -0.0852657
0.099612415 0.13207245 0.13055007 -0.016906666 0.016618866 -0.08301303 -0.07354247 -0.11835386
-0.019487733 -0.15081257 0.06830243 -0.11944883 -0.107270814 -0.04485321 0.106575154 -0.01742082
0.01857254 -0.0046025338 -0.03606341 -0.12131041 -0.100833975 0.1661759 -0.07731543 0.032358482
0.019326713 -0.10237227 0.10101884 0.035092868 -0.035563197 -0.032143973 0.115250416 0.15207076
0.061905745 0.14556833 -0.088741966 0.103576414 -0.043258667 -0.003556363 0.11978594 0.05398853
0.0075187944 0.03598278 -0.007945157 -0.09413495 0.08379687 -0.12275124 0.07612922 0.059417747
-0.034488007 -0.18074003 -0.087241635 0.17042428 -0.06959276 0.008337111 -0.08541192 -0.05515387

fc2.bias f4 [32]
00000000: 137a ffbb 0a0a 04be 2d87 fa3d 9fcf 3f3d
00000010: b1e5 683d f8e7 96bd 69d0 c5bd c057 9fbd
00000020: c696 ef3c ae6c fbbd 6f3b c7bb 1871 d63d
00000030: 2bc8 27be ae7a b43b 9419 153e 3785 f43d
00000040: 5c65 39bc 018b f9bb f7ef a53d 699c 813e
00000050: d5c9 923d defb 08bd 2f9e ac3d 57ae 553c
00000060: 66e7 403e 49df 0d3e 1294 5b3e a42b 1a3e
00000070: 635c 0e3e 985b 5fbc ae1b 95bd 6400 14be
-0.007796535 -0.12894455 0.12232814 0.046828862 0.056859676 -0.07368463 -0.09658892 -0.07780409
0.029246699 -0.122765884 -0.006080083 0.1047079 -0.16384952 0.0055077886 0.14560539 0.11939471
-0.01131567 -0.0076154475 0.0810241 0.25314644 0.07167403 -0.033443324 0.084286086 0.013042054
0.18838271 0.13854708 0.21443203 0.1505571 0.1390243 -0.0136326775 -0.0728067 -0.14453274

fc3.weight f4 [1, 32]
00000000: 1fbe 17be 8340 c6be 4efa 7a3d 47cd bbbf
00000010: 2b66 2c3e a0c4 2bbf ca0f bd3d f8c0 f83c
00000020: 02ca cd3d e92c 1abe 4ce9 92be 91ec 433f
00000030: 0501 063e 22db 8bbd e524 62bd 43c3 d43e
00000040: bef3 503e 1a33 2f3f 69d4 f93d 8b2b 773f
00000050: 7c74 34bf 769b fc3e 41eb 153f a297 26bd
00000060: e5f1 553f b4fa e2be af7a 483f af42 373f
00000070: 775a c4bf 3ada c93c 4ade b23d 5209 cf3b
-0.14818619 -0.38721094 0.061273865 -1.4672021 0.16835849 -0.670969 0.09231527 0.030365452
0.100482956 -0.15056194 -0.28693616 0.76532847 0.13086326 -0.06828906 -0.055210967 0.41555223
0.2040548 0.6843735 0.12198717 0.96550816 -0.7049024 0.49337357 0.58562094 -0.040671952
0.83572227 -0.44331896 0.783122 0.71586126 -1.5340108 0.024640191 0.087338045 0.0063182497
