Networks/7-DDPG-with-target-network-policy-network-theta=0.25.pt (torch, 7487 bytes, 5 tensors)

fc1.weight f4 [32, 3]
000000 35 d2 2c bf a7 31 ad 3e 5e f2 d7 3e 1a bf 31 be
       -0.6750825 0.33826944 0.421771 -0.17358056
000010 d5 ca bf 3e 15 a1 d3 be 02 50 04 3f 2b 7b c1 3e
       0.37459436 -0.41333833 0.5168458 0.37789282
000020 9d 30 f9 3e 32 05 e5 be a1 73 d9 bd f3 42 83 be
       0.48669901 -0.44730526 -0.106177576 -0.25637016
000030 50 28 b8 3e f4 a8 06 3f 6c 00 63 3e a7 5b d0 be
       0.35968256 0.5260155 0.2216813 -0.40694925
000040 1a 1c b9 be b8 23 79 be 99 08 8a bd cd 41 08 3f
       -0.36154252 -0.24330032 -0.06739921 0.53225404
000050 58 1d 69 be ba 3d ac 3e 8d 41 1d bf 8c 4e f4 3e
       -0.227651 0.33640844 -0.6142815 0.47716177
000060 0b e0 09 3f e8 50 03 3f 76 5b 28 be d4 10 cd be
       0.5385749 0.5129533 -0.1644114 -0.400519
000070 5c d8 ff 3e 3c cc b1 be c0 a6 a4 3e c4 51 01 3f
       0.49969757 -0.3472613 0.3215847 0.5051539
000080 01 3f 1d 3f 89 86 6f be 8a d8 09 3f 05 70 14 bf
       0.6142426 -0.23391165 0.5384604 -0.5798343
000090 c6 20 06 3f 9a 93 98 be 68 f1 e5 3e 17 50 83 3d
       0.5239376 -0.2980011 0.4491074 0.0641176
0000a0 f6 bf 17 3f a1 ed 8e 3e d1 81 f3 be c4 1f f8 3e
       0.59277284 0.2791567 -0.4755998 0.48461735
0000b0 fa 98 a8 3d 94 39 1b 3f 30 c6 68 3f d9 64 92 be
       0.08232303 0.6063473 0.9092741 -0.28592566
0000c0 dd 01 25 3f a4 f9 5a 3e d6 55 3f 3f dc 00 fe bd
       0.6445597 0.21384293 0.7474035 -0.12402508
0000d0 2b fe 1d bf 36 4b 15 be 8b ee 29 bf 4b f4 e4 be
       -0.61715955 -0.14579472 -0.6637961 -0.4471763
0000e0 22 28 8d be 2a ad 36 3f 77 f5 b5 bd 97 d8 23 bf
       -0.2756968 0.7135798 -0.08884709 -0.64002365
0000f0 b6 41 f7 3e b0 dc c3 bb e3 02 a8 3e 82 41 38 be
       0.4829232 -0.0059772357 0.32814702 -0.17993739
000100 94 ec 10 bf 7f 22 38 3e fa 76 2c bf 7d 0f 8e 3e
       -0.5661099 0.17981909 -0.67369044 0.27746192
000110 d0 f9 41 3e 70 11 d9 3e 5b be cf 3e d9 b2 17 bf
       0.18942952 0.42396116 0.40574917 -0.59257275
000120 fd 0c 74 3f 6c 8c 43 be e4 51 38 bf b7 ef 9c bd
       0.9533232 -0.19096535 -0.71999955 -0.076629095
000130 e1 f3 fb be dd b0 1e be 27 77 fd be 5d f6 fc 3e
       -0.49209502 -0.15497155 -0.4950497 0.4940671
000140 c6 92 cf be 07 a5 f2 3e c0 a1 b5 3e 2c 3d 6d be
       -0.40541667 0.4739153 0.35474968 -0.23167866
000150 85 d3 55 be b0 f9 d0 3e 2d 8f e8 be 91 09 62 bf
       -0.2088147 0.40815496 -0.45421734 -0.8829585
000160 c4 b3 cf bb 6a 35 1d 3f db 82 83 be 6a 54 0e bf
       -0.0063385684 0.6140963 -0.25685772 -0.55597556
000170 47 70 82 3e 34 4d 4e 3e d0 fc 13 3f b2 54 69 3e
       0.25476286 0.20146638 0.57807636 0.22786215

fc1.bias f4 [32]
000000 cf e5 7c 3c 28 46 13 3f f6 81 c2 be 3b c2 eb 3e
       0.01543565 0.57528925 -0.37989777 0.46046624
000010 d9 09 4d be 2e 32 8b 3d 84 7d 8e 3e db a6 30 3f
       -0.20023288 0.067966804 0.27830136 0.690046
000020 f6 a8 ce 3e 8e 52 1a 3f 08 e7 c8 be a9 e8 73 3d
       0.40363282 0.6028222 -0.39238763 0.059548054
000030 91 4f 13 bf d2 e6 2a 3e cd fc c2 be b7 e6 39 be
       -0.57543284 0.16689613 -0.38083497 -0.18154417
000040 17 27 0b bf 2b e7 c8 3e 14 91 03 3f 5e 8c d5 be
       -0.5435652 0.39238867 0.51393247 -0.41708654
000050 7f 8e 21 3f 0d dd 25 be e0 a1 de 3e f7 29 33 bf
       0.63108057 -0.16197605 0.43482876 -0.6998591
000060 76 c9 00 bf 3b 10 93 be 75 39 4c 3f 5d 08 2b bd
       -0.50307405 -0.2872332 0.7977517 -0.041756023
000070 ef 18 2d bf 0c 63 24 3f 78 4f fd be ab ca ba bb
       -0.6761617 0.64213634 -0.49474692 -0.0057004294

fc2.weight f4 [32, 32]
000000 96 c0 d6 ba eb f9 6e 3d 67 2c 81 bd f2 9c 99 bd
       -0.0016384299 0.05834381 -0.06307297 -0.07500638
000010 9e 07 8d 3d 2d 77 2f 3d 84 76 34 3e 17 30 19 be
       0.068862185 0.042838264 0.17623335 -0.14959751
000020 1e 8f 95 bd 9a cc 77 3e b7 7c 0a 3c 44 b4 54 bd
       -0.07302688 0.24199143 0.008452586 -0.051929727
000030 2b 39 18 3e ff e0 d0 3d a1 5e 4e 3d f5 77 34 bd
       0.14865558 0.101991646 0.050383214 -0.044059712
000040 c0 0e 2d be 42 6a c9 3d 3f f0 8e bd 88 df b3 bb
       -0.16900158 0.0983472 -0.06979417 -0.0054892935
000050 0c ff 05 be 37 68 ea bd 23 c8 05 bd 23 ee e4 bd
       -0.13085574 -0.11445659 -0.03266157 -0.111782335
000060 83 47 47 3d e3 b2 02 be 72 71 80 3e 0d 5f 26 be
       0.048652183 -0.12763552 0.25086552 -0.16247196
000070 ec 2e 0c 3c f5 bd ce 3b 3e 72 bc 3c 3d a6 0c 3e
       0.008556109 0.0063092657 0.023003694 0.1373529
000080 9f 2c 38 be 80 8d 59 3d 26 b6 83 bd aa 32 fe bd
       -0.17985772 0.05311346 -0.064312264 -0.12412007
000090 51 f4 48 bd a2 87 21 be 65 1d 87 3d b8 60 e2 3e
       -0.049061123 -0.15774396 0.065974034 0.44214416
0000a0 c1 92 20 3e 61 24 71 be 24 b5 68 be e3 69 f2 3d
       0.15680982 -0.23549034 -0.2272535 0.118366025
0000b0 93 a7 d8 bd 12 ed 11 be 8b dc bc 3c c4 29 8c be
       -0.10578837 -0.14250591 0.023054382 -0.27375615
0000c0 92 d9 3f be d8 b7 1b 3e 12 20 8e be 36 eb aa 3e
       -0.1873534 0.1520685 -0.27758843 0.33382577
0000d0 77 de 08 3d c7 c2 d0 bd f4 1b 0e 3e 63 9c 9c 3e
       0.033415284 -0.10193401 0.13877851 0.30588064
0000e0 19 85 16 3e 1b bd 67 be 49 32 97 be 5c 0c 8d bd
       0.1469921 -0.22630732 -0.29530552 -0.06887123
0000f0 9e a5 79 3e cf c2 c6 3d a4 8d 94 3d d3 f0 26 be
       0.24379584 0.097051255 0.07253578 -0.16302805
000100 5b 73 d5 3d ed 35 a3 bc 8f 93 fe 3d 0d 08 fe 3d
       0.10422393 -0.019923175 0.12430488 0.12403879
000110 93 31 c9 3d 38 20 5f 3e 9b bb 7b bd 67 52 fa bc
       0.09823909 0.21789634 -0.06145821 -0.03055687
000120 06 95 f2 3d f9 cf df 3d 77 68 f9 3d f8 d0 82 bd
       0.1184483 0.109283395 0.12178128 -0.06387514
000130 3f 4a a5 3c 62 f9 14 3d 73 60 e5 3c a6 52 40 3e
       0.020177005 0.036370642 0.028000092 0.18781528
000140 51 81 80 3e a1 74 9a 3d c8 0e 86 3e 18 7d 25 be
       0.2509866 0.075417764 0.26183152 -0.16161
000150 f6 be 62 bc e9 2e fc bc ab 86 7b be cb 86 4b bc
       -0.013839474 -0.030784087 -0.2456309 -0.012422274
000160 d3 6b 75 be 9b e5 e6 3d 33 64 7d 3e 12 cd 01 3e
       -0.23966913 0.112742625 0.24745254 0.12675884
000170 93 3e 2a be f7 7e 54 be 5f b8 1d 3e 42 a6 51 3e
       -0.16625433 -0.20751558 0.15402363 0.20473579
000180 3d 82 29 be 53 d7 2a be a5 e0 4d be d9 cf f5 3d
       -0.16553588 -0.16683702 -0.20105226 0.120025344
000190 64 41 ee 3d 06 74 08 3d f6 54 24 bd aa c5 f8 3c
       0.11633566 0.033313774 -0.040120088 0.030367691
0001a0 b1 7e 0c 3e 89 7e 1d be 9e e9 14 3d 56 6e 2c 3e
       0.13720204 -0.153803 0.036355607 0.16838965
0001b0 01 3d c0 bd ac d5 aa 3c 1b dd ae 3d 39 40 85 bd
       -0.093866356 0.02085384 0.08538266 -0.0650639
0001c0 ce d4 59 bd d8 21 06 3e 42 55 47 bd a2 dc 11 3e
       -0.053181462 0.13098848 -0.048665293 0.14244321
0001d0 68 87 18 3e 31 15 d9 bd a9 6e 61 3d b4 c4 49 3d
       0.14895403 -0.10599745 0.055037174 0.049259856
0001e0 21 ee 40 bd 9a aa ae bd bd 46 57 bd 10 c9 4e 3d
       -0.047102097 -0.085286334 -0.052557696 0.050484717
0001f0 6b 58 e1 3c 23 54 25 be a2 9f 17 3c 51 8f 29 bd
       0.027507981 -0.16145377 0.009254368 -0.041396443
000200 1b 06 8b bd e9 96 fc 3d 4d 49 4a be 3f 92 27 bd
       -0.06788274 0.12333471 -0.19754525 -0.040910956
000210 b6 df 10 bc 25 fc 2b 3e 9d be 17 be fc 11 49 be
       -0.008842399 0.16795404 -0.14818807 -0.19635767
000220 ef 2c 23 3a 83 02 07 be 80 33 12 bd a7 d1 cb bd
       0.0006224652 -0.13184552 -0.035693645 -0.099520974
000230 2a 7c 02 bd f4 a4 4c 3e cf 45 2c 3d bc 08 90 3d
       -0.031856693 0.199848 0.042058762 0.07032916
000240 a0 f6 fb 3d 34 4b 2f bd 3a ef fa 3d bb 9b 04 be
       0.12302899 -0.04279633 0.1225266 -0.12950031
000250 ef d6 76 3c 7c a0 c6 bc f8 04 3e bd 2c ee 27 3e
       0.015065893 -0.024246447 -0.046391457 0.16399449
000260 a9 f4 fb bd c0 60 c8 3d 8c 43 9c 3d b2 e2 aa 3d
       -0.123025246 0.097840786 0.07630071 0.0834402
000270 ba 2e 1d 3e 11 32 54 3e cb d0 88 bd 53 bd 97 3d
       0.15349856 0.20722224 -0.06680449 0.074091576
000280 da 3d 0f be 03 d7 1a 3e 0b 9d 3d 3c 94 fd 28 3e
       -0.13988438 0.15121083 0.0115730865 0.16502982
000290 62 cb 45 3e d5 75 23 3e dc 96 20 bc 08 cc be 3d
       0.19315866 0.15962918 -0.009801593 0.093162596
0002a0 38 48 90 3d 02 63 39 3e 73 25 b2 bc 16 76 e1 bd
       0.07045025 0.18104175 -0.021746373 -0.11008851
0002b0 f1 81 da 3c 58 bb b0 3d c1 f6 e0 3d 95 47 fc 3d
       0.026673289 0.08629483 0.109845646 0.12318341
0002c0 b1 3f ed bd d1 89 77 3d 06 b6 2b bd 4c 56 26 bd
       -0.11584414 0.060434166 -0.041921638 -0.040609643
0002d0 a3 5d 3e 3d 63 f1 d1 bd 36 52 93 bd 98 b8 fd bd
       0.046476018 -0.10251119 -0.07193415 -0.12388724
0002e0 00 89 ce bd c5 18 8e bd b7 f5 46 3e e0 38 2d bd
       -0.100847244 -0.06938318 0.1942967 -0.04229057
0002f0 7c dd 01 3c 58 eb b4 3c 85 0f 98 bd 92 ec ab 3d
       0.007926341 0.022084877 -0.07424835 0.083947316
000300 38 b2 d6 3b 7b 95 c7 3d 90 a0 92 3d e0 36 c9 3d
       0.006552007 0.09745308 0.07159531 0.0982492
000310 fb 64 6b 3d 1b 7e 39 3e 5e a0 b6 3d 19 9f f7 bc
       0.05746935 0.18114512 0.08917306 -0.03022723
000320 ba ea 12 3e 89 1b 32 3e 37 d2 e8 3d d3 e9 2f bd
       0.14347354 0.17393316 0.1136822 -0.0429476
000330 a9 a2 04 bd fe 37 59 bd 9d 66 98 bd 38 f0 17 bd
       -0.032381687 -0.053031914 -0.07441447 -0.037094325
000340 38 49 76 3e 05 07 0c 3c 93 41 9e 3e 18 4b 51 3c
       0.24051368 0.008546595 0.30909404 0.012774251
000350 7b 63 18 be 63 60 ca 3c 3c ce 51 be 57 bc 52 be
       -0.14881699 0.024704164 -0.20488828 -0.20579658
000360 48 25 71 be 22 0e 65 3e 9a 1e 7d 3e ef 7b af bd
       -0.23549378 0.22368672 0.24718705 -0.0856856
000370 a7 4f 63 be e9 37 3c be fb 0b ec bd b7 e9 1f 3e
       -0.22198354 -0.18380703 -0.115257226 0.15616499
000380 ef 1e 6d 3d 1e b0 7a bd e8 55 2c 3e 83 7d 5a bd
       0.05789083 -0.061203115 0.16829646 -0.053342354
000390 32 8c ab bc d1 45 f9 3d 1d 35 d9 3d 9e c6 58 bd
       -0.020940874 0.121715195 0.10605834 -0.05292379
0003a0 de 2e 77 3c 57 0d ae bd 74 60 87 bd 83 20 69 bd
       0.015086858 -0.08498638 -0.06610194 -0.05691577
0003b0 fe 62 34 bd f2 ff 2b bd c7 00 46 bd c4 44 03 3e
       -0.04403972 -0.041992135 -0.048340585 0.12819201
0003c0 6e 26 b5 3d 08 9a df 3d e8 d9 3a bd 4f c8 4a 3c
       0.088452205 0.10918051 -0.045617968 0.012376859
0003d0 d5 23 fe bd 81 5f 93 3d 5a e7 e1 bd 2e 64 ad 3d
       -0.12409178 0.0719595 -0.11030455 0.084663734
0003e0 e3 3d bf bd 07 6f b5 bd 78 f3 4f 3d 6c 0e ab 3d
       -0.09337976 -0.088590674 0.0507693 0.0835236
0003f0 d4 72 13 bd 8a 53 a1 bd 8c 31 b8 3d 3b 9f c3 3c
       -0.03599818 -0.07877262 0.08993825 0.023879638

fc2.bias f4 [32]
000000 26 11 16 3e 6a f6 0f 3e 93 d2 19 be c8 cd a9 bd
       0.14654979 0.14058843 -0.15021734 -0.08291203
000010 05 49 35 bd 78 e5 d3 bd 35 7b b8 3e 75 6c 0d be
       -0.04425909 -0.10346502 0.360315 -0.13810904
000020 b2 03 0a 3d fe f5 a7 3d 8b 79 42 3e e1 25 19 3e
       0.03369493 0.08201216 0.18991677 0.14955856
000030 8c 37 b4 bd 6a 3e ad 3e c0 2e a8 bd 7b 5c 74 3d
       -0.08799657 0.3383668 -0.08212042 0.05965851
000040 bf ee dc 3d b5 61 7e 3d bb fc 36 3c 38 de b9 3d
       0.10787725 0.0621049 0.011168654 0.09075588
000050 00 5a 83 bd 81 95 69 3e 40 21 d5 bd 54 97 02 3e
       -0.064136505 0.22810937 -0.104067326 0.1275304
000060 83 a6 b8 bd d2 91 b2 bd 84 76 71 3e 8c 83 58 be
       -0.090161346 -0.08719219 0.23580366 -0.21143931
000070 79 43 ff 3b f9 b2 fe 3c cd e9 2e bd a0 a0 09 3e
       0.007790026 0.0310912 -0.04270344 0.1344018

fc3.weight f4 [1, 32]
000000 78 3e 4e be 1b b0 60 3f b5 2d 26 bf 29 29 38 3e
       -0.20141017 0.87768716 -0.64913493 0.17984451
000010 2a d2 29 3e 5a 49 8f be 1b 63 38 bf 33 3e 2e 3e
       0.16584077 -0.2798565 -0.7202622 0.17015915
000020 31 b9 6f 3f 59 fc 2e 3f c2 7a 87 3e df 6e 1a 3d
       0.93641955 0.683538 0.26460844 0.03770339
000030 37 b8 2f bf 6e da 25 3f 0b 62 14 3f 9c d4 c1 bf
       -0.68640465 0.6478642 0.579621 -1.5143008
000040 e0 66 90 be fd 96 1b be d7 1c bc bf e3 b0 29 3f
       -0.28203487 -0.15194316 -1.4696301 0.6628553
000050 af c5 03 3f f6 cb 37 bf 66 b3 03 be 32 a1 b6 3d
       0.51473516 -0.71795595 -0.12861404 0.08917464
000060 c6 5c 93 be 4f 4e d6 3d 91 78 98 3f 03 c8 9a be
       -0.28781718 0.10464155 1.1911794 -0.30230722
000070 34 c1 e5 bd db 11 d9 3d fa 4b a7 3e 28 be 63 3e
       -0.11218491 0.10599109 0.32675153 0.22240508
